ir_version: 8
producer_name: "pytorch"
producer_version: "2.2.0"
graph {
  node {
    input: "l_x_"
    input: "conv_stem.weight"
    output: "conv_stem_1"
    name: "torch_nn_modules_conv_Conv2d_conv_stem_1_0"
    op_type: "torch_nn_modules_conv_Conv2d_conv_stem_1"
    domain: "pkg.torch.2.2.0a0+git63d65dd"
  }
  node {
    input: "conv_stem_1"
    input: "bn1.running_mean"
    input: "bn1.running_var"
    input: "bn1.weight"
    input: "bn1.bias"
    output: "bn1_1"
    name: "timm_layers_norm_act_BatchNormAct2d_bn1_1_1"
    op_type: "timm_layers_norm_act_BatchNormAct2d_bn1_1"
    domain: "pkg.timm.0.9.7"
  }
  node {
    input: "bn1_1"
    input: "blocks.0.0.conv_dw.weight"
    input: "blocks.0.0.bn1.running_mean"
    input: "blocks.0.0.bn1.running_var"
    input: "blocks.0.0.bn1.weight"
    input: "blocks.0.0.bn1.bias"
    input: "blocks.0.0.conv_pw.weight"
    input: "blocks.0.0.bn2.running_mean"
    input: "blocks.0.0.bn2.running_var"
    input: "blocks.0.0.bn2.weight"
    input: "blocks.0.0.bn2.bias"
    input: "blocks.1.0.conv_pw.weight"
    input: "blocks.1.0.bn1.running_mean"
    input: "blocks.1.0.bn1.running_var"
    input: "blocks.1.0.bn1.weight"
    input: "blocks.1.0.bn1.bias"
    input: "blocks.1.0.conv_dw.weight"
    input: "blocks.1.0.bn2.running_mean"
    input: "blocks.1.0.bn2.running_var"
    input: "blocks.1.0.bn2.weight"
    input: "blocks.1.0.bn2.bias"
    input: "blocks.1.0.conv_pwl.weight"
    input: "blocks.1.0.bn3.running_mean"
    input: "blocks.1.0.bn3.running_var"
    input: "blocks.1.0.bn3.weight"
    input: "blocks.1.0.bn3.bias"
    input: "blocks.1.1.conv_pw.weight"
    input: "blocks.1.1.bn1.running_mean"
    input: "blocks.1.1.bn1.running_var"
    input: "blocks.1.1.bn1.weight"
    input: "blocks.1.1.bn1.bias"
    input: "blocks.1.1.conv_dw.weight"
    input: "blocks.1.1.bn2.running_mean"
    input: "blocks.1.1.bn2.running_var"
    input: "blocks.1.1.bn2.weight"
    input: "blocks.1.1.bn2.bias"
    input: "blocks.1.1.conv_pwl.weight"
    input: "blocks.1.1.bn3.running_mean"
    input: "blocks.1.1.bn3.running_var"
    input: "blocks.1.1.bn3.weight"
    input: "blocks.1.1.bn3.bias"
    input: "blocks.2.0.conv_pw.weight"
    input: "blocks.2.0.bn1.running_mean"
    input: "blocks.2.0.bn1.running_var"
    input: "blocks.2.0.bn1.weight"
    input: "blocks.2.0.bn1.bias"
    input: "blocks.2.0.conv_dw.weight"
    input: "blocks.2.0.bn2.running_mean"
    input: "blocks.2.0.bn2.running_var"
    input: "blocks.2.0.bn2.weight"
    input: "blocks.2.0.bn2.bias"
    input: "blocks.2.0.conv_pwl.weight"
    input: "blocks.2.0.bn3.running_mean"
    input: "blocks.2.0.bn3.running_var"
    input: "blocks.2.0.bn3.weight"
    input: "blocks.2.0.bn3.bias"
    input: "blocks.2.1.conv_pw.weight"
    input: "blocks.2.1.bn1.running_mean"
    input: "blocks.2.1.bn1.running_var"
    input: "blocks.2.1.bn1.weight"
    input: "blocks.2.1.bn1.bias"
    input: "blocks.2.1.conv_dw.weight"
    input: "blocks.2.1.bn2.running_mean"
    input: "blocks.2.1.bn2.running_var"
    input: "blocks.2.1.bn2.weight"
    input: "blocks.2.1.bn2.bias"
    input: "blocks.2.1.conv_pwl.weight"
    input: "blocks.2.1.bn3.running_mean"
    input: "blocks.2.1.bn3.running_var"
    input: "blocks.2.1.bn3.weight"
    input: "blocks.2.1.bn3.bias"
    input: "blocks.2.2.conv_pw.weight"
    input: "blocks.2.2.bn1.running_mean"
    input: "blocks.2.2.bn1.running_var"
    input: "blocks.2.2.bn1.weight"
    input: "blocks.2.2.bn1.bias"
    input: "blocks.2.2.conv_dw.weight"
    input: "blocks.2.2.bn2.running_mean"
    input: "blocks.2.2.bn2.running_var"
    input: "blocks.2.2.bn2.weight"
    input: "blocks.2.2.bn2.bias"
    input: "blocks.2.2.conv_pwl.weight"
    input: "blocks.2.2.bn3.running_mean"
    input: "blocks.2.2.bn3.running_var"
    input: "blocks.2.2.bn3.weight"
    input: "blocks.2.2.bn3.bias"
    input: "blocks.3.0.conv_pw.weight"
    input: "blocks.3.0.bn1.running_mean"
    input: "blocks.3.0.bn1.running_var"
    input: "blocks.3.0.bn1.weight"
    input: "blocks.3.0.bn1.bias"
    input: "blocks.3.0.conv_dw.weight"
    input: "blocks.3.0.bn2.running_mean"
    input: "blocks.3.0.bn2.running_var"
    input: "blocks.3.0.bn2.weight"
    input: "blocks.3.0.bn2.bias"
    input: "blocks.3.0.conv_pwl.weight"
    input: "blocks.3.0.bn3.running_mean"
    input: "blocks.3.0.bn3.running_var"
    input: "blocks.3.0.bn3.weight"
    input: "blocks.3.0.bn3.bias"
    input: "blocks.3.1.conv_pw.weight"
    input: "blocks.3.1.bn1.running_mean"
    input: "blocks.3.1.bn1.running_var"
    input: "blocks.3.1.bn1.weight"
    input: "blocks.3.1.bn1.bias"
    input: "blocks.3.1.conv_dw.weight"
    input: "blocks.3.1.bn2.running_mean"
    input: "blocks.3.1.bn2.running_var"
    input: "blocks.3.1.bn2.weight"
    input: "blocks.3.1.bn2.bias"
    input: "blocks.3.1.conv_pwl.weight"
    input: "blocks.3.1.bn3.running_mean"
    input: "blocks.3.1.bn3.running_var"
    input: "blocks.3.1.bn3.weight"
    input: "blocks.3.1.bn3.bias"
    input: "blocks.3.2.conv_pw.weight"
    input: "blocks.3.2.bn1.running_mean"
    input: "blocks.3.2.bn1.running_var"
    input: "blocks.3.2.bn1.weight"
    input: "blocks.3.2.bn1.bias"
    input: "blocks.3.2.conv_dw.weight"
    input: "blocks.3.2.bn2.running_mean"
    input: "blocks.3.2.bn2.running_var"
    input: "blocks.3.2.bn2.weight"
    input: "blocks.3.2.bn2.bias"
    input: "blocks.3.2.conv_pwl.weight"
    input: "blocks.3.2.bn3.running_mean"
    input: "blocks.3.2.bn3.running_var"
    input: "blocks.3.2.bn3.weight"
    input: "blocks.3.2.bn3.bias"
    input: "blocks.3.3.conv_pw.weight"
    input: "blocks.3.3.bn1.running_mean"
    input: "blocks.3.3.bn1.running_var"
    input: "blocks.3.3.bn1.weight"
    input: "blocks.3.3.bn1.bias"
    input: "blocks.3.3.conv_dw.weight"
    input: "blocks.3.3.bn2.running_mean"
    input: "blocks.3.3.bn2.running_var"
    input: "blocks.3.3.bn2.weight"
    input: "blocks.3.3.bn2.bias"
    input: "blocks.3.3.conv_pwl.weight"
    input: "blocks.3.3.bn3.running_mean"
    input: "blocks.3.3.bn3.running_var"
    input: "blocks.3.3.bn3.weight"
    input: "blocks.3.3.bn3.bias"
    input: "blocks.4.0.conv_pw.weight"
    input: "blocks.4.0.bn1.running_mean"
    input: "blocks.4.0.bn1.running_var"
    input: "blocks.4.0.bn1.weight"
    input: "blocks.4.0.bn1.bias"
    input: "blocks.4.0.conv_dw.weight"
    input: "blocks.4.0.bn2.running_mean"
    input: "blocks.4.0.bn2.running_var"
    input: "blocks.4.0.bn2.weight"
    input: "blocks.4.0.bn2.bias"
    input: "blocks.4.0.conv_pwl.weight"
    input: "blocks.4.0.bn3.running_mean"
    input: "blocks.4.0.bn3.running_var"
    input: "blocks.4.0.bn3.weight"
    input: "blocks.4.0.bn3.bias"
    input: "blocks.4.1.conv_pw.weight"
    input: "blocks.4.1.bn1.running_mean"
    input: "blocks.4.1.bn1.running_var"
    input: "blocks.4.1.bn1.weight"
    input: "blocks.4.1.bn1.bias"
    input: "blocks.4.1.conv_dw.weight"
    input: "blocks.4.1.bn2.running_mean"
    input: "blocks.4.1.bn2.running_var"
    input: "blocks.4.1.bn2.weight"
    input: "blocks.4.1.bn2.bias"
    input: "blocks.4.1.conv_pwl.weight"
    input: "blocks.4.1.bn3.running_mean"
    input: "blocks.4.1.bn3.running_var"
    input: "blocks.4.1.bn3.weight"
    input: "blocks.4.1.bn3.bias"
    input: "blocks.4.2.conv_pw.weight"
    input: "blocks.4.2.bn1.running_mean"
    input: "blocks.4.2.bn1.running_var"
    input: "blocks.4.2.bn1.weight"
    input: "blocks.4.2.bn1.bias"
    input: "blocks.4.2.conv_dw.weight"
    input: "blocks.4.2.bn2.running_mean"
    input: "blocks.4.2.bn2.running_var"
    input: "blocks.4.2.bn2.weight"
    input: "blocks.4.2.bn2.bias"
    input: "blocks.4.2.conv_pwl.weight"
    input: "blocks.4.2.bn3.running_mean"
    input: "blocks.4.2.bn3.running_var"
    input: "blocks.4.2.bn3.weight"
    input: "blocks.4.2.bn3.bias"
    input: "blocks.5.0.conv_pw.weight"
    input: "blocks.5.0.bn1.running_mean"
    input: "blocks.5.0.bn1.running_var"
    input: "blocks.5.0.bn1.weight"
    input: "blocks.5.0.bn1.bias"
    input: "blocks.5.0.conv_dw.weight"
    input: "blocks.5.0.bn2.running_mean"
    input: "blocks.5.0.bn2.running_var"
    input: "blocks.5.0.bn2.weight"
    input: "blocks.5.0.bn2.bias"
    input: "blocks.5.0.conv_pwl.weight"
    input: "blocks.5.0.bn3.running_mean"
    input: "blocks.5.0.bn3.running_var"
    input: "blocks.5.0.bn3.weight"
    input: "blocks.5.0.bn3.bias"
    input: "blocks.5.1.conv_pw.weight"
    input: "blocks.5.1.bn1.running_mean"
    input: "blocks.5.1.bn1.running_var"
    input: "blocks.5.1.bn1.weight"
    input: "blocks.5.1.bn1.bias"
    input: "blocks.5.1.conv_dw.weight"
    input: "blocks.5.1.bn2.running_mean"
    input: "blocks.5.1.bn2.running_var"
    input: "blocks.5.1.bn2.weight"
    input: "blocks.5.1.bn2.bias"
    input: "blocks.5.1.conv_pwl.weight"
    input: "blocks.5.1.bn3.running_mean"
    input: "blocks.5.1.bn3.running_var"
    input: "blocks.5.1.bn3.weight"
    input: "blocks.5.1.bn3.bias"
    input: "blocks.5.2.conv_pw.weight"
    input: "blocks.5.2.bn1.running_mean"
    input: "blocks.5.2.bn1.running_var"
    input: "blocks.5.2.bn1.weight"
    input: "blocks.5.2.bn1.bias"
    input: "blocks.5.2.conv_dw.weight"
    input: "blocks.5.2.bn2.running_mean"
    input: "blocks.5.2.bn2.running_var"
    input: "blocks.5.2.bn2.weight"
    input: "blocks.5.2.bn2.bias"
    input: "blocks.5.2.conv_pwl.weight"
    input: "blocks.5.2.bn3.running_mean"
    input: "blocks.5.2.bn3.running_var"
    input: "blocks.5.2.bn3.weight"
    input: "blocks.5.2.bn3.bias"
    input: "blocks.6.0.conv_pw.weight"
    input: "blocks.6.0.bn1.running_mean"
    input: "blocks.6.0.bn1.running_var"
    input: "blocks.6.0.bn1.weight"
    input: "blocks.6.0.bn1.bias"
    input: "blocks.6.0.conv_dw.weight"
    input: "blocks.6.0.bn2.running_mean"
    input: "blocks.6.0.bn2.running_var"
    input: "blocks.6.0.bn2.weight"
    input: "blocks.6.0.bn2.bias"
    input: "blocks.6.0.conv_pwl.weight"
    input: "blocks.6.0.bn3.running_mean"
    input: "blocks.6.0.bn3.running_var"
    input: "blocks.6.0.bn3.weight"
    input: "blocks.6.0.bn3.bias"
    output: "blocks_1"
    name: "torch_nn_modules_container_Sequential_blocks_1_2"
    op_type: "torch_nn_modules_container_Sequential_blocks_1"
    domain: "pkg.torch.2.2.0a0+git63d65dd"
  }
  node {
    input: "blocks_1"
    input: "conv_head.weight"
    output: "conv_head_1"
    name: "torch_nn_modules_conv_Conv2d_conv_head_1_3"
    op_type: "torch_nn_modules_conv_Conv2d_conv_head_1"
    domain: "pkg.torch.2.2.0a0+git63d65dd"
  }
  node {
    input: "conv_head_1"
    input: "bn2.running_mean"
    input: "bn2.running_var"
    input: "bn2.weight"
    input: "bn2.bias"
    output: "bn2_1"
    name: "timm_layers_norm_act_BatchNormAct2d_bn2_1_4"
    op_type: "timm_layers_norm_act_BatchNormAct2d_bn2_1"
    domain: "pkg.timm.0.9.7"
  }
  node {
    input: "bn2_1"
    output: "global_pool_1"
    name: "timm_layers_adaptive_avgmax_pool_SelectAdaptivePool2d_global_pool_1_5"
    op_type: "timm_layers_adaptive_avgmax_pool_SelectAdaptivePool2d_global_pool_1"
    domain: "pkg.timm.0.9.7"
  }
  node {
    input: "global_pool_1"
    input: "classifier.weight"
    input: "classifier.bias"
    output: "classifier_1"
    name: "torch_nn_modules_linear_Linear_classifier_1_6"
    op_type: "torch_nn_modules_linear_Linear_classifier_1"
    domain: "pkg.torch.2.2.0a0+git63d65dd"
  }
  name: "main_graph"
  initializer {
    dims: 32
    dims: 3
    dims: 3
    dims: 3
    data_type: 1
    name: "conv_stem.weight"
    raw_data: ""
  }
  initializer {
    dims: 32
    data_type: 1
    name: "bn1.running_mean"
    raw_data: ""
  }
  initializer {
    dims: 32
    data_type: 1
    name: "bn1.running_var"
    raw_data: ""
  }
  initializer {
    dims: 32
    data_type: 1
    name: "bn1.weight"
    raw_data: ""
  }
  initializer {
    dims: 32
    data_type: 1
    name: "bn1.bias"
    raw_data: ""
  }
  initializer {
    dims: 32
    dims: 1
    dims: 3
    dims: 3
    data_type: 1
    name: "blocks.0.0.conv_dw.weight"
    raw_data: ""
  }
  initializer {
    dims: 32
    data_type: 1
    name: "blocks.0.0.bn1.running_mean"
    raw_data: ""
  }
  initializer {
    dims: 32
    data_type: 1
    name: "blocks.0.0.bn1.running_var"
    raw_data: ""
  }
  initializer {
    dims: 32
    data_type: 1
    name: "blocks.0.0.bn1.weight"
    raw_data: ""
  }
  initializer {
    dims: 32
    data_type: 1
    name: "blocks.0.0.bn1.bias"
    raw_data: ""
  }
  initializer {
    dims: 16
    dims: 32
    dims: 1
    dims: 1
    data_type: 1
    name: "blocks.0.0.conv_pw.weight"
    raw_data: ""
  }
  initializer {
    dims: 16
    data_type: 1
    name: "blocks.0.0.bn2.running_mean"
    raw_data: ""
  }
  initializer {
    dims: 16
    data_type: 1
    name: "blocks.0.0.bn2.running_var"
    raw_data: ""
  }
  initializer {
    dims: 16
    data_type: 1
    name: "blocks.0.0.bn2.weight"
    raw_data: ""
  }
  initializer {
    dims: 16
    data_type: 1
    name: "blocks.0.0.bn2.bias"
    raw_data: ""
  }
  initializer {
    dims: 96
    dims: 16
    dims: 1
    dims: 1
    data_type: 1
    name: "blocks.1.0.conv_pw.weight"
    raw_data: ""
  }
  initializer {
    dims: 96
    data_type: 1
    name: "blocks.1.0.bn1.running_mean"
    raw_data: ""
  }
  initializer {
    dims: 96
    data_type: 1
    name: "blocks.1.0.bn1.running_var"
    raw_data: ""
  }
  initializer {
    dims: 96
    data_type: 1
    name: "blocks.1.0.bn1.weight"
    raw_data: ""
  }
  initializer {
    dims: 96
    data_type: 1
    name: "blocks.1.0.bn1.bias"
    raw_data: ""
  }
  initializer {
    dims: 96
    dims: 1
    dims: 3
    dims: 3
    data_type: 1
    name: "blocks.1.0.conv_dw.weight"
    raw_data: ""
  }
  initializer {
    dims: 96
    data_type: 1
    name: "blocks.1.0.bn2.running_mean"
    raw_data: ""
  }
  initializer {
    dims: 96
    data_type: 1
    name: "blocks.1.0.bn2.running_var"
    raw_data: ""
  }
  initializer {
    dims: 96
    data_type: 1
    name: "blocks.1.0.bn2.weight"
    raw_data: ""
  }
  initializer {
    dims: 96
    data_type: 1
    name: "blocks.1.0.bn2.bias"
    raw_data: ""
  }
  initializer {
    dims: 24
    dims: 96
    dims: 1
    dims: 1
    data_type: 1
    name: "blocks.1.0.conv_pwl.weight"
    raw_data: ""
  }
  initializer {
    dims: 24
    data_type: 1
    name: "blocks.1.0.bn3.running_mean"
    raw_data: ""
  }
  initializer {
    dims: 24
    data_type: 1
    name: "blocks.1.0.bn3.running_var"
    raw_data: ""
  }
  initializer {
    dims: 24
    data_type: 1
    name: "blocks.1.0.bn3.weight"
    raw_data: ""
  }
  initializer {
    dims: 24
    data_type: 1
    name: "blocks.1.0.bn3.bias"
    raw_data: ""
  }
  initializer {
    dims: 144
    dims: 24
    dims: 1
    dims: 1
    data_type: 1
    name: "blocks.1.1.conv_pw.weight"
    raw_data: ""
  }
  initializer {
    dims: 144
    data_type: 1
    name: "blocks.1.1.bn1.running_mean"
    raw_data: ""
  }
  initializer {
    dims: 144
    data_type: 1
    name: "blocks.1.1.bn1.running_var"
    raw_data: ""
  }
  initializer {
    dims: 144
    data_type: 1
    name: "blocks.1.1.bn1.weight"
    raw_data: ""
  }
  initializer {
    dims: 144
    data_type: 1
    name: "blocks.1.1.bn1.bias"
    raw_data: ""
  }
  initializer {
    dims: 144
    dims: 1
    dims: 3
    dims: 3
    data_type: 1
    name: "blocks.1.1.conv_dw.weight"
    raw_data: ""
  }
  initializer {
    dims: 144
    data_type: 1
    name: "blocks.1.1.bn2.running_mean"
    raw_data: ""
  }
  initializer {
    dims: 144
    data_type: 1
    name: "blocks.1.1.bn2.running_var"
    raw_data: ""
  }
  initializer {
    dims: 144
    data_type: 1
    name: "blocks.1.1.bn2.weight"
    raw_data: ""
  }
  initializer {
    dims: 144
    data_type: 1
    name: "blocks.1.1.bn2.bias"
    raw_data: ""
  }
  initializer {
    dims: 24
    dims: 144
    dims: 1
    dims: 1
    data_type: 1
    name: "blocks.1.1.conv_pwl.weight"
    raw_data: ""
  }
  initializer {
    dims: 24
    data_type: 1
    name: "blocks.1.1.bn3.running_mean"
    raw_data: ""
  }
  initializer {
    dims: 24
    data_type: 1
    name: "blocks.1.1.bn3.running_var"
    raw_data: ""
  }
  initializer {
    dims: 24
    data_type: 1
    name: "blocks.1.1.bn3.weight"
    raw_data: ""
  }
  initializer {
    dims: 24
    data_type: 1
    name: "blocks.1.1.bn3.bias"
    raw_data: ""
  }
  initializer {
    dims: 144
    dims: 24
    dims: 1
    dims: 1
    data_type: 1
    name: "blocks.2.0.conv_pw.weight"
    raw_data: ""
  }
  initializer {
    dims: 144
    data_type: 1
    name: "blocks.2.0.bn1.running_mean"
    raw_data: ""
  }
  initializer {
    dims: 144
    data_type: 1
    name: "blocks.2.0.bn1.running_var"
    raw_data: ""
  }
  initializer {
    dims: 144
    data_type: 1
    name: "blocks.2.0.bn1.weight"
    raw_data: ""
  }
  initializer {
    dims: 144
    data_type: 1
    name: "blocks.2.0.bn1.bias"
    raw_data: ""
  }
  initializer {
    dims: 144
    dims: 1
    dims: 3
    dims: 3
    data_type: 1
    name: "blocks.2.0.conv_dw.weight"
    raw_data: ""
  }
  initializer {
    dims: 144
    data_type: 1
    name: "blocks.2.0.bn2.running_mean"
    raw_data: ""
  }
  initializer {
    dims: 144
    data_type: 1
    name: "blocks.2.0.bn2.running_var"
    raw_data: ""
  }
  initializer {
    dims: 144
    data_type: 1
    name: "blocks.2.0.bn2.weight"
    raw_data: ""
  }
  initializer {
    dims: 144
    data_type: 1
    name: "blocks.2.0.bn2.bias"
    raw_data: ""
  }
  initializer {
    dims: 32
    dims: 144
    dims: 1
    dims: 1
    data_type: 1
    name: "blocks.2.0.conv_pwl.weight"
    raw_data: ""
  }
  initializer {
    dims: 32
    data_type: 1
    name: "blocks.2.0.bn3.running_mean"
    raw_data: ""
  }
  initializer {
    dims: 32
    data_type: 1
    name: "blocks.2.0.bn3.running_var"
    raw_data: ""
  }
  initializer {
    dims: 32
    data_type: 1
    name: "blocks.2.0.bn3.weight"
    raw_data: ""
  }
  initializer {
    dims: 32
    data_type: 1
    name: "blocks.2.0.bn3.bias"
    raw_data: ""
  }
  initializer {
    dims: 192
    dims: 32
    dims: 1
    dims: 1
    data_type: 1
    name: "blocks.2.1.conv_pw.weight"
    raw_data: ""
  }
  initializer {
    dims: 192
    data_type: 1
    name: "blocks.2.1.bn1.running_mean"
    raw_data: ""
  }
  initializer {
    dims: 192
    data_type: 1
    name: "blocks.2.1.bn1.running_var"
    raw_data: ""
  }
  initializer {
    dims: 192
    data_type: 1
    name: "blocks.2.1.bn1.weight"
    raw_data: ""
  }
  initializer {
    dims: 192
    data_type: 1
    name: "blocks.2.1.bn1.bias"
    raw_data: ""
  }
  initializer {
    dims: 192
    dims: 1
    dims: 3
    dims: 3
    data_type: 1
    name: "blocks.2.1.conv_dw.weight"
    raw_data: ""
  }
  initializer {
    dims: 192
    data_type: 1
    name: "blocks.2.1.bn2.running_mean"
    raw_data: ""
  }
  initializer {
    dims: 192
    data_type: 1
    name: "blocks.2.1.bn2.running_var"
    raw_data: ""
  }
  initializer {
    dims: 192
    data_type: 1
    name: "blocks.2.1.bn2.weight"
    raw_data: ""
  }
  initializer {
    dims: 192
    data_type: 1
    name: "blocks.2.1.bn2.bias"
    raw_data: ""
  }
  initializer {
    dims: 32
    dims: 192
    dims: 1
    dims: 1
    data_type: 1
    name: "blocks.2.1.conv_pwl.weight"
    raw_data: ""
  }
  initializer {
    dims: 32
    data_type: 1
    name: "blocks.2.1.bn3.running_mean"
    raw_data: ""
  }
  initializer {
    dims: 32
    data_type: 1
    name: "blocks.2.1.bn3.running_var"
    raw_data: ""
  }
  initializer {
    dims: 32
    data_type: 1
    name: "blocks.2.1.bn3.weight"
    raw_data: ""
  }
  initializer {
    dims: 32
    data_type: 1
    name: "blocks.2.1.bn3.bias"
    raw_data: ""
  }
  initializer {
    dims: 192
    dims: 32
    dims: 1
    dims: 1
    data_type: 1
    name: "blocks.2.2.conv_pw.weight"
    raw_data: ""
  }
  initializer {
    dims: 192
    data_type: 1
    name: "blocks.2.2.bn1.running_mean"
    raw_data: ""
  }
  initializer {
    dims: 192
    data_type: 1
    name: "blocks.2.2.bn1.running_var"
    raw_data: ""
  }
  initializer {
    dims: 192
    data_type: 1
    name: "blocks.2.2.bn1.weight"
    raw_data: ""
  }
  initializer {
    dims: 192
    data_type: 1
    name: "blocks.2.2.bn1.bias"
    raw_data: ""
  }
  initializer {
    dims: 192
    dims: 1
    dims: 3
    dims: 3
    data_type: 1
    name: "blocks.2.2.conv_dw.weight"
    raw_data: ""
  }
  initializer {
    dims: 192
    data_type: 1
    name: "blocks.2.2.bn2.running_mean"
    raw_data: ""
  }
  initializer {
    dims: 192
    data_type: 1
    name: "blocks.2.2.bn2.running_var"
    raw_data: ""
  }
  initializer {
    dims: 192
    data_type: 1
    name: "blocks.2.2.bn2.weight"
    raw_data: ""
  }
  initializer {
    dims: 192
    data_type: 1
    name: "blocks.2.2.bn2.bias"
    raw_data: ""
  }
  initializer {
    dims: 32
    dims: 192
    dims: 1
    dims: 1
    data_type: 1
    name: "blocks.2.2.conv_pwl.weight"
    raw_data: ""
  }
  initializer {
    dims: 32
    data_type: 1
    name: "blocks.2.2.bn3.running_mean"
    raw_data: ""
  }
  initializer {
    dims: 32
    data_type: 1
    name: "blocks.2.2.bn3.running_var"
    raw_data: ""
  }
  initializer {
    dims: 32
    data_type: 1
    name: "blocks.2.2.bn3.weight"
    raw_data: ""
  }
  initializer {
    dims: 32
    data_type: 1
    name: "blocks.2.2.bn3.bias"
    raw_data: ""
  }
  initializer {
    dims: 192
    dims: 32
    dims: 1
    dims: 1
    data_type: 1
    name: "blocks.3.0.conv_pw.weight"
    raw_data: ""
  }
  initializer {
    dims: 192
    data_type: 1
    name: "blocks.3.0.bn1.running_mean"
    raw_data: ""
  }
  initializer {
    dims: 192
    data_type: 1
    name: "blocks.3.0.bn1.running_var"
    raw_data: ""
  }
  initializer {
    dims: 192
    data_type: 1
    name: "blocks.3.0.bn1.weight"
    raw_data: ""
  }
  initializer {
    dims: 192
    data_type: 1
    name: "blocks.3.0.bn1.bias"
    raw_data: ""
  }
  initializer {
    dims: 192
    dims: 1
    dims: 3
    dims: 3
    data_type: 1
    name: "blocks.3.0.conv_dw.weight"
    raw_data: ""
  }
  initializer {
    dims: 192
    data_type: 1
    name: "blocks.3.0.bn2.running_mean"
    raw_data: ""
  }
  initializer {
    dims: 192
    data_type: 1
    name: "blocks.3.0.bn2.running_var"
    raw_data: ""
  }
  initializer {
    dims: 192
    data_type: 1
    name: "blocks.3.0.bn2.weight"
    raw_data: ""
  }
  initializer {
    dims: 192
    data_type: 1
    name: "blocks.3.0.bn2.bias"
    raw_data: ""
  }
  initializer {
    dims: 64
    dims: 192
    dims: 1
    dims: 1
    data_type: 1
    name: "blocks.3.0.conv_pwl.weight"
    raw_data: ""
  }
  initializer {
    dims: 64
    data_type: 1
    name: "blocks.3.0.bn3.running_mean"
    raw_data: ""
  }
  initializer {
    dims: 64
    data_type: 1
    name: "blocks.3.0.bn3.running_var"
    raw_data: ""
  }
  initializer {
    dims: 64
    data_type: 1
    name: "blocks.3.0.bn3.weight"
    raw_data: ""
  }
  initializer {
    dims: 64
    data_type: 1
    name: "blocks.3.0.bn3.bias"
    raw_data: ""
  }
  initializer {
    dims: 384
    dims: 64
    dims: 1
    dims: 1
    data_type: 1
    name: "blocks.3.1.conv_pw.weight"
    raw_data: ""
  }
  initializer {
    dims: 384
    data_type: 1
    name: "blocks.3.1.bn1.running_mean"
    raw_data: ""
  }
  initializer {
    dims: 384
    data_type: 1
    name: "blocks.3.1.bn1.running_var"
    raw_data: ""
  }
  initializer {
    dims: 384
    data_type: 1
    name: "blocks.3.1.bn1.weight"
    raw_data: ""
  }
  initializer {
    dims: 384
    data_type: 1
    name: "blocks.3.1.bn1.bias"
    raw_data: ""
  }
  initializer {
    dims: 384
    dims: 1
    dims: 3
    dims: 3
    data_type: 1
    name: "blocks.3.1.conv_dw.weight"
    raw_data: ""
  }
  initializer {
    dims: 384
    data_type: 1
    name: "blocks.3.1.bn2.running_mean"
    raw_data: ""
  }
  initializer {
    dims: 384
    data_type: 1
    name: "blocks.3.1.bn2.running_var"
    raw_data: ""
  }
  initializer {
    dims: 384
    data_type: 1
    name: "blocks.3.1.bn2.weight"
    raw_data: ""
  }
  initializer {
    dims: 384
    data_type: 1
    name: "blocks.3.1.bn2.bias"
    raw_data: ""
  }
  initializer {
    dims: 64
    dims: 384
    dims: 1
    dims: 1
    data_type: 1
    name: "blocks.3.1.conv_pwl.weight"
    raw_data: ""
  }
  initializer {
    dims: 64
    data_type: 1
    name: "blocks.3.1.bn3.running_mean"
    raw_data: ""
  }
  initializer {
    dims: 64
    data_type: 1
    name: "blocks.3.1.bn3.running_var"
    raw_data: ""
  }
  initializer {
    dims: 64
    data_type: 1
    name: "blocks.3.1.bn3.weight"
    raw_data: ""
  }
  initializer {
    dims: 64
    data_type: 1
    name: "blocks.3.1.bn3.bias"
    raw_data: ""
  }
  initializer {
    dims: 384
    dims: 64
    dims: 1
    dims: 1
    data_type: 1
    name: "blocks.3.2.conv_pw.weight"
    raw_data: ""
  }
  initializer {
    dims: 384
    data_type: 1
    name: "blocks.3.2.bn1.running_mean"
    raw_data: ""
  }
  initializer {
    dims: 384
    data_type: 1
    name: "blocks.3.2.bn1.running_var"
    raw_data: ""
  }
  initializer {
    dims: 384
    data_type: 1
    name: "blocks.3.2.bn1.weight"
    raw_data: ""
  }
  initializer {
    dims: 384
    data_type: 1
    name: "blocks.3.2.bn1.bias"
    raw_data: ""
  }
  initializer {
    dims: 384
    dims: 1
    dims: 3
    dims: 3
    data_type: 1
    name: "blocks.3.2.conv_dw.weight"
    raw_data: ""
  }
  initializer {
    dims: 384
    data_type: 1
    name: "blocks.3.2.bn2.running_mean"
    raw_data: ""
  }
  initializer {
    dims: 384
    data_type: 1
    name: "blocks.3.2.bn2.running_var"
    raw_data: ""
  }
  initializer {
    dims: 384
    data_type: 1
    name: "blocks.3.2.bn2.weight"
    raw_data: ""
  }
  initializer {
    dims: 384
    data_type: 1
    name: "blocks.3.2.bn2.bias"
    raw_data: ""
  }
  initializer {
    dims: 64
    dims: 384
    dims: 1
    dims: 1
    data_type: 1
    name: "blocks.3.2.conv_pwl.weight"
    raw_data: ""
  }
  initializer {
    dims: 64
    data_type: 1
    name: "blocks.3.2.bn3.running_mean"
    raw_data: ""
  }
  initializer {
    dims: 64
    data_type: 1
    name: "blocks.3.2.bn3.running_var"
    raw_data: ""
  }
  initializer {
    dims: 64
    data_type: 1
    name: "blocks.3.2.bn3.weight"
    raw_data: ""
  }
  initializer {
    dims: 64
    data_type: 1
    name: "blocks.3.2.bn3.bias"
    raw_data: ""
  }
  initializer {
    dims: 384
    dims: 64
    dims: 1
    dims: 1
    data_type: 1
    name: "blocks.3.3.conv_pw.weight"
    raw_data: ""
  }
  initializer {
    dims: 384
    data_type: 1
    name: "blocks.3.3.bn1.running_mean"
    raw_data: ""
  }
  initializer {
    dims: 384
    data_type: 1
    name: "blocks.3.3.bn1.running_var"
    raw_data: ""
  }
  initializer {
    dims: 384
    data_type: 1
    name: "blocks.3.3.bn1.weight"
    raw_data: ""
  }
  initializer {
    dims: 384
    data_type: 1
    name: "blocks.3.3.bn1.bias"
    raw_data: ""
  }
  initializer {
    dims: 384
    dims: 1
    dims: 3
    dims: 3
    data_type: 1
    name: "blocks.3.3.conv_dw.weight"
    raw_data: ""
  }
  initializer {
    dims: 384
    data_type: 1
    name: "blocks.3.3.bn2.running_mean"
    raw_data: ""
  }
  initializer {
    dims: 384
    data_type: 1
    name: "blocks.3.3.bn2.running_var"
    raw_data: ""
  }
  initializer {
    dims: 384
    data_type: 1
    name: "blocks.3.3.bn2.weight"
    raw_data: ""
  }
  initializer {
    dims: 384
    data_type: 1
    name: "blocks.3.3.bn2.bias"
    raw_data: ""
  }
  initializer {
    dims: 64
    dims: 384
    dims: 1
    dims: 1
    data_type: 1
    name: "blocks.3.3.conv_pwl.weight"
    raw_data: ""
  }
  initializer {
    dims: 64
    data_type: 1
    name: "blocks.3.3.bn3.running_mean"
    raw_data: ""
  }
  initializer {
    dims: 64
    data_type: 1
    name: "blocks.3.3.bn3.running_var"
    raw_data: ""
  }
  initializer {
    dims: 64
    data_type: 1
    name: "blocks.3.3.bn3.weight"
    raw_data: ""
  }
  initializer {
    dims: 64
    data_type: 1
    name: "blocks.3.3.bn3.bias"
    raw_data: ""
  }
  initializer {
    dims: 384
    dims: 64
    dims: 1
    dims: 1
    data_type: 1
    name: "blocks.4.0.conv_pw.weight"
    raw_data: ""
  }
  initializer {
    dims: 384
    data_type: 1
    name: "blocks.4.0.bn1.running_mean"
    raw_data: ""
  }
  initializer {
    dims: 384
    data_type: 1
    name: "blocks.4.0.bn1.running_var"
    raw_data: ""
  }
  initializer {
    dims: 384
    data_type: 1
    name: "blocks.4.0.bn1.weight"
    raw_data: ""
  }
  initializer {
    dims: 384
    data_type: 1
    name: "blocks.4.0.bn1.bias"
    raw_data: ""
  }
  initializer {
    dims: 384
    dims: 1
    dims: 3
    dims: 3
    data_type: 1
    name: "blocks.4.0.conv_dw.weight"
    raw_data: ""
  }
  initializer {
    dims: 384
    data_type: 1
    name: "blocks.4.0.bn2.running_mean"
    raw_data: ""
  }
  initializer {
    dims: 384
    data_type: 1
    name: "blocks.4.0.bn2.running_var"
    raw_data: ""
  }
  initializer {
    dims: 384
    data_type: 1
    name: "blocks.4.0.bn2.weight"
    raw_data: ""
  }
  initializer {
    dims: 384
    data_type: 1
    name: "blocks.4.0.bn2.bias"
    raw_data: ""
  }
  initializer {
    dims: 96
    dims: 384
    dims: 1
    dims: 1
    data_type: 1
    name: "blocks.4.0.conv_pwl.weight"
    raw_data: ""
  }
  initializer {
    dims: 96
    data_type: 1
    name: "blocks.4.0.bn3.running_mean"
    raw_data: ""
  }
  initializer {
    dims: 96
    data_type: 1
    name: "blocks.4.0.bn3.running_var"
    raw_data: ""
  }
  initializer {
    dims: 96
    data_type: 1
    name: "blocks.4.0.bn3.weight"
    raw_data: ""
  }
  initializer {
    dims: 96
    data_type: 1
    name: "blocks.4.0.bn3.bias"
    raw_data: ""
  }
  initializer {
    dims: 576
    dims: 96
    dims: 1
    dims: 1
    data_type: 1
    name: "blocks.4.1.conv_pw.weight"
    raw_data: ""
  }
  initializer {
    dims: 576
    data_type: 1
    name: "blocks.4.1.bn1.running_mean"
    raw_data: ""
  }
  initializer {
    dims: 576
    data_type: 1
    name: "blocks.4.1.bn1.running_var"
    raw_data: ""
  }
  initializer {
    dims: 576
    data_type: 1
    name: "blocks.4.1.bn1.weight"
    raw_data: ""
  }
  initializer {
    dims: 576
    data_type: 1
    name: "blocks.4.1.bn1.bias"
    raw_data: ""
  }
  initializer {
    dims: 576
    dims: 1
    dims: 3
    dims: 3
    data_type: 1
    name: "blocks.4.1.conv_dw.weight"
    raw_data: ""
  }
  initializer {
    dims: 576
    data_type: 1
    name: "blocks.4.1.bn2.running_mean"
    raw_data: ""
  }
  initializer {
    dims: 576
    data_type: 1
    name: "blocks.4.1.bn2.running_var"
    raw_data: ""
  }
  initializer {
    dims: 576
    data_type: 1
    name: "blocks.4.1.bn2.weight"
    raw_data: ""
  }
  initializer {
    dims: 576
    data_type: 1
    name: "blocks.4.1.bn2.bias"
    raw_data: ""
  }
  initializer {
    dims: 96
    dims: 576
    dims: 1
    dims: 1
    data_type: 1
    name: "blocks.4.1.conv_pwl.weight"
    raw_data: ""
  }
  initializer {
    dims: 96
    data_type: 1
    name: "blocks.4.1.bn3.running_mean"
    raw_data: ""
  }
  initializer {
    dims: 96
    data_type: 1
    name: "blocks.4.1.bn3.running_var"
    raw_data: ""
  }
  initializer {
    dims: 96
    data_type: 1
    name: "blocks.4.1.bn3.weight"
    raw_data: ""
  }
  initializer {
    dims: 96
    data_type: 1
    name: "blocks.4.1.bn3.bias"
    raw_data: ""
  }
  initializer {
    dims: 576
    dims: 96
    dims: 1
    dims: 1
    data_type: 1
    name: "blocks.4.2.conv_pw.weight"
    raw_data: ""
  }
  initializer {
    dims: 576
    data_type: 1
    name: "blocks.4.2.bn1.running_mean"
    raw_data: ""
  }
  initializer {
    dims: 576
    data_type: 1
    name: "blocks.4.2.bn1.running_var"
    raw_data: ""
  }
  initializer {
    dims: 576
    data_type: 1
    name: "blocks.4.2.bn1.weight"
    raw_data: ""
  }
  initializer {
    dims: 576
    data_type: 1
    name: "blocks.4.2.bn1.bias"
    raw_data: ""
  }
  initializer {
    dims: 576
    dims: 1
    dims: 3
    dims: 3
    data_type: 1
    name: "blocks.4.2.conv_dw.weight"
    raw_data: ""
  }
  initializer {
    dims: 576
    data_type: 1
    name: "blocks.4.2.bn2.running_mean"
    raw_data: ""
  }
  initializer {
    dims: 576
    data_type: 1
    name: "blocks.4.2.bn2.running_var"
    raw_data: ""
  }
  initializer {
    dims: 576
    data_type: 1
    name: "blocks.4.2.bn2.weight"
    raw_data: ""
  }
  initializer {
    dims: 576
    data_type: 1
    name: "blocks.4.2.bn2.bias"
    raw_data: ""
  }
  initializer {
    dims: 96
    dims: 576
    dims: 1
    dims: 1
    data_type: 1
    name: "blocks.4.2.conv_pwl.weight"
    raw_data: ""
  }
  initializer {
    dims: 96
    data_type: 1
    name: "blocks.4.2.bn3.running_mean"
    raw_data: ""
  }
  initializer {
    dims: 96
    data_type: 1
    name: "blocks.4.2.bn3.running_var"
    raw_data: ""
  }
  initializer {
    dims: 96
    data_type: 1
    name: "blocks.4.2.bn3.weight"
    raw_data: ""
  }
  initializer {
    dims: 96
    data_type: 1
    name: "blocks.4.2.bn3.bias"
    raw_data: ""
  }
  initializer {
    dims: 576
    dims: 96
    dims: 1
    dims: 1
    data_type: 1
    name: "blocks.5.0.conv_pw.weight"
    raw_data: ""
  }
  initializer {
    dims: 576
    data_type: 1
    name: "blocks.5.0.bn1.running_mean"
    raw_data: ""
  }
  initializer {
    dims: 576
    data_type: 1
    name: "blocks.5.0.bn1.running_var"
    raw_data: ""
  }
  initializer {
    dims: 576
    data_type: 1
    name: "blocks.5.0.bn1.weight"
    raw_data: ""
  }
  initializer {
    dims: 576
    data_type: 1
    name: "blocks.5.0.bn1.bias"
    raw_data: ""
  }
  initializer {
    dims: 576
    dims: 1
    dims: 3
    dims: 3
    data_type: 1
    name: "blocks.5.0.conv_dw.weight"
    raw_data: ""
  }
  initializer {
    dims: 576
    data_type: 1
    name: "blocks.5.0.bn2.running_mean"
    raw_data: ""
  }
  initializer {
    dims: 576
    data_type: 1
    name: "blocks.5.0.bn2.running_var"
    raw_data: ""
  }
  initializer {
    dims: 576
    data_type: 1
    name: "blocks.5.0.bn2.weight"
    raw_data: ""
  }
  initializer {
    dims: 576
    data_type: 1
    name: "blocks.5.0.bn2.bias"
    raw_data: ""
  }
  initializer {
    dims: 160
    dims: 576
    dims: 1
    dims: 1
    data_type: 1
    name: "blocks.5.0.conv_pwl.weight"
    raw_data: ""
  }
  initializer {
    dims: 160
    data_type: 1
    name: "blocks.5.0.bn3.running_mean"
    raw_data: ""
  }
  initializer {
    dims: 160
    data_type: 1
    name: "blocks.5.0.bn3.running_var"
    raw_data: ""
  }
  initializer {
    dims: 160
    data_type: 1
    name: "blocks.5.0.bn3.weight"
    raw_data: ""
  }
  initializer {
    dims: 160
    data_type: 1
    name: "blocks.5.0.bn3.bias"
    raw_data: ""
  }
  initializer {
    dims: 960
    dims: 160
    dims: 1
    dims: 1
    data_type: 1
    name: "blocks.5.1.conv_pw.weight"
    raw_data: ""
  }
  initializer {
    dims: 960
    data_type: 1
    name: "blocks.5.1.bn1.running_mean"
    raw_data: ""
  }
  initializer {
    dims: 960
    data_type: 1
    name: "blocks.5.1.bn1.running_var"
    raw_data: ""
  }
  initializer {
    dims: 960
    data_type: 1
    name: "blocks.5.1.bn1.weight"
    raw_data: ""
  }
  initializer {
    dims: 960
    data_type: 1
    name: "blocks.5.1.bn1.bias"
    raw_data: ""
  }
  initializer {
    dims: 960
    dims: 1
    dims: 3
    dims: 3
    data_type: 1
    name: "blocks.5.1.conv_dw.weight"
    raw_data: ""
  }
  initializer {
    dims: 960
    data_type: 1
    name: "blocks.5.1.bn2.running_mean"
    raw_data: ""
  }
  initializer {
    dims: 960
    data_type: 1
    name: "blocks.5.1.bn2.running_var"
    raw_data: ""
  }
  initializer {
    dims: 960
    data_type: 1
    name: "blocks.5.1.bn2.weight"
    raw_data: ""
  }
  initializer {
    dims: 960
    data_type: 1
    name: "blocks.5.1.bn2.bias"
    raw_data: ""
  }
  initializer {
    dims: 160
    dims: 960
    dims: 1
    dims: 1
    data_type: 1
    name: "blocks.5.1.conv_pwl.weight"
    raw_data: ""
  }
  initializer {
    dims: 160
    data_type: 1
    name: "blocks.5.1.bn3.running_mean"
    raw_data: ""
  }
  initializer {
    dims: 160
    data_type: 1
    name: "blocks.5.1.bn3.running_var"
    raw_data: ""
  }
  initializer {
    dims: 160
    data_type: 1
    name: "blocks.5.1.bn3.weight"
    raw_data: ""
  }
  initializer {
    dims: 160
    data_type: 1
    name: "blocks.5.1.bn3.bias"
    raw_data: ""
  }
  initializer {
    dims: 960
    dims: 160
    dims: 1
    dims: 1
    data_type: 1
    name: "blocks.5.2.conv_pw.weight"
    raw_data: ""
  }
  initializer {
    dims: 960
    data_type: 1
    name: "blocks.5.2.bn1.running_mean"
    raw_data: ""
  }
  initializer {
    dims: 960
    data_type: 1
    name: "blocks.5.2.bn1.running_var"
    raw_data: ""
  }
  initializer {
    dims: 960
    data_type: 1
    name: "blocks.5.2.bn1.weight"
    raw_data: ""
  }
  initializer {
    dims: 960
    data_type: 1
    name: "blocks.5.2.bn1.bias"
    raw_data: ""
  }
  initializer {
    dims: 960
    dims: 1
    dims: 3
    dims: 3
    data_type: 1
    name: "blocks.5.2.conv_dw.weight"
    raw_data: ""
  }
  initializer {
    dims: 960
    data_type: 1
    name: "blocks.5.2.bn2.running_mean"
    raw_data: ""
  }
  initializer {
    dims: 960
    data_type: 1
    name: "blocks.5.2.bn2.running_var"
    raw_data: ""
  }
  initializer {
    dims: 960
    data_type: 1
    name: "blocks.5.2.bn2.weight"
    raw_data: ""
  }
  initializer {
    dims: 960
    data_type: 1
    name: "blocks.5.2.bn2.bias"
    raw_data: ""
  }
  initializer {
    dims: 160
    dims: 960
    dims: 1
    dims: 1
    data_type: 1
    name: "blocks.5.2.conv_pwl.weight"
    raw_data: ""
  }
  initializer {
    dims: 160
    data_type: 1
    name: "blocks.5.2.bn3.running_mean"
    raw_data: ""
  }
  initializer {
    dims: 160
    data_type: 1
    name: "blocks.5.2.bn3.running_var"
    raw_data: ""
  }
  initializer {
    dims: 160
    data_type: 1
    name: "blocks.5.2.bn3.weight"
    raw_data: ""
  }
  initializer {
    dims: 160
    data_type: 1
    name: "blocks.5.2.bn3.bias"
    raw_data: ""
  }
  initializer {
    dims: 960
    dims: 160
    dims: 1
    dims: 1
    data_type: 1
    name: "blocks.6.0.conv_pw.weight"
    raw_data: ""
  }
  initializer {
    dims: 960
    data_type: 1
    name: "blocks.6.0.bn1.running_mean"
    raw_data: ""
  }
  initializer {
    dims: 960
    data_type: 1
    name: "blocks.6.0.bn1.running_var"
    raw_data: ""
  }
  initializer {
    dims: 960
    data_type: 1
    name: "blocks.6.0.bn1.weight"
    raw_data: ""
  }
  initializer {
    dims: 960
    data_type: 1
    name: "blocks.6.0.bn1.bias"
    raw_data: ""
  }
  initializer {
    dims: 960
    dims: 1
    dims: 3
    dims: 3
    data_type: 1
    name: "blocks.6.0.conv_dw.weight"
    raw_data: ""
  }
  initializer {
    dims: 960
    data_type: 1
    name: "blocks.6.0.bn2.running_mean"
    raw_data: ""
  }
  initializer {
    dims: 960
    data_type: 1
    name: "blocks.6.0.bn2.running_var"
    raw_data: ""
  }
  initializer {
    dims: 960
    data_type: 1
    name: "blocks.6.0.bn2.weight"
    raw_data: ""
  }
  initializer {
    dims: 960
    data_type: 1
    name: "blocks.6.0.bn2.bias"
    raw_data: ""
  }
  initializer {
    dims: 320
    dims: 960
    dims: 1
    dims: 1
    data_type: 1
    name: "blocks.6.0.conv_pwl.weight"
    raw_data: ""
  }
  initializer {
    dims: 320
    data_type: 1
    name: "blocks.6.0.bn3.running_mean"
    raw_data: ""
  }
  initializer {
    dims: 320
    data_type: 1
    name: "blocks.6.0.bn3.running_var"
    raw_data: ""
  }
  initializer {
    dims: 320
    data_type: 1
    name: "blocks.6.0.bn3.weight"
    raw_data: ""
  }
  initializer {
    dims: 320
    data_type: 1
    name: "blocks.6.0.bn3.bias"
    raw_data: ""
  }
  initializer {
    dims: 1280
    dims: 320
    dims: 1
    dims: 1
    data_type: 1
    name: "conv_head.weight"
    raw_data: ""
  }
  initializer {
    dims: 1280
    data_type: 1
    name: "bn2.running_mean"
    raw_data: ""
  }
  initializer {
    dims: 1280
    data_type: 1
    name: "bn2.running_var"
    raw_data: ""
  }
  initializer {
    dims: 1280
    data_type: 1
    name: "bn2.weight"
    raw_data: ""
  }
  initializer {
    dims: 1280
    data_type: 1
    name: "bn2.bias"
    raw_data: ""
  }
  initializer {
    dims: 1000
    dims: 1280
    data_type: 1
    name: "classifier.weight"
    raw_data: ""
  }
  initializer {
    dims: 1000
    data_type: 1
    name: "classifier.bias"
    raw_data: ""
  }
  input {
    name: "l_x_"
    type {
      tensor_type {
        elem_type: 1
        shape {
          dim {
            dim_value: 1
          }
          dim {
            dim_value: 3
          }
          dim {
            dim_value: 224
          }
          dim {
            dim_value: 224
          }
        }
      }
    }
  }
  output {
    name: "classifier_1"
    type {
      tensor_type {
        elem_type: 1
        shape {
          dim {
            dim_value: 1
          }
          dim {
            dim_value: 1000
          }
        }
      }
    }
  }
  value_info {
    name: "conv_stem.weight"
    type {
      tensor_type {
        elem_type: 1
        shape {
          dim {
            dim_value: 32
          }
          dim {
            dim_value: 3
          }
          dim {
            dim_value: 3
          }
          dim {
            dim_value: 3
          }
        }
      }
    }
  }
  value_info {
    name: "bn1.running_mean"
    type {
      tensor_type {
        elem_type: 1
        shape {
          dim {
            dim_value: 32
          }
        }
      }
    }
  }
  value_info {
    name: "bn1.running_var"
    type {
      tensor_type {
        elem_type: 1
        shape {
          dim {
            dim_value: 32
          }
        }
      }
    }
  }
  value_info {
    name: "bn1.weight"
    type {
      tensor_type {
        elem_type: 1
        shape {
          dim {
            dim_value: 32
          }
        }
      }
    }
  }
  value_info {
    name: "bn1.bias"
    type {
      tensor_type {
        elem_type: 1
        shape {
          dim {
            dim_value: 32
          }
        }
      }
    }
  }
  value_info {
    name: "blocks.0.0.conv_dw.weight"
    type {
      tensor_type {
        elem_type: 1
        shape {
          dim {
            dim_value: 32
          }
          dim {
            dim_value: 1
          }
          dim {
            dim_value: 3
          }
          dim {
            dim_value: 3
          }
        }
      }
    }
  }
  value_info {
    name: "blocks.0.0.bn1.running_mean"
    type {
      tensor_type {
        elem_type: 1
        shape {
          dim {
            dim_value: 32
          }
        }
      }
    }
  }
  value_info {
    name: "blocks.0.0.bn1.running_var"
    type {
      tensor_type {
        elem_type: 1
        shape {
          dim {
            dim_value: 32
          }
        }
      }
    }
  }
  value_info {
    name: "blocks.0.0.bn1.weight"
    type {
      tensor_type {
        elem_type: 1
        shape {
          dim {
            dim_value: 32
          }
        }
      }
    }
  }
  value_info {
    name: "blocks.0.0.bn1.bias"
    type {
      tensor_type {
        elem_type: 1
        shape {
          dim {
            dim_value: 32
          }
        }
      }
    }
  }
  value_info {
    name: "blocks.0.0.conv_pw.weight"
    type {
      tensor_type {
        elem_type: 1
        shape {
          dim {
            dim_value: 16
          }
          dim {
            dim_value: 32
          }
          dim {
            dim_value: 1
          }
          dim {
            dim_value: 1
          }
        }
      }
    }
  }
  value_info {
    name: "blocks.0.0.bn2.running_mean"
    type {
      tensor_type {
        elem_type: 1
        shape {
          dim {
            dim_value: 16
          }
        }
      }
    }
  }
  value_info {
    name: "blocks.0.0.bn2.running_var"
    type {
      tensor_type {
        elem_type: 1
        shape {
          dim {
            dim_value: 16
          }
        }
      }
    }
  }
  value_info {
    name: "blocks.0.0.bn2.weight"
    type {
      tensor_type {
        elem_type: 1
        shape {
          dim {
            dim_value: 16
          }
        }
      }
    }
  }
  value_info {
    name: "blocks.0.0.bn2.bias"
    type {
      tensor_type {
        elem_type: 1
        shape {
          dim {
            dim_value: 16
          }
        }
      }
    }
  }
  value_info {
    name: "blocks.1.0.conv_pw.weight"
    type {
      tensor_type {
        elem_type: 1
        shape {
          dim {
            dim_value: 96
          }
          dim {
            dim_value: 16
          }
          dim {
            dim_value: 1
          }
          dim {
            dim_value: 1
          }
        }
      }
    }
  }
  value_info {
    name: "blocks.1.0.bn1.running_mean"
    type {
      tensor_type {
        elem_type: 1
        shape {
          dim {
            dim_value: 96
          }
        }
      }
    }
  }
  value_info {
    name: "blocks.1.0.bn1.running_var"
    type {
      tensor_type {
        elem_type: 1
        shape {
          dim {
            dim_value: 96
          }
        }
      }
    }
  }
  value_info {
    name: "blocks.1.0.bn1.weight"
    type {
      tensor_type {
        elem_type: 1
        shape {
          dim {
            dim_value: 96
          }
        }
      }
    }
  }
  value_info {
    name: "blocks.1.0.bn1.bias"
    type {
      tensor_type {
        elem_type: 1
        shape {
          dim {
            dim_value: 96
          }
        }
      }
    }
  }
  value_info {
    name: "blocks.1.0.conv_dw.weight"
    type {
      tensor_type {
        elem_type: 1
        shape {
          dim {
            dim_value: 96
          }
          dim {
            dim_value: 1
          }
          dim {
            dim_value: 3
          }
          dim {
            dim_value: 3
          }
        }
      }
    }
  }
  value_info {
    name: "blocks.1.0.bn2.running_mean"
    type {
      tensor_type {
        elem_type: 1
        shape {
          dim {
            dim_value: 96
          }
        }
      }
    }
  }
  value_info {
    name: "blocks.1.0.bn2.running_var"
    type {
      tensor_type {
        elem_type: 1
        shape {
          dim {
            dim_value: 96
          }
        }
      }
    }
  }
  value_info {
    name: "blocks.1.0.bn2.weight"
    type {
      tensor_type {
        elem_type: 1
        shape {
          dim {
            dim_value: 96
          }
        }
      }
    }
  }
  value_info {
    name: "blocks.1.0.bn2.bias"
    type {
      tensor_type {
        elem_type: 1
        shape {
          dim {
            dim_value: 96
          }
        }
      }
    }
  }
  value_info {
    name: "blocks.1.0.conv_pwl.weight"
    type {
      tensor_type {
        elem_type: 1
        shape {
          dim {
            dim_value: 24
          }
          dim {
            dim_value: 96
          }
          dim {
            dim_value: 1
          }
          dim {
            dim_value: 1
          }
        }
      }
    }
  }
  value_info {
    name: "blocks.1.0.bn3.running_mean"
    type {
      tensor_type {
        elem_type: 1
        shape {
          dim {
            dim_value: 24
          }
        }
      }
    }
  }
  value_info {
    name: "blocks.1.0.bn3.running_var"
    type {
      tensor_type {
        elem_type: 1
        shape {
          dim {
            dim_value: 24
          }
        }
      }
    }
  }
  value_info {
    name: "blocks.1.0.bn3.weight"
    type {
      tensor_type {
        elem_type: 1
        shape {
          dim {
            dim_value: 24
          }
        }
      }
    }
  }
  value_info {
    name: "blocks.1.0.bn3.bias"
    type {
      tensor_type {
        elem_type: 1
        shape {
          dim {
            dim_value: 24
          }
        }
      }
    }
  }
  value_info {
    name: "blocks.1.1.conv_pw.weight"
    type {
      tensor_type {
        elem_type: 1
        shape {
          dim {
            dim_value: 144
          }
          dim {
            dim_value: 24
          }
          dim {
            dim_value: 1
          }
          dim {
            dim_value: 1
          }
        }
      }
    }
  }
  value_info {
    name: "blocks.1.1.bn1.running_mean"
    type {
      tensor_type {
        elem_type: 1
        shape {
          dim {
            dim_value: 144
          }
        }
      }
    }
  }
  value_info {
    name: "blocks.1.1.bn1.running_var"
    type {
      tensor_type {
        elem_type: 1
        shape {
          dim {
            dim_value: 144
          }
        }
      }
    }
  }
  value_info {
    name: "blocks.1.1.bn1.weight"
    type {
      tensor_type {
        elem_type: 1
        shape {
          dim {
            dim_value: 144
          }
        }
      }
    }
  }
  value_info {
    name: "blocks.1.1.bn1.bias"
    type {
      tensor_type {
        elem_type: 1
        shape {
          dim {
            dim_value: 144
          }
        }
      }
    }
  }
  value_info {
    name: "blocks.1.1.conv_dw.weight"
    type {
      tensor_type {
        elem_type: 1
        shape {
          dim {
            dim_value: 144
          }
          dim {
            dim_value: 1
          }
          dim {
            dim_value: 3
          }
          dim {
            dim_value: 3
          }
        }
      }
    }
  }
  value_info {
    name: "blocks.1.1.bn2.running_mean"
    type {
      tensor_type {
        elem_type: 1
        shape {
          dim {
            dim_value: 144
          }
        }
      }
    }
  }
  value_info {
    name: "blocks.1.1.bn2.running_var"
    type {
      tensor_type {
        elem_type: 1
        shape {
          dim {
            dim_value: 144
          }
        }
      }
    }
  }
  value_info {
    name: "blocks.1.1.bn2.weight"
    type {
      tensor_type {
        elem_type: 1
        shape {
          dim {
            dim_value: 144
          }
        }
      }
    }
  }
  value_info {
    name: "blocks.1.1.bn2.bias"
    type {
      tensor_type {
        elem_type: 1
        shape {
          dim {
            dim_value: 144
          }
        }
      }
    }
  }
  value_info {
    name: "blocks.1.1.conv_pwl.weight"
    type {
      tensor_type {
        elem_type: 1
        shape {
          dim {
            dim_value: 24
          }
          dim {
            dim_value: 144
          }
          dim {
            dim_value: 1
          }
          dim {
            dim_value: 1
          }
        }
      }
    }
  }
  value_info {
    name: "blocks.1.1.bn3.running_mean"
    type {
      tensor_type {
        elem_type: 1
        shape {
          dim {
            dim_value: 24
          }
        }
      }
    }
  }
  value_info {
    name: "blocks.1.1.bn3.running_var"
    type {
      tensor_type {
        elem_type: 1
        shape {
          dim {
            dim_value: 24
          }
        }
      }
    }
  }
  value_info {
    name: "blocks.1.1.bn3.weight"
    type {
      tensor_type {
        elem_type: 1
        shape {
          dim {
            dim_value: 24
          }
        }
      }
    }
  }
  value_info {
    name: "blocks.1.1.bn3.bias"
    type {
      tensor_type {
        elem_type: 1
        shape {
          dim {
            dim_value: 24
          }
        }
      }
    }
  }
  value_info {
    name: "blocks.2.0.conv_pw.weight"
    type {
      tensor_type {
        elem_type: 1
        shape {
          dim {
            dim_value: 144
          }
          dim {
            dim_value: 24
          }
          dim {
            dim_value: 1
          }
          dim {
            dim_value: 1
          }
        }
      }
    }
  }
  value_info {
    name: "blocks.2.0.bn1.running_mean"
    type {
      tensor_type {
        elem_type: 1
        shape {
          dim {
            dim_value: 144
          }
        }
      }
    }
  }
  value_info {
    name: "blocks.2.0.bn1.running_var"
    type {
      tensor_type {
        elem_type: 1
        shape {
          dim {
            dim_value: 144
          }
        }
      }
    }
  }
  value_info {
    name: "blocks.2.0.bn1.weight"
    type {
      tensor_type {
        elem_type: 1
        shape {
          dim {
            dim_value: 144
          }
        }
      }
    }
  }
  value_info {
    name: "blocks.2.0.bn1.bias"
    type {
      tensor_type {
        elem_type: 1
        shape {
          dim {
            dim_value: 144
          }
        }
      }
    }
  }
  value_info {
    name: "blocks.2.0.conv_dw.weight"
    type {
      tensor_type {
        elem_type: 1
        shape {
          dim {
            dim_value: 144
          }
          dim {
            dim_value: 1
          }
          dim {
            dim_value: 3
          }
          dim {
            dim_value: 3
          }
        }
      }
    }
  }
  value_info {
    name: "blocks.2.0.bn2.running_mean"
    type {
      tensor_type {
        elem_type: 1
        shape {
          dim {
            dim_value: 144
          }
        }
      }
    }
  }
  value_info {
    name: "blocks.2.0.bn2.running_var"
    type {
      tensor_type {
        elem_type: 1
        shape {
          dim {
            dim_value: 144
          }
        }
      }
    }
  }
  value_info {
    name: "blocks.2.0.bn2.weight"
    type {
      tensor_type {
        elem_type: 1
        shape {
          dim {
            dim_value: 144
          }
        }
      }
    }
  }
  value_info {
    name: "blocks.2.0.bn2.bias"
    type {
      tensor_type {
        elem_type: 1
        shape {
          dim {
            dim_value: 144
          }
        }
      }
    }
  }
  value_info {
    name: "blocks.2.0.conv_pwl.weight"
    type {
      tensor_type {
        elem_type: 1
        shape {
          dim {
            dim_value: 32
          }
          dim {
            dim_value: 144
          }
          dim {
            dim_value: 1
          }
          dim {
            dim_value: 1
          }
        }
      }
    }
  }
  value_info {
    name: "blocks.2.0.bn3.running_mean"
    type {
      tensor_type {
        elem_type: 1
        shape {
          dim {
            dim_value: 32
          }
        }
      }
    }
  }
  value_info {
    name: "blocks.2.0.bn3.running_var"
    type {
      tensor_type {
        elem_type: 1
        shape {
          dim {
            dim_value: 32
          }
        }
      }
    }
  }
  value_info {
    name: "blocks.2.0.bn3.weight"
    type {
      tensor_type {
        elem_type: 1
        shape {
          dim {
            dim_value: 32
          }
        }
      }
    }
  }
  value_info {
    name: "blocks.2.0.bn3.bias"
    type {
      tensor_type {
        elem_type: 1
        shape {
          dim {
            dim_value: 32
          }
        }
      }
    }
  }
  value_info {
    name: "blocks.2.1.conv_pw.weight"
    type {
      tensor_type {
        elem_type: 1
        shape {
          dim {
            dim_value: 192
          }
          dim {
            dim_value: 32
          }
          dim {
            dim_value: 1
          }
          dim {
            dim_value: 1
          }
        }
      }
    }
  }
  value_info {
    name: "blocks.2.1.bn1.running_mean"
    type {
      tensor_type {
        elem_type: 1
        shape {
          dim {
            dim_value: 192
          }
        }
      }
    }
  }
  value_info {
    name: "blocks.2.1.bn1.running_var"
    type {
      tensor_type {
        elem_type: 1
        shape {
          dim {
            dim_value: 192
          }
        }
      }
    }
  }
  value_info {
    name: "blocks.2.1.bn1.weight"
    type {
      tensor_type {
        elem_type: 1
        shape {
          dim {
            dim_value: 192
          }
        }
      }
    }
  }
  value_info {
    name: "blocks.2.1.bn1.bias"
    type {
      tensor_type {
        elem_type: 1
        shape {
          dim {
            dim_value: 192
          }
        }
      }
    }
  }
  value_info {
    name: "blocks.2.1.conv_dw.weight"
    type {
      tensor_type {
        elem_type: 1
        shape {
          dim {
            dim_value: 192
          }
          dim {
            dim_value: 1
          }
          dim {
            dim_value: 3
          }
          dim {
            dim_value: 3
          }
        }
      }
    }
  }
  value_info {
    name: "blocks.2.1.bn2.running_mean"
    type {
      tensor_type {
        elem_type: 1
        shape {
          dim {
            dim_value: 192
          }
        }
      }
    }
  }
  value_info {
    name: "blocks.2.1.bn2.running_var"
    type {
      tensor_type {
        elem_type: 1
        shape {
          dim {
            dim_value: 192
          }
        }
      }
    }
  }
  value_info {
    name: "blocks.2.1.bn2.weight"
    type {
      tensor_type {
        elem_type: 1
        shape {
          dim {
            dim_value: 192
          }
        }
      }
    }
  }
  value_info {
    name: "blocks.2.1.bn2.bias"
    type {
      tensor_type {
        elem_type: 1
        shape {
          dim {
            dim_value: 192
          }
        }
      }
    }
  }
  value_info {
    name: "blocks.2.1.conv_pwl.weight"
    type {
      tensor_type {
        elem_type: 1
        shape {
          dim {
            dim_value: 32
          }
          dim {
            dim_value: 192
          }
          dim {
            dim_value: 1
          }
          dim {
            dim_value: 1
          }
        }
      }
    }
  }
  value_info {
    name: "blocks.2.1.bn3.running_mean"
    type {
      tensor_type {
        elem_type: 1
        shape {
          dim {
            dim_value: 32
          }
        }
      }
    }
  }
  value_info {
    name: "blocks.2.1.bn3.running_var"
    type {
      tensor_type {
        elem_type: 1
        shape {
          dim {
            dim_value: 32
          }
        }
      }
    }
  }
  value_info {
    name: "blocks.2.1.bn3.weight"
    type {
      tensor_type {
        elem_type: 1
        shape {
          dim {
            dim_value: 32
          }
        }
      }
    }
  }
  value_info {
    name: "blocks.2.1.bn3.bias"
    type {
      tensor_type {
        elem_type: 1
        shape {
          dim {
            dim_value: 32
          }
        }
      }
    }
  }
  value_info {
    name: "blocks.2.2.conv_pw.weight"
    type {
      tensor_type {
        elem_type: 1
        shape {
          dim {
            dim_value: 192
          }
          dim {
            dim_value: 32
          }
          dim {
            dim_value: 1
          }
          dim {
            dim_value: 1
          }
        }
      }
    }
  }
  value_info {
    name: "blocks.2.2.bn1.running_mean"
    type {
      tensor_type {
        elem_type: 1
        shape {
          dim {
            dim_value: 192
          }
        }
      }
    }
  }
  value_info {
    name: "blocks.2.2.bn1.running_var"
    type {
      tensor_type {
        elem_type: 1
        shape {
          dim {
            dim_value: 192
          }
        }
      }
    }
  }
  value_info {
    name: "blocks.2.2.bn1.weight"
    type {
      tensor_type {
        elem_type: 1
        shape {
          dim {
            dim_value: 192
          }
        }
      }
    }
  }
  value_info {
    name: "blocks.2.2.bn1.bias"
    type {
      tensor_type {
        elem_type: 1
        shape {
          dim {
            dim_value: 192
          }
        }
      }
    }
  }
  value_info {
    name: "blocks.2.2.conv_dw.weight"
    type {
      tensor_type {
        elem_type: 1
        shape {
          dim {
            dim_value: 192
          }
          dim {
            dim_value: 1
          }
          dim {
            dim_value: 3
          }
          dim {
            dim_value: 3
          }
        }
      }
    }
  }
  value_info {
    name: "blocks.2.2.bn2.running_mean"
    type {
      tensor_type {
        elem_type: 1
        shape {
          dim {
            dim_value: 192
          }
        }
      }
    }
  }
  value_info {
    name: "blocks.2.2.bn2.running_var"
    type {
      tensor_type {
        elem_type: 1
        shape {
          dim {
            dim_value: 192
          }
        }
      }
    }
  }
  value_info {
    name: "blocks.2.2.bn2.weight"
    type {
      tensor_type {
        elem_type: 1
        shape {
          dim {
            dim_value: 192
          }
        }
      }
    }
  }
  value_info {
    name: "blocks.2.2.bn2.bias"
    type {
      tensor_type {
        elem_type: 1
        shape {
          dim {
            dim_value: 192
          }
        }
      }
    }
  }
  value_info {
    name: "blocks.2.2.conv_pwl.weight"
    type {
      tensor_type {
        elem_type: 1
        shape {
          dim {
            dim_value: 32
          }
          dim {
            dim_value: 192
          }
          dim {
            dim_value: 1
          }
          dim {
            dim_value: 1
          }
        }
      }
    }
  }
  value_info {
    name: "blocks.2.2.bn3.running_mean"
    type {
      tensor_type {
        elem_type: 1
        shape {
          dim {
            dim_value: 32
          }
        }
      }
    }
  }
  value_info {
    name: "blocks.2.2.bn3.running_var"
    type {
      tensor_type {
        elem_type: 1
        shape {
          dim {
            dim_value: 32
          }
        }
      }
    }
  }
  value_info {
    name: "blocks.2.2.bn3.weight"
    type {
      tensor_type {
        elem_type: 1
        shape {
          dim {
            dim_value: 32
          }
        }
      }
    }
  }
  value_info {
    name: "blocks.2.2.bn3.bias"
    type {
      tensor_type {
        elem_type: 1
        shape {
          dim {
            dim_value: 32
          }
        }
      }
    }
  }
  value_info {
    name: "blocks.3.0.conv_pw.weight"
    type {
      tensor_type {
        elem_type: 1
        shape {
          dim {
            dim_value: 192
          }
          dim {
            dim_value: 32
          }
          dim {
            dim_value: 1
          }
          dim {
            dim_value: 1
          }
        }
      }
    }
  }
  value_info {
    name: "blocks.3.0.bn1.running_mean"
    type {
      tensor_type {
        elem_type: 1
        shape {
          dim {
            dim_value: 192
          }
        }
      }
    }
  }
  value_info {
    name: "blocks.3.0.bn1.running_var"
    type {
      tensor_type {
        elem_type: 1
        shape {
          dim {
            dim_value: 192
          }
        }
      }
    }
  }
  value_info {
    name: "blocks.3.0.bn1.weight"
    type {
      tensor_type {
        elem_type: 1
        shape {
          dim {
            dim_value: 192
          }
        }
      }
    }
  }
  value_info {
    name: "blocks.3.0.bn1.bias"
    type {
      tensor_type {
        elem_type: 1
        shape {
          dim {
            dim_value: 192
          }
        }
      }
    }
  }
  value_info {
    name: "blocks.3.0.conv_dw.weight"
    type {
      tensor_type {
        elem_type: 1
        shape {
          dim {
            dim_value: 192
          }
          dim {
            dim_value: 1
          }
          dim {
            dim_value: 3
          }
          dim {
            dim_value: 3
          }
        }
      }
    }
  }
  value_info {
    name: "blocks.3.0.bn2.running_mean"
    type {
      tensor_type {
        elem_type: 1
        shape {
          dim {
            dim_value: 192
          }
        }
      }
    }
  }
  value_info {
    name: "blocks.3.0.bn2.running_var"
    type {
      tensor_type {
        elem_type: 1
        shape {
          dim {
            dim_value: 192
          }
        }
      }
    }
  }
  value_info {
    name: "blocks.3.0.bn2.weight"
    type {
      tensor_type {
        elem_type: 1
        shape {
          dim {
            dim_value: 192
          }
        }
      }
    }
  }
  value_info {
    name: "blocks.3.0.bn2.bias"
    type {
      tensor_type {
        elem_type: 1
        shape {
          dim {
            dim_value: 192
          }
        }
      }
    }
  }
  value_info {
    name: "blocks.3.0.conv_pwl.weight"
    type {
      tensor_type {
        elem_type: 1
        shape {
          dim {
            dim_value: 64
          }
          dim {
            dim_value: 192
          }
          dim {
            dim_value: 1
          }
          dim {
            dim_value: 1
          }
        }
      }
    }
  }
  value_info {
    name: "blocks.3.0.bn3.running_mean"
    type {
      tensor_type {
        elem_type: 1
        shape {
          dim {
            dim_value: 64
          }
        }
      }
    }
  }
  value_info {
    name: "blocks.3.0.bn3.running_var"
    type {
      tensor_type {
        elem_type: 1
        shape {
          dim {
            dim_value: 64
          }
        }
      }
    }
  }
  value_info {
    name: "blocks.3.0.bn3.weight"
    type {
      tensor_type {
        elem_type: 1
        shape {
          dim {
            dim_value: 64
          }
        }
      }
    }
  }
  value_info {
    name: "blocks.3.0.bn3.bias"
    type {
      tensor_type {
        elem_type: 1
        shape {
          dim {
            dim_value: 64
          }
        }
      }
    }
  }
  value_info {
    name: "blocks.3.1.conv_pw.weight"
    type {
      tensor_type {
        elem_type: 1
        shape {
          dim {
            dim_value: 384
          }
          dim {
            dim_value: 64
          }
          dim {
            dim_value: 1
          }
          dim {
            dim_value: 1
          }
        }
      }
    }
  }
  value_info {
    name: "blocks.3.1.bn1.running_mean"
    type {
      tensor_type {
        elem_type: 1
        shape {
          dim {
            dim_value: 384
          }
        }
      }
    }
  }
  value_info {
    name: "blocks.3.1.bn1.running_var"
    type {
      tensor_type {
        elem_type: 1
        shape {
          dim {
            dim_value: 384
          }
        }
      }
    }
  }
  value_info {
    name: "blocks.3.1.bn1.weight"
    type {
      tensor_type {
        elem_type: 1
        shape {
          dim {
            dim_value: 384
          }
        }
      }
    }
  }
  value_info {
    name: "blocks.3.1.bn1.bias"
    type {
      tensor_type {
        elem_type: 1
        shape {
          dim {
            dim_value: 384
          }
        }
      }
    }
  }
  value_info {
    name: "blocks.3.1.conv_dw.weight"
    type {
      tensor_type {
        elem_type: 1
        shape {
          dim {
            dim_value: 384
          }
          dim {
            dim_value: 1
          }
          dim {
            dim_value: 3
          }
          dim {
            dim_value: 3
          }
        }
      }
    }
  }
  value_info {
    name: "blocks.3.1.bn2.running_mean"
    type {
      tensor_type {
        elem_type: 1
        shape {
          dim {
            dim_value: 384
          }
        }
      }
    }
  }
  value_info {
    name: "blocks.3.1.bn2.running_var"
    type {
      tensor_type {
        elem_type: 1
        shape {
          dim {
            dim_value: 384
          }
        }
      }
    }
  }
  value_info {
    name: "blocks.3.1.bn2.weight"
    type {
      tensor_type {
        elem_type: 1
        shape {
          dim {
            dim_value: 384
          }
        }
      }
    }
  }
  value_info {
    name: "blocks.3.1.bn2.bias"
    type {
      tensor_type {
        elem_type: 1
        shape {
          dim {
            dim_value: 384
          }
        }
      }
    }
  }
  value_info {
    name: "blocks.3.1.conv_pwl.weight"
    type {
      tensor_type {
        elem_type: 1
        shape {
          dim {
            dim_value: 64
          }
          dim {
            dim_value: 384
          }
          dim {
            dim_value: 1
          }
          dim {
            dim_value: 1
          }
        }
      }
    }
  }
  value_info {
    name: "blocks.3.1.bn3.running_mean"
    type {
      tensor_type {
        elem_type: 1
        shape {
          dim {
            dim_value: 64
          }
        }
      }
    }
  }
  value_info {
    name: "blocks.3.1.bn3.running_var"
    type {
      tensor_type {
        elem_type: 1
        shape {
          dim {
            dim_value: 64
          }
        }
      }
    }
  }
  value_info {
    name: "blocks.3.1.bn3.weight"
    type {
      tensor_type {
        elem_type: 1
        shape {
          dim {
            dim_value: 64
          }
        }
      }
    }
  }
  value_info {
    name: "blocks.3.1.bn3.bias"
    type {
      tensor_type {
        elem_type: 1
        shape {
          dim {
            dim_value: 64
          }
        }
      }
    }
  }
  value_info {
    name: "blocks.3.2.conv_pw.weight"
    type {
      tensor_type {
        elem_type: 1
        shape {
          dim {
            dim_value: 384
          }
          dim {
            dim_value: 64
          }
          dim {
            dim_value: 1
          }
          dim {
            dim_value: 1
          }
        }
      }
    }
  }
  value_info {
    name: "blocks.3.2.bn1.running_mean"
    type {
      tensor_type {
        elem_type: 1
        shape {
          dim {
            dim_value: 384
          }
        }
      }
    }
  }
  value_info {
    name: "blocks.3.2.bn1.running_var"
    type {
      tensor_type {
        elem_type: 1
        shape {
          dim {
            dim_value: 384
          }
        }
      }
    }
  }
  value_info {
    name: "blocks.3.2.bn1.weight"
    type {
      tensor_type {
        elem_type: 1
        shape {
          dim {
            dim_value: 384
          }
        }
      }
    }
  }
  value_info {
    name: "blocks.3.2.bn1.bias"
    type {
      tensor_type {
        elem_type: 1
        shape {
          dim {
            dim_value: 384
          }
        }
      }
    }
  }
  value_info {
    name: "blocks.3.2.conv_dw.weight"
    type {
      tensor_type {
        elem_type: 1
        shape {
          dim {
            dim_value: 384
          }
          dim {
            dim_value: 1
          }
          dim {
            dim_value: 3
          }
          dim {
            dim_value: 3
          }
        }
      }
    }
  }
  value_info {
    name: "blocks.3.2.bn2.running_mean"
    type {
      tensor_type {
        elem_type: 1
        shape {
          dim {
            dim_value: 384
          }
        }
      }
    }
  }
  value_info {
    name: "blocks.3.2.bn2.running_var"
    type {
      tensor_type {
        elem_type: 1
        shape {
          dim {
            dim_value: 384
          }
        }
      }
    }
  }
  value_info {
    name: "blocks.3.2.bn2.weight"
    type {
      tensor_type {
        elem_type: 1
        shape {
          dim {
            dim_value: 384
          }
        }
      }
    }
  }
  value_info {
    name: "blocks.3.2.bn2.bias"
    type {
      tensor_type {
        elem_type: 1
        shape {
          dim {
            dim_value: 384
          }
        }
      }
    }
  }
  value_info {
    name: "blocks.3.2.conv_pwl.weight"
    type {
      tensor_type {
        elem_type: 1
        shape {
          dim {
            dim_value: 64
          }
          dim {
            dim_value: 384
          }
          dim {
            dim_value: 1
          }
          dim {
            dim_value: 1
          }
        }
      }
    }
  }
  value_info {
    name: "blocks.3.2.bn3.running_mean"
    type {
      tensor_type {
        elem_type: 1
        shape {
          dim {
            dim_value: 64
          }
        }
      }
    }
  }
  value_info {
    name: "blocks.3.2.bn3.running_var"
    type {
      tensor_type {
        elem_type: 1
        shape {
          dim {
            dim_value: 64
          }
        }
      }
    }
  }
  value_info {
    name: "blocks.3.2.bn3.weight"
    type {
      tensor_type {
        elem_type: 1
        shape {
          dim {
            dim_value: 64
          }
        }
      }
    }
  }
  value_info {
    name: "blocks.3.2.bn3.bias"
    type {
      tensor_type {
        elem_type: 1
        shape {
          dim {
            dim_value: 64
          }
        }
      }
    }
  }
  value_info {
    name: "blocks.3.3.conv_pw.weight"
    type {
      tensor_type {
        elem_type: 1
        shape {
          dim {
            dim_value: 384
          }
          dim {
            dim_value: 64
          }
          dim {
            dim_value: 1
          }
          dim {
            dim_value: 1
          }
        }
      }
    }
  }
  value_info {
    name: "blocks.3.3.bn1.running_mean"
    type {
      tensor_type {
        elem_type: 1
        shape {
          dim {
            dim_value: 384
          }
        }
      }
    }
  }
  value_info {
    name: "blocks.3.3.bn1.running_var"
    type {
      tensor_type {
        elem_type: 1
        shape {
          dim {
            dim_value: 384
          }
        }
      }
    }
  }
  value_info {
    name: "blocks.3.3.bn1.weight"
    type {
      tensor_type {
        elem_type: 1
        shape {
          dim {
            dim_value: 384
          }
        }
      }
    }
  }
  value_info {
    name: "blocks.3.3.bn1.bias"
    type {
      tensor_type {
        elem_type: 1
        shape {
          dim {
            dim_value: 384
          }
        }
      }
    }
  }
  value_info {
    name: "blocks.3.3.conv_dw.weight"
    type {
      tensor_type {
        elem_type: 1
        shape {
          dim {
            dim_value: 384
          }
          dim {
            dim_value: 1
          }
          dim {
            dim_value: 3
          }
          dim {
            dim_value: 3
          }
        }
      }
    }
  }
  value_info {
    name: "blocks.3.3.bn2.running_mean"
    type {
      tensor_type {
        elem_type: 1
        shape {
          dim {
            dim_value: 384
          }
        }
      }
    }
  }
  value_info {
    name: "blocks.3.3.bn2.running_var"
    type {
      tensor_type {
        elem_type: 1
        shape {
          dim {
            dim_value: 384
          }
        }
      }
    }
  }
  value_info {
    name: "blocks.3.3.bn2.weight"
    type {
      tensor_type {
        elem_type: 1
        shape {
          dim {
            dim_value: 384
          }
        }
      }
    }
  }
  value_info {
    name: "blocks.3.3.bn2.bias"
    type {
      tensor_type {
        elem_type: 1
        shape {
          dim {
            dim_value: 384
          }
        }
      }
    }
  }
  value_info {
    name: "blocks.3.3.conv_pwl.weight"
    type {
      tensor_type {
        elem_type: 1
        shape {
          dim {
            dim_value: 64
          }
          dim {
            dim_value: 384
          }
          dim {
            dim_value: 1
          }
          dim {
            dim_value: 1
          }
        }
      }
    }
  }
  value_info {
    name: "blocks.3.3.bn3.running_mean"
    type {
      tensor_type {
        elem_type: 1
        shape {
          dim {
            dim_value: 64
          }
        }
      }
    }
  }
  value_info {
    name: "blocks.3.3.bn3.running_var"
    type {
      tensor_type {
        elem_type: 1
        shape {
          dim {
            dim_value: 64
          }
        }
      }
    }
  }
  value_info {
    name: "blocks.3.3.bn3.weight"
    type {
      tensor_type {
        elem_type: 1
        shape {
          dim {
            dim_value: 64
          }
        }
      }
    }
  }
  value_info {
    name: "blocks.3.3.bn3.bias"
    type {
      tensor_type {
        elem_type: 1
        shape {
          dim {
            dim_value: 64
          }
        }
      }
    }
  }
  value_info {
    name: "blocks.4.0.conv_pw.weight"
    type {
      tensor_type {
        elem_type: 1
        shape {
          dim {
            dim_value: 384
          }
          dim {
            dim_value: 64
          }
          dim {
            dim_value: 1
          }
          dim {
            dim_value: 1
          }
        }
      }
    }
  }
  value_info {
    name: "blocks.4.0.bn1.running_mean"
    type {
      tensor_type {
        elem_type: 1
        shape {
          dim {
            dim_value: 384
          }
        }
      }
    }
  }
  value_info {
    name: "blocks.4.0.bn1.running_var"
    type {
      tensor_type {
        elem_type: 1
        shape {
          dim {
            dim_value: 384
          }
        }
      }
    }
  }
  value_info {
    name: "blocks.4.0.bn1.weight"
    type {
      tensor_type {
        elem_type: 1
        shape {
          dim {
            dim_value: 384
          }
        }
      }
    }
  }
  value_info {
    name: "blocks.4.0.bn1.bias"
    type {
      tensor_type {
        elem_type: 1
        shape {
          dim {
            dim_value: 384
          }
        }
      }
    }
  }
  value_info {
    name: "blocks.4.0.conv_dw.weight"
    type {
      tensor_type {
        elem_type: 1
        shape {
          dim {
            dim_value: 384
          }
          dim {
            dim_value: 1
          }
          dim {
            dim_value: 3
          }
          dim {
            dim_value: 3
          }
        }
      }
    }
  }
  value_info {
    name: "blocks.4.0.bn2.running_mean"
    type {
      tensor_type {
        elem_type: 1
        shape {
          dim {
            dim_value: 384
          }
        }
      }
    }
  }
  value_info {
    name: "blocks.4.0.bn2.running_var"
    type {
      tensor_type {
        elem_type: 1
        shape {
          dim {
            dim_value: 384
          }
        }
      }
    }
  }
  value_info {
    name: "blocks.4.0.bn2.weight"
    type {
      tensor_type {
        elem_type: 1
        shape {
          dim {
            dim_value: 384
          }
        }
      }
    }
  }
  value_info {
    name: "blocks.4.0.bn2.bias"
    type {
      tensor_type {
        elem_type: 1
        shape {
          dim {
            dim_value: 384
          }
        }
      }
    }
  }
  value_info {
    name: "blocks.4.0.conv_pwl.weight"
    type {
      tensor_type {
        elem_type: 1
        shape {
          dim {
            dim_value: 96
          }
          dim {
            dim_value: 384
          }
          dim {
            dim_value: 1
          }
          dim {
            dim_value: 1
          }
        }
      }
    }
  }
  value_info {
    name: "blocks.4.0.bn3.running_mean"
    type {
      tensor_type {
        elem_type: 1
        shape {
          dim {
            dim_value: 96
          }
        }
      }
    }
  }
  value_info {
    name: "blocks.4.0.bn3.running_var"
    type {
      tensor_type {
        elem_type: 1
        shape {
          dim {
            dim_value: 96
          }
        }
      }
    }
  }
  value_info {
    name: "blocks.4.0.bn3.weight"
    type {
      tensor_type {
        elem_type: 1
        shape {
          dim {
            dim_value: 96
          }
        }
      }
    }
  }
  value_info {
    name: "blocks.4.0.bn3.bias"
    type {
      tensor_type {
        elem_type: 1
        shape {
          dim {
            dim_value: 96
          }
        }
      }
    }
  }
  value_info {
    name: "blocks.4.1.conv_pw.weight"
    type {
      tensor_type {
        elem_type: 1
        shape {
          dim {
            dim_value: 576
          }
          dim {
            dim_value: 96
          }
          dim {
            dim_value: 1
          }
          dim {
            dim_value: 1
          }
        }
      }
    }
  }
  value_info {
    name: "blocks.4.1.bn1.running_mean"
    type {
      tensor_type {
        elem_type: 1
        shape {
          dim {
            dim_value: 576
          }
        }
      }
    }
  }
  value_info {
    name: "blocks.4.1.bn1.running_var"
    type {
      tensor_type {
        elem_type: 1
        shape {
          dim {
            dim_value: 576
          }
        }
      }
    }
  }
  value_info {
    name: "blocks.4.1.bn1.weight"
    type {
      tensor_type {
        elem_type: 1
        shape {
          dim {
            dim_value: 576
          }
        }
      }
    }
  }
  value_info {
    name: "blocks.4.1.bn1.bias"
    type {
      tensor_type {
        elem_type: 1
        shape {
          dim {
            dim_value: 576
          }
        }
      }
    }
  }
  value_info {
    name: "blocks.4.1.conv_dw.weight"
    type {
      tensor_type {
        elem_type: 1
        shape {
          dim {
            dim_value: 576
          }
          dim {
            dim_value: 1
          }
          dim {
            dim_value: 3
          }
          dim {
            dim_value: 3
          }
        }
      }
    }
  }
  value_info {
    name: "blocks.4.1.bn2.running_mean"
    type {
      tensor_type {
        elem_type: 1
        shape {
          dim {
            dim_value: 576
          }
        }
      }
    }
  }
  value_info {
    name: "blocks.4.1.bn2.running_var"
    type {
      tensor_type {
        elem_type: 1
        shape {
          dim {
            dim_value: 576
          }
        }
      }
    }
  }
  value_info {
    name: "blocks.4.1.bn2.weight"
    type {
      tensor_type {
        elem_type: 1
        shape {
          dim {
            dim_value: 576
          }
        }
      }
    }
  }
  value_info {
    name: "blocks.4.1.bn2.bias"
    type {
      tensor_type {
        elem_type: 1
        shape {
          dim {
            dim_value: 576
          }
        }
      }
    }
  }
  value_info {
    name: "blocks.4.1.conv_pwl.weight"
    type {
      tensor_type {
        elem_type: 1
        shape {
          dim {
            dim_value: 96
          }
          dim {
            dim_value: 576
          }
          dim {
            dim_value: 1
          }
          dim {
            dim_value: 1
          }
        }
      }
    }
  }
  value_info {
    name: "blocks.4.1.bn3.running_mean"
    type {
      tensor_type {
        elem_type: 1
        shape {
          dim {
            dim_value: 96
          }
        }
      }
    }
  }
  value_info {
    name: "blocks.4.1.bn3.running_var"
    type {
      tensor_type {
        elem_type: 1
        shape {
          dim {
            dim_value: 96
          }
        }
      }
    }
  }
  value_info {
    name: "blocks.4.1.bn3.weight"
    type {
      tensor_type {
        elem_type: 1
        shape {
          dim {
            dim_value: 96
          }
        }
      }
    }
  }
  value_info {
    name: "blocks.4.1.bn3.bias"
    type {
      tensor_type {
        elem_type: 1
        shape {
          dim {
            dim_value: 96
          }
        }
      }
    }
  }
  value_info {
    name: "blocks.4.2.conv_pw.weight"
    type {
      tensor_type {
        elem_type: 1
        shape {
          dim {
            dim_value: 576
          }
          dim {
            dim_value: 96
          }
          dim {
            dim_value: 1
          }
          dim {
            dim_value: 1
          }
        }
      }
    }
  }
  value_info {
    name: "blocks.4.2.bn1.running_mean"
    type {
      tensor_type {
        elem_type: 1
        shape {
          dim {
            dim_value: 576
          }
        }
      }
    }
  }
  value_info {
    name: "blocks.4.2.bn1.running_var"
    type {
      tensor_type {
        elem_type: 1
        shape {
          dim {
            dim_value: 576
          }
        }
      }
    }
  }
  value_info {
    name: "blocks.4.2.bn1.weight"
    type {
      tensor_type {
        elem_type: 1
        shape {
          dim {
            dim_value: 576
          }
        }
      }
    }
  }
  value_info {
    name: "blocks.4.2.bn1.bias"
    type {
      tensor_type {
        elem_type: 1
        shape {
          dim {
            dim_value: 576
          }
        }
      }
    }
  }
  value_info {
    name: "blocks.4.2.conv_dw.weight"
    type {
      tensor_type {
        elem_type: 1
        shape {
          dim {
            dim_value: 576
          }
          dim {
            dim_value: 1
          }
          dim {
            dim_value: 3
          }
          dim {
            dim_value: 3
          }
        }
      }
    }
  }
  value_info {
    name: "blocks.4.2.bn2.running_mean"
    type {
      tensor_type {
        elem_type: 1
        shape {
          dim {
            dim_value: 576
          }
        }
      }
    }
  }
  value_info {
    name: "blocks.4.2.bn2.running_var"
    type {
      tensor_type {
        elem_type: 1
        shape {
          dim {
            dim_value: 576
          }
        }
      }
    }
  }
  value_info {
    name: "blocks.4.2.bn2.weight"
    type {
      tensor_type {
        elem_type: 1
        shape {
          dim {
            dim_value: 576
          }
        }
      }
    }
  }
  value_info {
    name: "blocks.4.2.bn2.bias"
    type {
      tensor_type {
        elem_type: 1
        shape {
          dim {
            dim_value: 576
          }
        }
      }
    }
  }
  value_info {
    name: "blocks.4.2.conv_pwl.weight"
    type {
      tensor_type {
        elem_type: 1
        shape {
          dim {
            dim_value: 96
          }
          dim {
            dim_value: 576
          }
          dim {
            dim_value: 1
          }
          dim {
            dim_value: 1
          }
        }
      }
    }
  }
  value_info {
    name: "blocks.4.2.bn3.running_mean"
    type {
      tensor_type {
        elem_type: 1
        shape {
          dim {
            dim_value: 96
          }
        }
      }
    }
  }
  value_info {
    name: "blocks.4.2.bn3.running_var"
    type {
      tensor_type {
        elem_type: 1
        shape {
          dim {
            dim_value: 96
          }
        }
      }
    }
  }
  value_info {
    name: "blocks.4.2.bn3.weight"
    type {
      tensor_type {
        elem_type: 1
        shape {
          dim {
            dim_value: 96
          }
        }
      }
    }
  }
  value_info {
    name: "blocks.4.2.bn3.bias"
    type {
      tensor_type {
        elem_type: 1
        shape {
          dim {
            dim_value: 96
          }
        }
      }
    }
  }
  value_info {
    name: "blocks.5.0.conv_pw.weight"
    type {
      tensor_type {
        elem_type: 1
        shape {
          dim {
            dim_value: 576
          }
          dim {
            dim_value: 96
          }
          dim {
            dim_value: 1
          }
          dim {
            dim_value: 1
          }
        }
      }
    }
  }
  value_info {
    name: "blocks.5.0.bn1.running_mean"
    type {
      tensor_type {
        elem_type: 1
        shape {
          dim {
            dim_value: 576
          }
        }
      }
    }
  }
  value_info {
    name: "blocks.5.0.bn1.running_var"
    type {
      tensor_type {
        elem_type: 1
        shape {
          dim {
            dim_value: 576
          }
        }
      }
    }
  }
  value_info {
    name: "blocks.5.0.bn1.weight"
    type {
      tensor_type {
        elem_type: 1
        shape {
          dim {
            dim_value: 576
          }
        }
      }
    }
  }
  value_info {
    name: "blocks.5.0.bn1.bias"
    type {
      tensor_type {
        elem_type: 1
        shape {
          dim {
            dim_value: 576
          }
        }
      }
    }
  }
  value_info {
    name: "blocks.5.0.conv_dw.weight"
    type {
      tensor_type {
        elem_type: 1
        shape {
          dim {
            dim_value: 576
          }
          dim {
            dim_value: 1
          }
          dim {
            dim_value: 3
          }
          dim {
            dim_value: 3
          }
        }
      }
    }
  }
  value_info {
    name: "blocks.5.0.bn2.running_mean"
    type {
      tensor_type {
        elem_type: 1
        shape {
          dim {
            dim_value: 576
          }
        }
      }
    }
  }
  value_info {
    name: "blocks.5.0.bn2.running_var"
    type {
      tensor_type {
        elem_type: 1
        shape {
          dim {
            dim_value: 576
          }
        }
      }
    }
  }
  value_info {
    name: "blocks.5.0.bn2.weight"
    type {
      tensor_type {
        elem_type: 1
        shape {
          dim {
            dim_value: 576
          }
        }
      }
    }
  }
  value_info {
    name: "blocks.5.0.bn2.bias"
    type {
      tensor_type {
        elem_type: 1
        shape {
          dim {
            dim_value: 576
          }
        }
      }
    }
  }
  value_info {
    name: "blocks.5.0.conv_pwl.weight"
    type {
      tensor_type {
        elem_type: 1
        shape {
          dim {
            dim_value: 160
          }
          dim {
            dim_value: 576
          }
          dim {
            dim_value: 1
          }
          dim {
            dim_value: 1
          }
        }
      }
    }
  }
  value_info {
    name: "blocks.5.0.bn3.running_mean"
    type {
      tensor_type {
        elem_type: 1
        shape {
          dim {
            dim_value: 160
          }
        }
      }
    }
  }
  value_info {
    name: "blocks.5.0.bn3.running_var"
    type {
      tensor_type {
        elem_type: 1
        shape {
          dim {
            dim_value: 160
          }
        }
      }
    }
  }
  value_info {
    name: "blocks.5.0.bn3.weight"
    type {
      tensor_type {
        elem_type: 1
        shape {
          dim {
            dim_value: 160
          }
        }
      }
    }
  }
  value_info {
    name: "blocks.5.0.bn3.bias"
    type {
      tensor_type {
        elem_type: 1
        shape {
          dim {
            dim_value: 160
          }
        }
      }
    }
  }
  value_info {
    name: "blocks.5.1.conv_pw.weight"
    type {
      tensor_type {
        elem_type: 1
        shape {
          dim {
            dim_value: 960
          }
          dim {
            dim_value: 160
          }
          dim {
            dim_value: 1
          }
          dim {
            dim_value: 1
          }
        }
      }
    }
  }
  value_info {
    name: "blocks.5.1.bn1.running_mean"
    type {
      tensor_type {
        elem_type: 1
        shape {
          dim {
            dim_value: 960
          }
        }
      }
    }
  }
  value_info {
    name: "blocks.5.1.bn1.running_var"
    type {
      tensor_type {
        elem_type: 1
        shape {
          dim {
            dim_value: 960
          }
        }
      }
    }
  }
  value_info {
    name: "blocks.5.1.bn1.weight"
    type {
      tensor_type {
        elem_type: 1
        shape {
          dim {
            dim_value: 960
          }
        }
      }
    }
  }
  value_info {
    name: "blocks.5.1.bn1.bias"
    type {
      tensor_type {
        elem_type: 1
        shape {
          dim {
            dim_value: 960
          }
        }
      }
    }
  }
  value_info {
    name: "blocks.5.1.conv_dw.weight"
    type {
      tensor_type {
        elem_type: 1
        shape {
          dim {
            dim_value: 960
          }
          dim {
            dim_value: 1
          }
          dim {
            dim_value: 3
          }
          dim {
            dim_value: 3
          }
        }
      }
    }
  }
  value_info {
    name: "blocks.5.1.bn2.running_mean"
    type {
      tensor_type {
        elem_type: 1
        shape {
          dim {
            dim_value: 960
          }
        }
      }
    }
  }
  value_info {
    name: "blocks.5.1.bn2.running_var"
    type {
      tensor_type {
        elem_type: 1
        shape {
          dim {
            dim_value: 960
          }
        }
      }
    }
  }
  value_info {
    name: "blocks.5.1.bn2.weight"
    type {
      tensor_type {
        elem_type: 1
        shape {
          dim {
            dim_value: 960
          }
        }
      }
    }
  }
  value_info {
    name: "blocks.5.1.bn2.bias"
    type {
      tensor_type {
        elem_type: 1
        shape {
          dim {
            dim_value: 960
          }
        }
      }
    }
  }
  value_info {
    name: "blocks.5.1.conv_pwl.weight"
    type {
      tensor_type {
        elem_type: 1
        shape {
          dim {
            dim_value: 160
          }
          dim {
            dim_value: 960
          }
          dim {
            dim_value: 1
          }
          dim {
            dim_value: 1
          }
        }
      }
    }
  }
  value_info {
    name: "blocks.5.1.bn3.running_mean"
    type {
      tensor_type {
        elem_type: 1
        shape {
          dim {
            dim_value: 160
          }
        }
      }
    }
  }
  value_info {
    name: "blocks.5.1.bn3.running_var"
    type {
      tensor_type {
        elem_type: 1
        shape {
          dim {
            dim_value: 160
          }
        }
      }
    }
  }
  value_info {
    name: "blocks.5.1.bn3.weight"
    type {
      tensor_type {
        elem_type: 1
        shape {
          dim {
            dim_value: 160
          }
        }
      }
    }
  }
  value_info {
    name: "blocks.5.1.bn3.bias"
    type {
      tensor_type {
        elem_type: 1
        shape {
          dim {
            dim_value: 160
          }
        }
      }
    }
  }
  value_info {
    name: "blocks.5.2.conv_pw.weight"
    type {
      tensor_type {
        elem_type: 1
        shape {
          dim {
            dim_value: 960
          }
          dim {
            dim_value: 160
          }
          dim {
            dim_value: 1
          }
          dim {
            dim_value: 1
          }
        }
      }
    }
  }
  value_info {
    name: "blocks.5.2.bn1.running_mean"
    type {
      tensor_type {
        elem_type: 1
        shape {
          dim {
            dim_value: 960
          }
        }
      }
    }
  }
  value_info {
    name: "blocks.5.2.bn1.running_var"
    type {
      tensor_type {
        elem_type: 1
        shape {
          dim {
            dim_value: 960
          }
        }
      }
    }
  }
  value_info {
    name: "blocks.5.2.bn1.weight"
    type {
      tensor_type {
        elem_type: 1
        shape {
          dim {
            dim_value: 960
          }
        }
      }
    }
  }
  value_info {
    name: "blocks.5.2.bn1.bias"
    type {
      tensor_type {
        elem_type: 1
        shape {
          dim {
            dim_value: 960
          }
        }
      }
    }
  }
  value_info {
    name: "blocks.5.2.conv_dw.weight"
    type {
      tensor_type {
        elem_type: 1
        shape {
          dim {
            dim_value: 960
          }
          dim {
            dim_value: 1
          }
          dim {
            dim_value: 3
          }
          dim {
            dim_value: 3
          }
        }
      }
    }
  }
  value_info {
    name: "blocks.5.2.bn2.running_mean"
    type {
      tensor_type {
        elem_type: 1
        shape {
          dim {
            dim_value: 960
          }
        }
      }
    }
  }
  value_info {
    name: "blocks.5.2.bn2.running_var"
    type {
      tensor_type {
        elem_type: 1
        shape {
          dim {
            dim_value: 960
          }
        }
      }
    }
  }
  value_info {
    name: "blocks.5.2.bn2.weight"
    type {
      tensor_type {
        elem_type: 1
        shape {
          dim {
            dim_value: 960
          }
        }
      }
    }
  }
  value_info {
    name: "blocks.5.2.bn2.bias"
    type {
      tensor_type {
        elem_type: 1
        shape {
          dim {
            dim_value: 960
          }
        }
      }
    }
  }
  value_info {
    name: "blocks.5.2.conv_pwl.weight"
    type {
      tensor_type {
        elem_type: 1
        shape {
          dim {
            dim_value: 160
          }
          dim {
            dim_value: 960
          }
          dim {
            dim_value: 1
          }
          dim {
            dim_value: 1
          }
        }
      }
    }
  }
  value_info {
    name: "blocks.5.2.bn3.running_mean"
    type {
      tensor_type {
        elem_type: 1
        shape {
          dim {
            dim_value: 160
          }
        }
      }
    }
  }
  value_info {
    name: "blocks.5.2.bn3.running_var"
    type {
      tensor_type {
        elem_type: 1
        shape {
          dim {
            dim_value: 160
          }
        }
      }
    }
  }
  value_info {
    name: "blocks.5.2.bn3.weight"
    type {
      tensor_type {
        elem_type: 1
        shape {
          dim {
            dim_value: 160
          }
        }
      }
    }
  }
  value_info {
    name: "blocks.5.2.bn3.bias"
    type {
      tensor_type {
        elem_type: 1
        shape {
          dim {
            dim_value: 160
          }
        }
      }
    }
  }
  value_info {
    name: "blocks.6.0.conv_pw.weight"
    type {
      tensor_type {
        elem_type: 1
        shape {
          dim {
            dim_value: 960
          }
          dim {
            dim_value: 160
          }
          dim {
            dim_value: 1
          }
          dim {
            dim_value: 1
          }
        }
      }
    }
  }
  value_info {
    name: "blocks.6.0.bn1.running_mean"
    type {
      tensor_type {
        elem_type: 1
        shape {
          dim {
            dim_value: 960
          }
        }
      }
    }
  }
  value_info {
    name: "blocks.6.0.bn1.running_var"
    type {
      tensor_type {
        elem_type: 1
        shape {
          dim {
            dim_value: 960
          }
        }
      }
    }
  }
  value_info {
    name: "blocks.6.0.bn1.weight"
    type {
      tensor_type {
        elem_type: 1
        shape {
          dim {
            dim_value: 960
          }
        }
      }
    }
  }
  value_info {
    name: "blocks.6.0.bn1.bias"
    type {
      tensor_type {
        elem_type: 1
        shape {
          dim {
            dim_value: 960
          }
        }
      }
    }
  }
  value_info {
    name: "blocks.6.0.conv_dw.weight"
    type {
      tensor_type {
        elem_type: 1
        shape {
          dim {
            dim_value: 960
          }
          dim {
            dim_value: 1
          }
          dim {
            dim_value: 3
          }
          dim {
            dim_value: 3
          }
        }
      }
    }
  }
  value_info {
    name: "blocks.6.0.bn2.running_mean"
    type {
      tensor_type {
        elem_type: 1
        shape {
          dim {
            dim_value: 960
          }
        }
      }
    }
  }
  value_info {
    name: "blocks.6.0.bn2.running_var"
    type {
      tensor_type {
        elem_type: 1
        shape {
          dim {
            dim_value: 960
          }
        }
      }
    }
  }
  value_info {
    name: "blocks.6.0.bn2.weight"
    type {
      tensor_type {
        elem_type: 1
        shape {
          dim {
            dim_value: 960
          }
        }
      }
    }
  }
  value_info {
    name: "blocks.6.0.bn2.bias"
    type {
      tensor_type {
        elem_type: 1
        shape {
          dim {
            dim_value: 960
          }
        }
      }
    }
  }
  value_info {
    name: "blocks.6.0.conv_pwl.weight"
    type {
      tensor_type {
        elem_type: 1
        shape {
          dim {
            dim_value: 320
          }
          dim {
            dim_value: 960
          }
          dim {
            dim_value: 1
          }
          dim {
            dim_value: 1
          }
        }
      }
    }
  }
  value_info {
    name: "blocks.6.0.bn3.running_mean"
    type {
      tensor_type {
        elem_type: 1
        shape {
          dim {
            dim_value: 320
          }
        }
      }
    }
  }
  value_info {
    name: "blocks.6.0.bn3.running_var"
    type {
      tensor_type {
        elem_type: 1
        shape {
          dim {
            dim_value: 320
          }
        }
      }
    }
  }
  value_info {
    name: "blocks.6.0.bn3.weight"
    type {
      tensor_type {
        elem_type: 1
        shape {
          dim {
            dim_value: 320
          }
        }
      }
    }
  }
  value_info {
    name: "blocks.6.0.bn3.bias"
    type {
      tensor_type {
        elem_type: 1
        shape {
          dim {
            dim_value: 320
          }
        }
      }
    }
  }
  value_info {
    name: "conv_head.weight"
    type {
      tensor_type {
        elem_type: 1
        shape {
          dim {
            dim_value: 1280
          }
          dim {
            dim_value: 320
          }
          dim {
            dim_value: 1
          }
          dim {
            dim_value: 1
          }
        }
      }
    }
  }
  value_info {
    name: "bn2.running_mean"
    type {
      tensor_type {
        elem_type: 1
        shape {
          dim {
            dim_value: 1280
          }
        }
      }
    }
  }
  value_info {
    name: "bn2.running_var"
    type {
      tensor_type {
        elem_type: 1
        shape {
          dim {
            dim_value: 1280
          }
        }
      }
    }
  }
  value_info {
    name: "bn2.weight"
    type {
      tensor_type {
        elem_type: 1
        shape {
          dim {
            dim_value: 1280
          }
        }
      }
    }
  }
  value_info {
    name: "bn2.bias"
    type {
      tensor_type {
        elem_type: 1
        shape {
          dim {
            dim_value: 1280
          }
        }
      }
    }
  }
  value_info {
    name: "classifier.weight"
    type {
      tensor_type {
        elem_type: 1
        shape {
          dim {
            dim_value: 1000
          }
          dim {
            dim_value: 1280
          }
        }
      }
    }
  }
  value_info {
    name: "classifier.bias"
    type {
      tensor_type {
        elem_type: 1
        shape {
          dim {
            dim_value: 1000
          }
        }
      }
    }
  }
  value_info {
    name: "conv_stem_1"
    type {
      tensor_type {
        elem_type: 1
        shape {
          dim {
            dim_value: 1
          }
          dim {
            dim_value: 32
          }
          dim {
            dim_value: 112
          }
          dim {
            dim_value: 112
          }
        }
      }
    }
  }
  value_info {
    name: "bn1_1"
    type {
      tensor_type {
        elem_type: 1
        shape {
          dim {
            dim_value: 1
          }
          dim {
            dim_value: 32
          }
          dim {
            dim_value: 112
          }
          dim {
            dim_value: 112
          }
        }
      }
    }
  }
  value_info {
    name: "blocks_1"
    type {
      tensor_type {
        elem_type: 1
        shape {
          dim {
            dim_value: 1
          }
          dim {
            dim_value: 320
          }
          dim {
            dim_value: 7
          }
          dim {
            dim_value: 7
          }
        }
      }
    }
  }
  value_info {
    name: "conv_head_1"
    type {
      tensor_type {
        elem_type: 1
        shape {
          dim {
            dim_value: 1
          }
          dim {
            dim_value: 1280
          }
          dim {
            dim_value: 7
          }
          dim {
            dim_value: 7
          }
        }
      }
    }
  }
  value_info {
    name: "bn2_1"
    type {
      tensor_type {
        elem_type: 1
        shape {
          dim {
            dim_value: 1
          }
          dim {
            dim_value: 1280
          }
          dim {
            dim_value: 7
          }
          dim {
            dim_value: 7
          }
        }
      }
    }
  }
  value_info {
    name: "global_pool_1"
    type {
      tensor_type {
        elem_type: 1
        shape {
          dim {
            dim_value: 1
          }
          dim {
            dim_value: 1280
          }
        }
      }
    }
  }
  value_info {
    name: "pkg.torch.2.2.0a0+git63d65dd::torch_nn_modules_conv_Conv2d_conv_stem_1/l_x_"
    type {
      tensor_type {
        elem_type: 1
        shape {
          dim {
            dim_value: 1
          }
          dim {
            dim_value: 3
          }
          dim {
            dim_value: 224
          }
          dim {
            dim_value: 224
          }
        }
      }
    }
  }
  value_info {
    name: "pkg.torch.2.2.0a0+git63d65dd::torch_nn_modules_conv_Conv2d_conv_stem_1/convolution"
    type {
      tensor_type {
        elem_type: 1
        shape {
          dim {
            dim_value: 1
          }
          dim {
            dim_value: 32
          }
          dim {
            dim_value: 112
          }
          dim {
            dim_value: 112
          }
        }
      }
    }
  }
  value_info {
    name: "pkg.torch.2.2.0a0+git63d65dd::torch_nn_modules_activation_ReLU6_bn1_act_1/add_1"
    type {
      tensor_type {
        elem_type: 1
        shape {
          dim {
            dim_value: 1
          }
          dim {
            dim_value: 32
          }
          dim {
            dim_value: 112
          }
          dim {
            dim_value: 112
          }
        }
      }
    }
  }
  value_info {
    name: "pkg.torch.2.2.0a0+git63d65dd::torch_nn_modules_activation_ReLU6_bn1_act_1/hardtanh"
    type {
      tensor_type {
        elem_type: 1
        shape {
          dim {
            dim_value: 1
          }
          dim {
            dim_value: 32
          }
          dim {
            dim_value: 112
          }
          dim {
            dim_value: 112
          }
        }
      }
    }
  }
  value_info {
    name: "pkg.torch.2.2.0a0+git63d65dd::torch_nn_modules_activation_ReLU6_bn1_act_1/copy"
    type {
      tensor_type {
        elem_type: 1
        shape {
          dim {
            dim_value: 1
          }
          dim {
            dim_value: 32
          }
          dim {
            dim_value: 112
          }
          dim {
            dim_value: 112
          }
        }
      }
    }
  }
  value_info {
    name: "pkg.timm.0.9.7::timm_layers_norm_act_BatchNormAct2d_bn1_1/convolution"
    type {
      tensor_type {
        elem_type: 1
        shape {
          dim {
            dim_value: 1
          }
          dim {
            dim_value: 32
          }
          dim {
            dim_value: 112
          }
          dim {
            dim_value: 112
          }
        }
      }
    }
  }
  value_info {
    name: "pkg.timm.0.9.7::timm_layers_norm_act_BatchNormAct2d_bn1_1/convert_element_type"
    type {
      tensor_type {
        elem_type: 1
        shape {
          dim {
            dim_value: 32
          }
        }
      }
    }
  }
  value_info {
    name: "pkg.timm.0.9.7::timm_layers_norm_act_BatchNormAct2d_bn1_1/convert_element_type_1"
    type {
      tensor_type {
        elem_type: 1
        shape {
          dim {
            dim_value: 32
          }
        }
      }
    }
  }
  value_info {
    name: "pkg.timm.0.9.7::timm_layers_norm_act_BatchNormAct2d_bn1_1/add"
    type {
      tensor_type {
        elem_type: 1
        shape {
          dim {
            dim_value: 32
          }
        }
      }
    }
  }
  value_info {
    name: "pkg.timm.0.9.7::timm_layers_norm_act_BatchNormAct2d_bn1_1/sqrt"
    type {
      tensor_type {
        elem_type: 1
        shape {
          dim {
            dim_value: 32
          }
        }
      }
    }
  }
  value_info {
    name: "pkg.timm.0.9.7::timm_layers_norm_act_BatchNormAct2d_bn1_1/reciprocal"
    type {
      tensor_type {
        elem_type: 1
        shape {
          dim {
            dim_value: 32
          }
        }
      }
    }
  }
  value_info {
    name: "pkg.timm.0.9.7::timm_layers_norm_act_BatchNormAct2d_bn1_1/scalar_tensor_default"
    type {
      tensor_type {
        elem_type: 1
        shape {
        }
      }
    }
  }
  value_info {
    name: "pkg.timm.0.9.7::timm_layers_norm_act_BatchNormAct2d_bn1_1/mul"
    type {
      tensor_type {
        elem_type: 1
        shape {
          dim {
            dim_value: 32
          }
        }
      }
    }
  }
  value_info {
    name: "pkg.timm.0.9.7::timm_layers_norm_act_BatchNormAct2d_bn1_1/unsqueeze"
    type {
      tensor_type {
        elem_type: 1
        shape {
          dim {
            dim_value: 32
          }
          dim {
            dim_value: 1
          }
        }
      }
    }
  }
  value_info {
    name: "pkg.timm.0.9.7::timm_layers_norm_act_BatchNormAct2d_bn1_1/unsqueeze_1"
    type {
      tensor_type {
        elem_type: 1
        shape {
          dim {
            dim_value: 32
          }
          dim {
            dim_value: 1
          }
          dim {
            dim_value: 1
          }
        }
      }
    }
  }
  value_info {
    name: "pkg.timm.0.9.7::timm_layers_norm_act_BatchNormAct2d_bn1_1/unsqueeze_2"
    type {
      tensor_type {
        elem_type: 1
        shape {
          dim {
            dim_value: 32
          }
          dim {
            dim_value: 1
          }
        }
      }
    }
  }
  value_info {
    name: "pkg.timm.0.9.7::timm_layers_norm_act_BatchNormAct2d_bn1_1/unsqueeze_3"
    type {
      tensor_type {
        elem_type: 1
        shape {
          dim {
            dim_value: 32
          }
          dim {
            dim_value: 1
          }
          dim {
            dim_value: 1
          }
        }
      }
    }
  }
  value_info {
    name: "pkg.timm.0.9.7::timm_layers_norm_act_BatchNormAct2d_bn1_1/sub"
    type {
      tensor_type {
        elem_type: 1
        shape {
          dim {
            dim_value: 1
          }
          dim {
            dim_value: 32
          }
          dim {
            dim_value: 112
          }
          dim {
            dim_value: 112
          }
        }
      }
    }
  }
  value_info {
    name: "pkg.timm.0.9.7::timm_layers_norm_act_BatchNormAct2d_bn1_1/mul_1"
    type {
      tensor_type {
        elem_type: 1
        shape {
          dim {
            dim_value: 1
          }
          dim {
            dim_value: 32
          }
          dim {
            dim_value: 112
          }
          dim {
            dim_value: 112
          }
        }
      }
    }
  }
  value_info {
    name: "pkg.timm.0.9.7::timm_layers_norm_act_BatchNormAct2d_bn1_1/unsqueeze_4"
    type {
      tensor_type {
        elem_type: 1
        shape {
          dim {
            dim_value: 32
          }
          dim {
            dim_value: 1
          }
        }
      }
    }
  }
  value_info {
    name: "pkg.timm.0.9.7::timm_layers_norm_act_BatchNormAct2d_bn1_1/unsqueeze_5"
    type {
      tensor_type {
        elem_type: 1
        shape {
          dim {
            dim_value: 32
          }
          dim {
            dim_value: 1
          }
          dim {
            dim_value: 1
          }
        }
      }
    }
  }
  value_info {
    name: "pkg.timm.0.9.7::timm_layers_norm_act_BatchNormAct2d_bn1_1/mul_2"
    type {
      tensor_type {
        elem_type: 1
        shape {
          dim {
            dim_value: 1
          }
          dim {
            dim_value: 32
          }
          dim {
            dim_value: 112
          }
          dim {
            dim_value: 112
          }
        }
      }
    }
  }
  value_info {
    name: "pkg.timm.0.9.7::timm_layers_norm_act_BatchNormAct2d_bn1_1/unsqueeze_6"
    type {
      tensor_type {
        elem_type: 1
        shape {
          dim {
            dim_value: 32
          }
          dim {
            dim_value: 1
          }
        }
      }
    }
  }
  value_info {
    name: "pkg.timm.0.9.7::timm_layers_norm_act_BatchNormAct2d_bn1_1/unsqueeze_7"
    type {
      tensor_type {
        elem_type: 1
        shape {
          dim {
            dim_value: 32
          }
          dim {
            dim_value: 1
          }
          dim {
            dim_value: 1
          }
        }
      }
    }
  }
  value_info {
    name: "pkg.timm.0.9.7::timm_layers_norm_act_BatchNormAct2d_bn1_1/add_1"
    type {
      tensor_type {
        elem_type: 1
        shape {
          dim {
            dim_value: 1
          }
          dim {
            dim_value: 32
          }
          dim {
            dim_value: 112
          }
          dim {
            dim_value: 112
          }
        }
      }
    }
  }
  value_info {
    name: "pkg.timm.0.9.7::timm_layers_norm_act_BatchNormAct2d_bn1_1/bn1_act_1"
    type {
      tensor_type {
        elem_type: 1
        shape {
          dim {
            dim_value: 1
          }
          dim {
            dim_value: 32
          }
          dim {
            dim_value: 112
          }
          dim {
            dim_value: 112
          }
        }
      }
    }
  }
  value_info {
    name: "pkg.torch.2.2.0a0+git63d65dd::torch_nn_modules_conv_Conv2d_getattr_getattr_L__self___blocks___0_____0___conv_dw_1/copy"
    type {
      tensor_type {
        elem_type: 1
        shape {
          dim {
            dim_value: 1
          }
          dim {
            dim_value: 32
          }
          dim {
            dim_value: 112
          }
          dim {
            dim_value: 112
          }
        }
      }
    }
  }
  value_info {
    name: "pkg.torch.2.2.0a0+git63d65dd::torch_nn_modules_conv_Conv2d_getattr_getattr_L__self___blocks___0_____0___conv_dw_1/convolution_1"
    type {
      tensor_type {
        elem_type: 1
        shape {
          dim {
            dim_value: 1
          }
          dim {
            dim_value: 32
          }
          dim {
            dim_value: 112
          }
          dim {
            dim_value: 112
          }
        }
      }
    }
  }
  value_info {
    name: "pkg.torch.2.2.0a0+git63d65dd::torch_nn_modules_activation_ReLU6_getattr_getattr_L__self___blocks___0_____0___bn1_act_1/add_3"
    type {
      tensor_type {
        elem_type: 1
        shape {
          dim {
            dim_value: 1
          }
          dim {
            dim_value: 32
          }
          dim {
            dim_value: 112
          }
          dim {
            dim_value: 112
          }
        }
      }
    }
  }
  value_info {
    name: "pkg.torch.2.2.0a0+git63d65dd::torch_nn_modules_activation_ReLU6_getattr_getattr_L__self___blocks___0_____0___bn1_act_1/hardtanh_1"
    type {
      tensor_type {
        elem_type: 1
        shape {
          dim {
            dim_value: 1
          }
          dim {
            dim_value: 32
          }
          dim {
            dim_value: 112
          }
          dim {
            dim_value: 112
          }
        }
      }
    }
  }
  value_info {
    name: "pkg.torch.2.2.0a0+git63d65dd::torch_nn_modules_activation_ReLU6_getattr_getattr_L__self___blocks___0_____0___bn1_act_1/copy_1"
    type {
      tensor_type {
        elem_type: 1
        shape {
          dim {
            dim_value: 1
          }
          dim {
            dim_value: 32
          }
          dim {
            dim_value: 112
          }
          dim {
            dim_value: 112
          }
        }
      }
    }
  }
  value_info {
    name: "pkg.timm.0.9.7::timm_layers_norm_act_BatchNormAct2d_getattr_getattr_L__self___blocks___0_____0___bn1_1/convolution_1"
    type {
      tensor_type {
        elem_type: 1
        shape {
          dim {
            dim_value: 1
          }
          dim {
            dim_value: 32
          }
          dim {
            dim_value: 112
          }
          dim {
            dim_value: 112
          }
        }
      }
    }
  }
  value_info {
    name: "pkg.timm.0.9.7::timm_layers_norm_act_BatchNormAct2d_getattr_getattr_L__self___blocks___0_____0___bn1_1/convert_element_type_2"
    type {
      tensor_type {
        elem_type: 1
        shape {
          dim {
            dim_value: 32
          }
        }
      }
    }
  }
  value_info {
    name: "pkg.timm.0.9.7::timm_layers_norm_act_BatchNormAct2d_getattr_getattr_L__self___blocks___0_____0___bn1_1/convert_element_type_3"
    type {
      tensor_type {
        elem_type: 1
        shape {
          dim {
            dim_value: 32
          }
        }
      }
    }
  }
  value_info {
    name: "pkg.timm.0.9.7::timm_layers_norm_act_BatchNormAct2d_getattr_getattr_L__self___blocks___0_____0___bn1_1/add_2"
    type {
      tensor_type {
        elem_type: 1
        shape {
          dim {
            dim_value: 32
          }
        }
      }
    }
  }
  value_info {
    name: "pkg.timm.0.9.7::timm_layers_norm_act_BatchNormAct2d_getattr_getattr_L__self___blocks___0_____0___bn1_1/sqrt_1"
    type {
      tensor_type {
        elem_type: 1
        shape {
          dim {
            dim_value: 32
          }
        }
      }
    }
  }
  value_info {
    name: "pkg.timm.0.9.7::timm_layers_norm_act_BatchNormAct2d_getattr_getattr_L__self___blocks___0_____0___bn1_1/reciprocal_1"
    type {
      tensor_type {
        elem_type: 1
        shape {
          dim {
            dim_value: 32
          }
        }
      }
    }
  }
  value_info {
    name: "pkg.timm.0.9.7::timm_layers_norm_act_BatchNormAct2d_getattr_getattr_L__self___blocks___0_____0___bn1_1/scalar_tensor_default_1"
    type {
      tensor_type {
        elem_type: 1
        shape {
        }
      }
    }
  }
  value_info {
    name: "pkg.timm.0.9.7::timm_layers_norm_act_BatchNormAct2d_getattr_getattr_L__self___blocks___0_____0___bn1_1/mul_3"
    type {
      tensor_type {
        elem_type: 1
        shape {
          dim {
            dim_value: 32
          }
        }
      }
    }
  }
  value_info {
    name: "pkg.timm.0.9.7::timm_layers_norm_act_BatchNormAct2d_getattr_getattr_L__self___blocks___0_____0___bn1_1/unsqueeze_8"
    type {
      tensor_type {
        elem_type: 1
        shape {
          dim {
            dim_value: 32
          }
          dim {
            dim_value: 1
          }
        }
      }
    }
  }
  value_info {
    name: "pkg.timm.0.9.7::timm_layers_norm_act_BatchNormAct2d_getattr_getattr_L__self___blocks___0_____0___bn1_1/unsqueeze_9"
    type {
      tensor_type {
        elem_type: 1
        shape {
          dim {
            dim_value: 32
          }
          dim {
            dim_value: 1
          }
          dim {
            dim_value: 1
          }
        }
      }
    }
  }
  value_info {
    name: "pkg.timm.0.9.7::timm_layers_norm_act_BatchNormAct2d_getattr_getattr_L__self___blocks___0_____0___bn1_1/unsqueeze_10"
    type {
      tensor_type {
        elem_type: 1
        shape {
          dim {
            dim_value: 32
          }
          dim {
            dim_value: 1
          }
        }
      }
    }
  }
  value_info {
    name: "pkg.timm.0.9.7::timm_layers_norm_act_BatchNormAct2d_getattr_getattr_L__self___blocks___0_____0___bn1_1/unsqueeze_11"
    type {
      tensor_type {
        elem_type: 1
        shape {
          dim {
            dim_value: 32
          }
          dim {
            dim_value: 1
          }
          dim {
            dim_value: 1
          }
        }
      }
    }
  }
  value_info {
    name: "pkg.timm.0.9.7::timm_layers_norm_act_BatchNormAct2d_getattr_getattr_L__self___blocks___0_____0___bn1_1/sub_1"
    type {
      tensor_type {
        elem_type: 1
        shape {
          dim {
            dim_value: 1
          }
          dim {
            dim_value: 32
          }
          dim {
            dim_value: 112
          }
          dim {
            dim_value: 112
          }
        }
      }
    }
  }
  value_info {
    name: "pkg.timm.0.9.7::timm_layers_norm_act_BatchNormAct2d_getattr_getattr_L__self___blocks___0_____0___bn1_1/mul_4"
    type {
      tensor_type {
        elem_type: 1
        shape {
          dim {
            dim_value: 1
          }
          dim {
            dim_value: 32
          }
          dim {
            dim_value: 112
          }
          dim {
            dim_value: 112
          }
        }
      }
    }
  }
  value_info {
    name: "pkg.timm.0.9.7::timm_layers_norm_act_BatchNormAct2d_getattr_getattr_L__self___blocks___0_____0___bn1_1/unsqueeze_12"
    type {
      tensor_type {
        elem_type: 1
        shape {
          dim {
            dim_value: 32
          }
          dim {
            dim_value: 1
          }
        }
      }
    }
  }
  value_info {
    name: "pkg.timm.0.9.7::timm_layers_norm_act_BatchNormAct2d_getattr_getattr_L__self___blocks___0_____0___bn1_1/unsqueeze_13"
    type {
      tensor_type {
        elem_type: 1
        shape {
          dim {
            dim_value: 32
          }
          dim {
            dim_value: 1
          }
          dim {
            dim_value: 1
          }
        }
      }
    }
  }
  value_info {
    name: "pkg.timm.0.9.7::timm_layers_norm_act_BatchNormAct2d_getattr_getattr_L__self___blocks___0_____0___bn1_1/mul_5"
    type {
      tensor_type {
        elem_type: 1
        shape {
          dim {
            dim_value: 1
          }
          dim {
            dim_value: 32
          }
          dim {
            dim_value: 112
          }
          dim {
            dim_value: 112
          }
        }
      }
    }
  }
  value_info {
    name: "pkg.timm.0.9.7::timm_layers_norm_act_BatchNormAct2d_getattr_getattr_L__self___blocks___0_____0___bn1_1/unsqueeze_14"
    type {
      tensor_type {
        elem_type: 1
        shape {
          dim {
            dim_value: 32
          }
          dim {
            dim_value: 1
          }
        }
      }
    }
  }
  value_info {
    name: "pkg.timm.0.9.7::timm_layers_norm_act_BatchNormAct2d_getattr_getattr_L__self___blocks___0_____0___bn1_1/unsqueeze_15"
    type {
      tensor_type {
        elem_type: 1
        shape {
          dim {
            dim_value: 32
          }
          dim {
            dim_value: 1
          }
          dim {
            dim_value: 1
          }
        }
      }
    }
  }
  value_info {
    name: "pkg.timm.0.9.7::timm_layers_norm_act_BatchNormAct2d_getattr_getattr_L__self___blocks___0_____0___bn1_1/add_3"
    type {
      tensor_type {
        elem_type: 1
        shape {
          dim {
            dim_value: 1
          }
          dim {
            dim_value: 32
          }
          dim {
            dim_value: 112
          }
          dim {
            dim_value: 112
          }
        }
      }
    }
  }
  value_info {
    name: "pkg.timm.0.9.7::timm_layers_norm_act_BatchNormAct2d_getattr_getattr_L__self___blocks___0_____0___bn1_1/getattr_getattr_l__self___blocks___0_____0___bn1_act_1"
    type {
      tensor_type {
        elem_type: 1
        shape {
          dim {
            dim_value: 1
          }
          dim {
            dim_value: 32
          }
          dim {
            dim_value: 112
          }
          dim {
            dim_value: 112
          }
        }
      }
    }
  }
  value_info {
    name: "pkg.torch.2.2.0a0+git63d65dd::torch_nn_modules_conv_Conv2d_getattr_getattr_L__self___blocks___0_____0___conv_pw_1/copy_1"
    type {
      tensor_type {
        elem_type: 1
        shape {
          dim {
            dim_value: 1
          }
          dim {
            dim_value: 32
          }
          dim {
            dim_value: 112
          }
          dim {
            dim_value: 112
          }
        }
      }
    }
  }
  value_info {
    name: "pkg.torch.2.2.0a0+git63d65dd::torch_nn_modules_conv_Conv2d_getattr_getattr_L__self___blocks___0_____0___conv_pw_1/convolution_2"
    type {
      tensor_type {
        elem_type: 1
        shape {
          dim {
            dim_value: 1
          }
          dim {
            dim_value: 16
          }
          dim {
            dim_value: 112
          }
          dim {
            dim_value: 112
          }
        }
      }
    }
  }
  value_info {
    name: "pkg.timm.0.9.7::timm_layers_norm_act_BatchNormAct2d_getattr_getattr_L__self___blocks___0_____0___bn2_1/convolution_2"
    type {
      tensor_type {
        elem_type: 1
        shape {
          dim {
            dim_value: 1
          }
          dim {
            dim_value: 16
          }
          dim {
            dim_value: 112
          }
          dim {
            dim_value: 112
          }
        }
      }
    }
  }
  value_info {
    name: "pkg.timm.0.9.7::timm_layers_norm_act_BatchNormAct2d_getattr_getattr_L__self___blocks___0_____0___bn2_1/convert_element_type_4"
    type {
      tensor_type {
        elem_type: 1
        shape {
          dim {
            dim_value: 16
          }
        }
      }
    }
  }
  value_info {
    name: "pkg.timm.0.9.7::timm_layers_norm_act_BatchNormAct2d_getattr_getattr_L__self___blocks___0_____0___bn2_1/convert_element_type_5"
    type {
      tensor_type {
        elem_type: 1
        shape {
          dim {
            dim_value: 16
          }
        }
      }
    }
  }
  value_info {
    name: "pkg.timm.0.9.7::timm_layers_norm_act_BatchNormAct2d_getattr_getattr_L__self___blocks___0_____0___bn2_1/add_4"
    type {
      tensor_type {
        elem_type: 1
        shape {
          dim {
            dim_value: 16
          }
        }
      }
    }
  }
  value_info {
    name: "pkg.timm.0.9.7::timm_layers_norm_act_BatchNormAct2d_getattr_getattr_L__self___blocks___0_____0___bn2_1/sqrt_2"
    type {
      tensor_type {
        elem_type: 1
        shape {
          dim {
            dim_value: 16
          }
        }
      }
    }
  }
  value_info {
    name: "pkg.timm.0.9.7::timm_layers_norm_act_BatchNormAct2d_getattr_getattr_L__self___blocks___0_____0___bn2_1/reciprocal_2"
    type {
      tensor_type {
        elem_type: 1
        shape {
          dim {
            dim_value: 16
          }
        }
      }
    }
  }
  value_info {
    name: "pkg.timm.0.9.7::timm_layers_norm_act_BatchNormAct2d_getattr_getattr_L__self___blocks___0_____0___bn2_1/scalar_tensor_default_2"
    type {
      tensor_type {
        elem_type: 1
        shape {
        }
      }
    }
  }
  value_info {
    name: "pkg.timm.0.9.7::timm_layers_norm_act_BatchNormAct2d_getattr_getattr_L__self___blocks___0_____0___bn2_1/mul_6"
    type {
      tensor_type {
        elem_type: 1
        shape {
          dim {
            dim_value: 16
          }
        }
      }
    }
  }
  value_info {
    name: "pkg.timm.0.9.7::timm_layers_norm_act_BatchNormAct2d_getattr_getattr_L__self___blocks___0_____0___bn2_1/unsqueeze_16"
    type {
      tensor_type {
        elem_type: 1
        shape {
          dim {
            dim_value: 16
          }
          dim {
            dim_value: 1
          }
        }
      }
    }
  }
  value_info {
    name: "pkg.timm.0.9.7::timm_layers_norm_act_BatchNormAct2d_getattr_getattr_L__self___blocks___0_____0___bn2_1/unsqueeze_17"
    type {
      tensor_type {
        elem_type: 1
        shape {
          dim {
            dim_value: 16
          }
          dim {
            dim_value: 1
          }
          dim {
            dim_value: 1
          }
        }
      }
    }
  }
  value_info {
    name: "pkg.timm.0.9.7::timm_layers_norm_act_BatchNormAct2d_getattr_getattr_L__self___blocks___0_____0___bn2_1/unsqueeze_18"
    type {
      tensor_type {
        elem_type: 1
        shape {
          dim {
            dim_value: 16
          }
          dim {
            dim_value: 1
          }
        }
      }
    }
  }
  value_info {
    name: "pkg.timm.0.9.7::timm_layers_norm_act_BatchNormAct2d_getattr_getattr_L__self___blocks___0_____0___bn2_1/unsqueeze_19"
    type {
      tensor_type {
        elem_type: 1
        shape {
          dim {
            dim_value: 16
          }
          dim {
            dim_value: 1
          }
          dim {
            dim_value: 1
          }
        }
      }
    }
  }
  value_info {
    name: "pkg.timm.0.9.7::timm_layers_norm_act_BatchNormAct2d_getattr_getattr_L__self___blocks___0_____0___bn2_1/sub_2"
    type {
      tensor_type {
        elem_type: 1
        shape {
          dim {
            dim_value: 1
          }
          dim {
            dim_value: 16
          }
          dim {
            dim_value: 112
          }
          dim {
            dim_value: 112
          }
        }
      }
    }
  }
  value_info {
    name: "pkg.timm.0.9.7::timm_layers_norm_act_BatchNormAct2d_getattr_getattr_L__self___blocks___0_____0___bn2_1/mul_7"
    type {
      tensor_type {
        elem_type: 1
        shape {
          dim {
            dim_value: 1
          }
          dim {
            dim_value: 16
          }
          dim {
            dim_value: 112
          }
          dim {
            dim_value: 112
          }
        }
      }
    }
  }
  value_info {
    name: "pkg.timm.0.9.7::timm_layers_norm_act_BatchNormAct2d_getattr_getattr_L__self___blocks___0_____0___bn2_1/unsqueeze_20"
    type {
      tensor_type {
        elem_type: 1
        shape {
          dim {
            dim_value: 16
          }
          dim {
            dim_value: 1
          }
        }
      }
    }
  }
  value_info {
    name: "pkg.timm.0.9.7::timm_layers_norm_act_BatchNormAct2d_getattr_getattr_L__self___blocks___0_____0___bn2_1/unsqueeze_21"
    type {
      tensor_type {
        elem_type: 1
        shape {
          dim {
            dim_value: 16
          }
          dim {
            dim_value: 1
          }
          dim {
            dim_value: 1
          }
        }
      }
    }
  }
  value_info {
    name: "pkg.timm.0.9.7::timm_layers_norm_act_BatchNormAct2d_getattr_getattr_L__self___blocks___0_____0___bn2_1/mul_8"
    type {
      tensor_type {
        elem_type: 1
        shape {
          dim {
            dim_value: 1
          }
          dim {
            dim_value: 16
          }
          dim {
            dim_value: 112
          }
          dim {
            dim_value: 112
          }
        }
      }
    }
  }
  value_info {
    name: "pkg.timm.0.9.7::timm_layers_norm_act_BatchNormAct2d_getattr_getattr_L__self___blocks___0_____0___bn2_1/unsqueeze_22"
    type {
      tensor_type {
        elem_type: 1
        shape {
          dim {
            dim_value: 16
          }
          dim {
            dim_value: 1
          }
        }
      }
    }
  }
  value_info {
    name: "pkg.timm.0.9.7::timm_layers_norm_act_BatchNormAct2d_getattr_getattr_L__self___blocks___0_____0___bn2_1/unsqueeze_23"
    type {
      tensor_type {
        elem_type: 1
        shape {
          dim {
            dim_value: 16
          }
          dim {
            dim_value: 1
          }
          dim {
            dim_value: 1
          }
        }
      }
    }
  }
  value_info {
    name: "pkg.timm.0.9.7::timm_layers_norm_act_BatchNormAct2d_getattr_getattr_L__self___blocks___0_____0___bn2_1/add_5"
    type {
      tensor_type {
        elem_type: 1
        shape {
          dim {
            dim_value: 1
          }
          dim {
            dim_value: 16
          }
          dim {
            dim_value: 112
          }
          dim {
            dim_value: 112
          }
        }
      }
    }
  }
  value_info {
    name: "pkg.timm.0.9.7::timm_models__efficientnet_blocks_DepthwiseSeparableConv_blocks_0_0_1/copy"
    type {
      tensor_type {
        elem_type: 1
        shape {
          dim {
            dim_value: 1
          }
          dim {
            dim_value: 32
          }
          dim {
            dim_value: 112
          }
          dim {
            dim_value: 112
          }
        }
      }
    }
  }
  value_info {
    name: "pkg.timm.0.9.7::timm_models__efficientnet_blocks_DepthwiseSeparableConv_blocks_0_0_1/getattr_getattr_l__self___blocks___0_____0___conv_dw_1"
    type {
      tensor_type {
        elem_type: 1
        shape {
          dim {
            dim_value: 1
          }
          dim {
            dim_value: 32
          }
          dim {
            dim_value: 112
          }
          dim {
            dim_value: 112
          }
        }
      }
    }
  }
  value_info {
    name: "pkg.timm.0.9.7::timm_models__efficientnet_blocks_DepthwiseSeparableConv_blocks_0_0_1/getattr_getattr_l__self___blocks___0_____0___bn1_1"
    type {
      tensor_type {
        elem_type: 1
        shape {
          dim {
            dim_value: 1
          }
          dim {
            dim_value: 32
          }
          dim {
            dim_value: 112
          }
          dim {
            dim_value: 112
          }
        }
      }
    }
  }
  value_info {
    name: "pkg.timm.0.9.7::timm_models__efficientnet_blocks_DepthwiseSeparableConv_blocks_0_0_1/getattr_getattr_l__self___blocks___0_____0___conv_pw_1"
    type {
      tensor_type {
        elem_type: 1
        shape {
          dim {
            dim_value: 1
          }
          dim {
            dim_value: 16
          }
          dim {
            dim_value: 112
          }
          dim {
            dim_value: 112
          }
        }
      }
    }
  }
  value_info {
    name: "pkg.timm.0.9.7::timm_models__efficientnet_blocks_DepthwiseSeparableConv_blocks_0_0_1/getattr_getattr_l__self___blocks___0_____0___bn2_1"
    type {
      tensor_type {
        elem_type: 1
        shape {
          dim {
            dim_value: 1
          }
          dim {
            dim_value: 16
          }
          dim {
            dim_value: 112
          }
          dim {
            dim_value: 112
          }
        }
      }
    }
  }
  value_info {
    name: "pkg.torch.2.2.0a0+git63d65dd::torch_nn_modules_container_Sequential_blocks_0_1/copy"
    type {
      tensor_type {
        elem_type: 1
        shape {
          dim {
            dim_value: 1
          }
          dim {
            dim_value: 32
          }
          dim {
            dim_value: 112
          }
          dim {
            dim_value: 112
          }
        }
      }
    }
  }
  value_info {
    name: "pkg.torch.2.2.0a0+git63d65dd::torch_nn_modules_container_Sequential_blocks_0_1/blocks_0_0_1"
    type {
      tensor_type {
        elem_type: 1
        shape {
          dim {
            dim_value: 1
          }
          dim {
            dim_value: 16
          }
          dim {
            dim_value: 112
          }
          dim {
            dim_value: 112
          }
        }
      }
    }
  }
  value_info {
    name: "pkg.torch.2.2.0a0+git63d65dd::torch_nn_modules_conv_Conv2d_getattr_getattr_L__self___blocks___1_____0___conv_pw_1/add_5"
    type {
      tensor_type {
        elem_type: 1
        shape {
          dim {
            dim_value: 1
          }
          dim {
            dim_value: 16
          }
          dim {
            dim_value: 112
          }
          dim {
            dim_value: 112
          }
        }
      }
    }
  }
  value_info {
    name: "pkg.torch.2.2.0a0+git63d65dd::torch_nn_modules_conv_Conv2d_getattr_getattr_L__self___blocks___1_____0___conv_pw_1/convolution_3"
    type {
      tensor_type {
        elem_type: 1
        shape {
          dim {
            dim_value: 1
          }
          dim {
            dim_value: 96
          }
          dim {
            dim_value: 112
          }
          dim {
            dim_value: 112
          }
        }
      }
    }
  }
  value_info {
    name: "pkg.torch.2.2.0a0+git63d65dd::torch_nn_modules_activation_ReLU6_getattr_getattr_L__self___blocks___1_____0___bn1_act_1/add_7"
    type {
      tensor_type {
        elem_type: 1
        shape {
          dim {
            dim_value: 1
          }
          dim {
            dim_value: 96
          }
          dim {
            dim_value: 112
          }
          dim {
            dim_value: 112
          }
        }
      }
    }
  }
  value_info {
    name: "pkg.torch.2.2.0a0+git63d65dd::torch_nn_modules_activation_ReLU6_getattr_getattr_L__self___blocks___1_____0___bn1_act_1/hardtanh_2"
    type {
      tensor_type {
        elem_type: 1
        shape {
          dim {
            dim_value: 1
          }
          dim {
            dim_value: 96
          }
          dim {
            dim_value: 112
          }
          dim {
            dim_value: 112
          }
        }
      }
    }
  }
  value_info {
    name: "pkg.torch.2.2.0a0+git63d65dd::torch_nn_modules_activation_ReLU6_getattr_getattr_L__self___blocks___1_____0___bn1_act_1/copy_2"
    type {
      tensor_type {
        elem_type: 1
        shape {
          dim {
            dim_value: 1
          }
          dim {
            dim_value: 96
          }
          dim {
            dim_value: 112
          }
          dim {
            dim_value: 112
          }
        }
      }
    }
  }
  value_info {
    name: "pkg.timm.0.9.7::timm_layers_norm_act_BatchNormAct2d_getattr_getattr_L__self___blocks___1_____0___bn1_1/convolution_3"
    type {
      tensor_type {
        elem_type: 1
        shape {
          dim {
            dim_value: 1
          }
          dim {
            dim_value: 96
          }
          dim {
            dim_value: 112
          }
          dim {
            dim_value: 112
          }
        }
      }
    }
  }
  value_info {
    name: "pkg.timm.0.9.7::timm_layers_norm_act_BatchNormAct2d_getattr_getattr_L__self___blocks___1_____0___bn1_1/convert_element_type_6"
    type {
      tensor_type {
        elem_type: 1
        shape {
          dim {
            dim_value: 96
          }
        }
      }
    }
  }
  value_info {
    name: "pkg.timm.0.9.7::timm_layers_norm_act_BatchNormAct2d_getattr_getattr_L__self___blocks___1_____0___bn1_1/convert_element_type_7"
    type {
      tensor_type {
        elem_type: 1
        shape {
          dim {
            dim_value: 96
          }
        }
      }
    }
  }
  value_info {
    name: "pkg.timm.0.9.7::timm_layers_norm_act_BatchNormAct2d_getattr_getattr_L__self___blocks___1_____0___bn1_1/add_6"
    type {
      tensor_type {
        elem_type: 1
        shape {
          dim {
            dim_value: 96
          }
        }
      }
    }
  }
  value_info {
    name: "pkg.timm.0.9.7::timm_layers_norm_act_BatchNormAct2d_getattr_getattr_L__self___blocks___1_____0___bn1_1/sqrt_3"
    type {
      tensor_type {
        elem_type: 1
        shape {
          dim {
            dim_value: 96
          }
        }
      }
    }
  }
  value_info {
    name: "pkg.timm.0.9.7::timm_layers_norm_act_BatchNormAct2d_getattr_getattr_L__self___blocks___1_____0___bn1_1/reciprocal_3"
    type {
      tensor_type {
        elem_type: 1
        shape {
          dim {
            dim_value: 96
          }
        }
      }
    }
  }
  value_info {
    name: "pkg.timm.0.9.7::timm_layers_norm_act_BatchNormAct2d_getattr_getattr_L__self___blocks___1_____0___bn1_1/scalar_tensor_default_3"
    type {
      tensor_type {
        elem_type: 1
        shape {
        }
      }
    }
  }
  value_info {
    name: "pkg.timm.0.9.7::timm_layers_norm_act_BatchNormAct2d_getattr_getattr_L__self___blocks___1_____0___bn1_1/mul_9"
    type {
      tensor_type {
        elem_type: 1
        shape {
          dim {
            dim_value: 96
          }
        }
      }
    }
  }
  value_info {
    name: "pkg.timm.0.9.7::timm_layers_norm_act_BatchNormAct2d_getattr_getattr_L__self___blocks___1_____0___bn1_1/unsqueeze_24"
    type {
      tensor_type {
        elem_type: 1
        shape {
          dim {
            dim_value: 96
          }
          dim {
            dim_value: 1
          }
        }
      }
    }
  }
  value_info {
    name: "pkg.timm.0.9.7::timm_layers_norm_act_BatchNormAct2d_getattr_getattr_L__self___blocks___1_____0___bn1_1/unsqueeze_25"
    type {
      tensor_type {
        elem_type: 1
        shape {
          dim {
            dim_value: 96
          }
          dim {
            dim_value: 1
          }
          dim {
            dim_value: 1
          }
        }
      }
    }
  }
  value_info {
    name: "pkg.timm.0.9.7::timm_layers_norm_act_BatchNormAct2d_getattr_getattr_L__self___blocks___1_____0___bn1_1/unsqueeze_26"
    type {
      tensor_type {
        elem_type: 1
        shape {
          dim {
            dim_value: 96
          }
          dim {
            dim_value: 1
          }
        }
      }
    }
  }
  value_info {
    name: "pkg.timm.0.9.7::timm_layers_norm_act_BatchNormAct2d_getattr_getattr_L__self___blocks___1_____0___bn1_1/unsqueeze_27"
    type {
      tensor_type {
        elem_type: 1
        shape {
          dim {
            dim_value: 96
          }
          dim {
            dim_value: 1
          }
          dim {
            dim_value: 1
          }
        }
      }
    }
  }
  value_info {
    name: "pkg.timm.0.9.7::timm_layers_norm_act_BatchNormAct2d_getattr_getattr_L__self___blocks___1_____0___bn1_1/sub_3"
    type {
      tensor_type {
        elem_type: 1
        shape {
          dim {
            dim_value: 1
          }
          dim {
            dim_value: 96
          }
          dim {
            dim_value: 112
          }
          dim {
            dim_value: 112
          }
        }
      }
    }
  }
  value_info {
    name: "pkg.timm.0.9.7::timm_layers_norm_act_BatchNormAct2d_getattr_getattr_L__self___blocks___1_____0___bn1_1/mul_10"
    type {
      tensor_type {
        elem_type: 1
        shape {
          dim {
            dim_value: 1
          }
          dim {
            dim_value: 96
          }
          dim {
            dim_value: 112
          }
          dim {
            dim_value: 112
          }
        }
      }
    }
  }
  value_info {
    name: "pkg.timm.0.9.7::timm_layers_norm_act_BatchNormAct2d_getattr_getattr_L__self___blocks___1_____0___bn1_1/unsqueeze_28"
    type {
      tensor_type {
        elem_type: 1
        shape {
          dim {
            dim_value: 96
          }
          dim {
            dim_value: 1
          }
        }
      }
    }
  }
  value_info {
    name: "pkg.timm.0.9.7::timm_layers_norm_act_BatchNormAct2d_getattr_getattr_L__self___blocks___1_____0___bn1_1/unsqueeze_29"
    type {
      tensor_type {
        elem_type: 1
        shape {
          dim {
            dim_value: 96
          }
          dim {
            dim_value: 1
          }
          dim {
            dim_value: 1
          }
        }
      }
    }
  }
  value_info {
    name: "pkg.timm.0.9.7::timm_layers_norm_act_BatchNormAct2d_getattr_getattr_L__self___blocks___1_____0___bn1_1/mul_11"
    type {
      tensor_type {
        elem_type: 1
        shape {
          dim {
            dim_value: 1
          }
          dim {
            dim_value: 96
          }
          dim {
            dim_value: 112
          }
          dim {
            dim_value: 112
          }
        }
      }
    }
  }
  value_info {
    name: "pkg.timm.0.9.7::timm_layers_norm_act_BatchNormAct2d_getattr_getattr_L__self___blocks___1_____0___bn1_1/unsqueeze_30"
    type {
      tensor_type {
        elem_type: 1
        shape {
          dim {
            dim_value: 96
          }
          dim {
            dim_value: 1
          }
        }
      }
    }
  }
  value_info {
    name: "pkg.timm.0.9.7::timm_layers_norm_act_BatchNormAct2d_getattr_getattr_L__self___blocks___1_____0___bn1_1/unsqueeze_31"
    type {
      tensor_type {
        elem_type: 1
        shape {
          dim {
            dim_value: 96
          }
          dim {
            dim_value: 1
          }
          dim {
            dim_value: 1
          }
        }
      }
    }
  }
  value_info {
    name: "pkg.timm.0.9.7::timm_layers_norm_act_BatchNormAct2d_getattr_getattr_L__self___blocks___1_____0___bn1_1/add_7"
    type {
      tensor_type {
        elem_type: 1
        shape {
          dim {
            dim_value: 1
          }
          dim {
            dim_value: 96
          }
          dim {
            dim_value: 112
          }
          dim {
            dim_value: 112
          }
        }
      }
    }
  }
  value_info {
    name: "pkg.timm.0.9.7::timm_layers_norm_act_BatchNormAct2d_getattr_getattr_L__self___blocks___1_____0___bn1_1/getattr_getattr_l__self___blocks___1_____0___bn1_act_1"
    type {
      tensor_type {
        elem_type: 1
        shape {
          dim {
            dim_value: 1
          }
          dim {
            dim_value: 96
          }
          dim {
            dim_value: 112
          }
          dim {
            dim_value: 112
          }
        }
      }
    }
  }
  value_info {
    name: "pkg.torch.2.2.0a0+git63d65dd::torch_nn_modules_conv_Conv2d_getattr_getattr_L__self___blocks___1_____0___conv_dw_1/copy_2"
    type {
      tensor_type {
        elem_type: 1
        shape {
          dim {
            dim_value: 1
          }
          dim {
            dim_value: 96
          }
          dim {
            dim_value: 112
          }
          dim {
            dim_value: 112
          }
        }
      }
    }
  }
  value_info {
    name: "pkg.torch.2.2.0a0+git63d65dd::torch_nn_modules_conv_Conv2d_getattr_getattr_L__self___blocks___1_____0___conv_dw_1/convolution_4"
    type {
      tensor_type {
        elem_type: 1
        shape {
          dim {
            dim_value: 1
          }
          dim {
            dim_value: 96
          }
          dim {
            dim_value: 56
          }
          dim {
            dim_value: 56
          }
        }
      }
    }
  }
  value_info {
    name: "pkg.torch.2.2.0a0+git63d65dd::torch_nn_modules_activation_ReLU6_getattr_getattr_L__self___blocks___1_____0___bn2_act_1/add_9"
    type {
      tensor_type {
        elem_type: 1
        shape {
          dim {
            dim_value: 1
          }
          dim {
            dim_value: 96
          }
          dim {
            dim_value: 56
          }
          dim {
            dim_value: 56
          }
        }
      }
    }
  }
  value_info {
    name: "pkg.torch.2.2.0a0+git63d65dd::torch_nn_modules_activation_ReLU6_getattr_getattr_L__self___blocks___1_____0___bn2_act_1/hardtanh_3"
    type {
      tensor_type {
        elem_type: 1
        shape {
          dim {
            dim_value: 1
          }
          dim {
            dim_value: 96
          }
          dim {
            dim_value: 56
          }
          dim {
            dim_value: 56
          }
        }
      }
    }
  }
  value_info {
    name: "pkg.torch.2.2.0a0+git63d65dd::torch_nn_modules_activation_ReLU6_getattr_getattr_L__self___blocks___1_____0___bn2_act_1/copy_3"
    type {
      tensor_type {
        elem_type: 1
        shape {
          dim {
            dim_value: 1
          }
          dim {
            dim_value: 96
          }
          dim {
            dim_value: 56
          }
          dim {
            dim_value: 56
          }
        }
      }
    }
  }
  value_info {
    name: "pkg.timm.0.9.7::timm_layers_norm_act_BatchNormAct2d_getattr_getattr_L__self___blocks___1_____0___bn2_1/convolution_4"
    type {
      tensor_type {
        elem_type: 1
        shape {
          dim {
            dim_value: 1
          }
          dim {
            dim_value: 96
          }
          dim {
            dim_value: 56
          }
          dim {
            dim_value: 56
          }
        }
      }
    }
  }
  value_info {
    name: "pkg.timm.0.9.7::timm_layers_norm_act_BatchNormAct2d_getattr_getattr_L__self___blocks___1_____0___bn2_1/convert_element_type_8"
    type {
      tensor_type {
        elem_type: 1
        shape {
          dim {
            dim_value: 96
          }
        }
      }
    }
  }
  value_info {
    name: "pkg.timm.0.9.7::timm_layers_norm_act_BatchNormAct2d_getattr_getattr_L__self___blocks___1_____0___bn2_1/convert_element_type_9"
    type {
      tensor_type {
        elem_type: 1
        shape {
          dim {
            dim_value: 96
          }
        }
      }
    }
  }
  value_info {
    name: "pkg.timm.0.9.7::timm_layers_norm_act_BatchNormAct2d_getattr_getattr_L__self___blocks___1_____0___bn2_1/add_8"
    type {
      tensor_type {
        elem_type: 1
        shape {
          dim {
            dim_value: 96
          }
        }
      }
    }
  }
  value_info {
    name: "pkg.timm.0.9.7::timm_layers_norm_act_BatchNormAct2d_getattr_getattr_L__self___blocks___1_____0___bn2_1/sqrt_4"
    type {
      tensor_type {
        elem_type: 1
        shape {
          dim {
            dim_value: 96
          }
        }
      }
    }
  }
  value_info {
    name: "pkg.timm.0.9.7::timm_layers_norm_act_BatchNormAct2d_getattr_getattr_L__self___blocks___1_____0___bn2_1/reciprocal_4"
    type {
      tensor_type {
        elem_type: 1
        shape {
          dim {
            dim_value: 96
          }
        }
      }
    }
  }
  value_info {
    name: "pkg.timm.0.9.7::timm_layers_norm_act_BatchNormAct2d_getattr_getattr_L__self___blocks___1_____0___bn2_1/scalar_tensor_default_4"
    type {
      tensor_type {
        elem_type: 1
        shape {
        }
      }
    }
  }
  value_info {
    name: "pkg.timm.0.9.7::timm_layers_norm_act_BatchNormAct2d_getattr_getattr_L__self___blocks___1_____0___bn2_1/mul_12"
    type {
      tensor_type {
        elem_type: 1
        shape {
          dim {
            dim_value: 96
          }
        }
      }
    }
  }
  value_info {
    name: "pkg.timm.0.9.7::timm_layers_norm_act_BatchNormAct2d_getattr_getattr_L__self___blocks___1_____0___bn2_1/unsqueeze_32"
    type {
      tensor_type {
        elem_type: 1
        shape {
          dim {
            dim_value: 96
          }
          dim {
            dim_value: 1
          }
        }
      }
    }
  }
  value_info {
    name: "pkg.timm.0.9.7::timm_layers_norm_act_BatchNormAct2d_getattr_getattr_L__self___blocks___1_____0___bn2_1/unsqueeze_33"
    type {
…
  output: "add_111"
  node {
    input: "blocks.6.0.bn3.running_mean"
    output: "convert_element_type_100"
    name: "prims_convert_element_type_2"
    op_type: "prims_convert_element_type"
    attribute {
      name: "dtype"
      i: 1
      type: INT
    }
    domain: "pkg.onnxscript.torch_lib"
  }
  node {
    input: "blocks.6.0.bn3.running_var"
    output: "convert_element_type_101"
    name: "prims_convert_element_type_3"
    op_type: "prims_convert_element_type"
    attribute {
      name: "dtype"
      i: 1
      type: INT
    }
    domain: "pkg.onnxscript.torch_lib"
  }
  node {
    output: "_val_5"
    name: "Constant_4"
    op_type: "Constant"
    attribute {
      name: "value"
      t {
        data_type: 1
        raw_data: "\254\305\'7"
      }
      type: TENSOR
    }
  }
  node {
    input: "convert_element_type_101"
    input: "_val_5"
    output: "add_110"
    name: "aten_add_5"
    op_type: "aten_add"
    attribute {
      name: "alpha"
      f: 1.0
      type: FLOAT
    }
    domain: "pkg.onnxscript.torch_lib"
  }
  node {
    input: "add_110"
    output: "sqrt_50"
    name: "aten_sqrt_6"
    op_type: "aten_sqrt"
    domain: "pkg.onnxscript.torch_lib"
  }
  node {
    input: "sqrt_50"
    output: "reciprocal_50"
    name: "aten_reciprocal_7"
    op_type: "aten_reciprocal"
    domain: "pkg.onnxscript.torch_lib"
  }
  node {
    output: "_val_9"
    name: "Constant_8"
    op_type: "Constant"
    attribute {
      name: "value"
      t {
        data_type: 7
        raw_data: "\001\000\000\000\000\000\000\000"
      }
      type: TENSOR
    }
  }
  node {
    input: "_val_9"
    output: "scalar_tensor_default_50"
    name: "aten_scalar_tensor_sym_number_9"
    op_type: "aten_scalar_tensor_sym_number"
    attribute {
      name: "dtype"
      i: 1
      type: INT
    }
    domain: "pkg.onnxscript.torch_lib"
  }
  node {
    input: "reciprocal_50"
    input: "scalar_tensor_default_50"
    output: "mul_150"
    name: "aten_mul_10"
    op_type: "aten_mul"
    domain: "pkg.onnxscript.torch_lib"
  }
  node {
    input: "convert_element_type_100"
    output: "unsqueeze_400"
    name: "aten_unsqueeze_11"
    op_type: "aten_unsqueeze"
    attribute {
      name: "dim"
      i: -1
      type: INT
    }
    domain: "pkg.onnxscript.torch_lib"
  }
  node {
    input: "unsqueeze_400"
    output: "unsqueeze_401"
    name: "aten_unsqueeze_12"
    op_type: "aten_unsqueeze"
    attribute {
      name: "dim"
      i: -1
      type: INT
    }
    domain: "pkg.onnxscript.torch_lib"
  }
  node {
    input: "mul_150"
    output: "unsqueeze_402"
    name: "aten_unsqueeze_13"
    op_type: "aten_unsqueeze"
    attribute {
      name: "dim"
      i: -1
      type: INT
    }
    domain: "pkg.onnxscript.torch_lib"
  }
  node {
    input: "unsqueeze_402"
    output: "unsqueeze_403"
    name: "aten_unsqueeze_14"
    op_type: "aten_unsqueeze"
    attribute {
      name: "dim"
      i: -1
      type: INT
    }
    domain: "pkg.onnxscript.torch_lib"
  }
  node {
    input: "convolution_50"
    input: "unsqueeze_401"
    output: "sub_50"
    name: "aten_sub_15"
    op_type: "aten_sub"
    attribute {
      name: "alpha"
      f: 1.0
      type: FLOAT
    }
    domain: "pkg.onnxscript.torch_lib"
  }
  node {
    input: "sub_50"
    input: "unsqueeze_403"
    output: "mul_151"
    name: "aten_mul_16"
    op_type: "aten_mul"
    domain: "pkg.onnxscript.torch_lib"
  }
  node {
    input: "blocks.6.0.bn3.weight"
    output: "unsqueeze_404"
    name: "aten_unsqueeze_17"
    op_type: "aten_unsqueeze"
    attribute {
      name: "dim"
      i: -1
      type: INT
    }
    domain: "pkg.onnxscript.torch_lib"
  }
  node {
    input: "unsqueeze_404"
    output: "unsqueeze_405"
    name: "aten_unsqueeze_18"
    op_type: "aten_unsqueeze"
    attribute {
      name: "dim"
      i: -1
      type: INT
    }
    domain: "pkg.onnxscript.torch_lib"
  }
  node {
    input: "mul_151"
    input: "unsqueeze_405"
    output: "mul_152"
    name: "aten_mul_19"
    op_type: "aten_mul"
    domain: "pkg.onnxscript.torch_lib"
  }
  node {
    input: "blocks.6.0.bn3.bias"
    output: "unsqueeze_406"
    name: "aten_unsqueeze_20"
    op_type: "aten_unsqueeze"
    attribute {
      name: "dim"
      i: -1
      type: INT
    }
    domain: "pkg.onnxscript.torch_lib"
  }
  node {
    input: "unsqueeze_406"
    output: "unsqueeze_407"
    name: "aten_unsqueeze_21"
    op_type: "aten_unsqueeze"
    attribute {
      name: "dim"
      i: -1
      type: INT
    }
    domain: "pkg.onnxscript.torch_lib"
  }
  node {
    input: "mul_152"
    input: "unsqueeze_407"
    output: "add_111"
    name: "aten_add_22"
    op_type: "aten_add"
    attribute {
      name: "alpha"
      f: 1.0
      type: FLOAT
    }
    domain: "pkg.onnxscript.torch_lib"
  }
  opset_import {
    domain: ""
    version: 18
  }
  opset_import {
    domain: "pkg.onnxscript.torch_lib"
    version: 1
  }
  domain: "pkg.timm.0.9.7"
}
functions {
  name: "timm_models__efficientnet_blocks_InvertedResidual_blocks_6_0_1"
  input: "add_105"
  input: "blocks.6.0.conv_pw.weight"
  input: "blocks.6.0.bn1.running_mean"
  input: "blocks.6.0.bn1.running_var"
  input: "blocks.6.0.bn1.weight"
  input: "blocks.6.0.bn1.bias"
  input: "blocks.6.0.conv_dw.weight"
  input: "blocks.6.0.bn2.running_mean"
  input: "blocks.6.0.bn2.running_var"
  input: "blocks.6.0.bn2.weight"
  input: "blocks.6.0.bn2.bias"
  input: "blocks.6.0.conv_pwl.weight"
  input: "blocks.6.0.bn3.running_mean"
  input: "blocks.6.0.bn3.running_var"
  input: "blocks.6.0.bn3.weight"
  input: "blocks.6.0.bn3.bias"
  output: "getattr_getattr_l__self___blocks___6_____0___bn3_1"
  node {
    input: "add_105"
    input: "blocks.6.0.conv_pw.weight"
    output: "getattr_getattr_l__self___blocks___6_____0___conv_pw_1"
    name: "torch_nn_modules_conv_Conv2d_getattr_getattr_L__self___blocks___6_____0___conv_pw_1_0"
    op_type: "torch_nn_modules_conv_Conv2d_getattr_getattr_L__self___blocks___6_____0___conv_pw_1"
    domain: "pkg.torch.2.2.0a0+git63d65dd"
  }
  node {
    input: "getattr_getattr_l__self___blocks___6_____0___conv_pw_1"
    input: "blocks.6.0.bn1.running_mean"
    input: "blocks.6.0.bn1.running_var"
    input: "blocks.6.0.bn1.weight"
    input: "blocks.6.0.bn1.bias"
    output: "getattr_getattr_l__self___blocks___6_____0___bn1_1"
    name: "timm_layers_norm_act_BatchNormAct2d_getattr_getattr_L__self___blocks___6_____0___bn1_1_1"
    op_type: "timm_layers_norm_act_BatchNormAct2d_getattr_getattr_L__self___blocks___6_____0___bn1_1"
    domain: "pkg.timm.0.9.7"
  }
  node {
    input: "getattr_getattr_l__self___blocks___6_____0___bn1_1"
    input: "blocks.6.0.conv_dw.weight"
    output: "getattr_getattr_l__self___blocks___6_____0___conv_dw_1"
    name: "torch_nn_modules_conv_Conv2d_getattr_getattr_L__self___blocks___6_____0___conv_dw_1_2"
    op_type: "torch_nn_modules_conv_Conv2d_getattr_getattr_L__self___blocks___6_____0___conv_dw_1"
    domain: "pkg.torch.2.2.0a0+git63d65dd"
  }
  node {
    input: "getattr_getattr_l__self___blocks___6_____0___conv_dw_1"
    input: "blocks.6.0.bn2.running_mean"
    input: "blocks.6.0.bn2.running_var"
    input: "blocks.6.0.bn2.weight"
    input: "blocks.6.0.bn2.bias"
    output: "getattr_getattr_l__self___blocks___6_____0___bn2_1"
    name: "timm_layers_norm_act_BatchNormAct2d_getattr_getattr_L__self___blocks___6_____0___bn2_1_3"
    op_type: "timm_layers_norm_act_BatchNormAct2d_getattr_getattr_L__self___blocks___6_____0___bn2_1"
    domain: "pkg.timm.0.9.7"
  }
  node {
    input: "getattr_getattr_l__self___blocks___6_____0___bn2_1"
    input: "blocks.6.0.conv_pwl.weight"
    output: "getattr_getattr_l__self___blocks___6_____0___conv_pwl_1"
    name: "torch_nn_modules_conv_Conv2d_getattr_getattr_L__self___blocks___6_____0___conv_pwl_1_4"
    op_type: "torch_nn_modules_conv_Conv2d_getattr_getattr_L__self___blocks___6_____0___conv_pwl_1"
    domain: "pkg.torch.2.2.0a0+git63d65dd"
  }
  node {
    input: "getattr_getattr_l__self___blocks___6_____0___conv_pwl_1"
    input: "blocks.6.0.bn3.running_mean"
    input: "blocks.6.0.bn3.running_var"
    input: "blocks.6.0.bn3.weight"
    input: "blocks.6.0.bn3.bias"
    output: "getattr_getattr_l__self___blocks___6_____0___bn3_1"
    name: "timm_layers_norm_act_BatchNormAct2d_getattr_getattr_L__self___blocks___6_____0___bn3_1_5"
    op_type: "timm_layers_norm_act_BatchNormAct2d_getattr_getattr_L__self___blocks___6_____0___bn3_1"
    domain: "pkg.timm.0.9.7"
  }
  opset_import {
    domain: ""
    version: 18
  }
  opset_import {
    domain: "pkg.timm.0.9.7"
    version: 1
  }
  opset_import {
    domain: "pkg.torch.2.2.0a0+git63d65dd"
    version: 1
  }
  domain: "pkg.timm.0.9.7"
}
functions {
  name: "torch_nn_modules_container_Sequential_blocks_6_1"
  input: "add_105"
  input: "blocks.6.0.conv_pw.weight"
  input: "blocks.6.0.bn1.running_mean"
  input: "blocks.6.0.bn1.running_var"
  input: "blocks.6.0.bn1.weight"
  input: "blocks.6.0.bn1.bias"
  input: "blocks.6.0.conv_dw.weight"
  input: "blocks.6.0.bn2.running_mean"
  input: "blocks.6.0.bn2.running_var"
  input: "blocks.6.0.bn2.weight"
  input: "blocks.6.0.bn2.bias"
  input: "blocks.6.0.conv_pwl.weight"
  input: "blocks.6.0.bn3.running_mean"
  input: "blocks.6.0.bn3.running_var"
  input: "blocks.6.0.bn3.weight"
  input: "blocks.6.0.bn3.bias"
  output: "blocks_6_0_1"
  node {
    input: "add_105"
    input: "blocks.6.0.conv_pw.weight"
    input: "blocks.6.0.bn1.running_mean"
    input: "blocks.6.0.bn1.running_var"
    input: "blocks.6.0.bn1.weight"
    input: "blocks.6.0.bn1.bias"
    input: "blocks.6.0.conv_dw.weight"
    input: "blocks.6.0.bn2.running_mean"
    input: "blocks.6.0.bn2.running_var"
    input: "blocks.6.0.bn2.weight"
    input: "blocks.6.0.bn2.bias"
    input: "blocks.6.0.conv_pwl.weight"
    input: "blocks.6.0.bn3.running_mean"
    input: "blocks.6.0.bn3.running_var"
    input: "blocks.6.0.bn3.weight"
    input: "blocks.6.0.bn3.bias"
    output: "blocks_6_0_1"
    name: "timm_models__efficientnet_blocks_InvertedResidual_blocks_6_0_1_0"
    op_type: "timm_models__efficientnet_blocks_InvertedResidual_blocks_6_0_1"
    domain: "pkg.timm.0.9.7"
  }
  opset_import {
    domain: ""
    version: 18
  }
  opset_import {
    domain: "pkg.timm.0.9.7"
    version: 1
  }
  domain: "pkg.torch.2.2.0a0+git63d65dd"
}
functions {
  name: "torch_nn_modules_container_Sequential_blocks_1"
  input: "copy"
  input: "blocks.0.0.conv_dw.weight"
  input: "blocks.0.0.bn1.running_mean"
  input: "blocks.0.0.bn1.running_var"
  input: "blocks.0.0.bn1.weight"
  input: "blocks.0.0.bn1.bias"
  input: "blocks.0.0.conv_pw.weight"
  input: "blocks.0.0.bn2.running_mean"
  input: "blocks.0.0.bn2.running_var"
  input: "blocks.0.0.bn2.weight"
  input: "blocks.0.0.bn2.bias"
  input: "blocks.1.0.conv_pw.weight"
  input: "blocks.1.0.bn1.running_mean"
  input: "blocks.1.0.bn1.running_var"
  input: "blocks.1.0.bn1.weight"
  input: "blocks.1.0.bn1.bias"
  input: "blocks.1.0.conv_dw.weight"
  input: "blocks.1.0.bn2.running_mean"
  input: "blocks.1.0.bn2.running_var"
  input: "blocks.1.0.bn2.weight"
  input: "blocks.1.0.bn2.bias"
  input: "blocks.1.0.conv_pwl.weight"
  input: "blocks.1.0.bn3.running_mean"
  input: "blocks.1.0.bn3.running_var"
  input: "blocks.1.0.bn3.weight"
  input: "blocks.1.0.bn3.bias"
  input: "blocks.1.1.conv_pw.weight"
  input: "blocks.1.1.bn1.running_mean"
  input: "blocks.1.1.bn1.running_var"
  input: "blocks.1.1.bn1.weight"
  input: "blocks.1.1.bn1.bias"
  input: "blocks.1.1.conv_dw.weight"
  input: "blocks.1.1.bn2.running_mean"
  input: "blocks.1.1.bn2.running_var"
  input: "blocks.1.1.bn2.weight"
  input: "blocks.1.1.bn2.bias"
  input: "blocks.1.1.conv_pwl.weight"
  input: "blocks.1.1.bn3.running_mean"
  input: "blocks.1.1.bn3.running_var"
  input: "blocks.1.1.bn3.weight"
  input: "blocks.1.1.bn3.bias"
  input: "blocks.2.0.conv_pw.weight"
  input: "blocks.2.0.bn1.running_mean"
  input: "blocks.2.0.bn1.running_var"
  input: "blocks.2.0.bn1.weight"
  input: "blocks.2.0.bn1.bias"
  input: "blocks.2.0.conv_dw.weight"
  input: "blocks.2.0.bn2.running_mean"
  input: "blocks.2.0.bn2.running_var"
  input: "blocks.2.0.bn2.weight"
  input: "blocks.2.0.bn2.bias"
  input: "blocks.2.0.conv_pwl.weight"
  input: "blocks.2.0.bn3.running_mean"
  input: "blocks.2.0.bn3.running_var"
  input: "blocks.2.0.bn3.weight"
  input: "blocks.2.0.bn3.bias"
  input: "blocks.2.1.conv_pw.weight"
  input: "blocks.2.1.bn1.running_mean"
  input: "blocks.2.1.bn1.running_var"
  input: "blocks.2.1.bn1.weight"
  input: "blocks.2.1.bn1.bias"
  input: "blocks.2.1.conv_dw.weight"
  input: "blocks.2.1.bn2.running_mean"
  input: "blocks.2.1.bn2.running_var"
  input: "blocks.2.1.bn2.weight"
  input: "blocks.2.1.bn2.bias"
  input: "blocks.2.1.conv_pwl.weight"
  input: "blocks.2.1.bn3.running_mean"
  input: "blocks.2.1.bn3.running_var"
  input: "blocks.2.1.bn3.weight"
  input: "blocks.2.1.bn3.bias"
  input: "blocks.2.2.conv_pw.weight"
  input: "blocks.2.2.bn1.running_mean"
  input: "blocks.2.2.bn1.running_var"
  input: "blocks.2.2.bn1.weight"
  input: "blocks.2.2.bn1.bias"
  input: "blocks.2.2.conv_dw.weight"
  input: "blocks.2.2.bn2.running_mean"
  input: "blocks.2.2.bn2.running_var"
  input: "blocks.2.2.bn2.weight"
  input: "blocks.2.2.bn2.bias"
  input: "blocks.2.2.conv_pwl.weight"
  input: "blocks.2.2.bn3.running_mean"
  input: "blocks.2.2.bn3.running_var"
  input: "blocks.2.2.bn3.weight"
  input: "blocks.2.2.bn3.bias"
  input: "blocks.3.0.conv_pw.weight"
  input: "blocks.3.0.bn1.running_mean"
  input: "blocks.3.0.bn1.running_var"
  input: "blocks.3.0.bn1.weight"
  input: "blocks.3.0.bn1.bias"
  input: "blocks.3.0.conv_dw.weight"
  input: "blocks.3.0.bn2.running_mean"
  input: "blocks.3.0.bn2.running_var"
  input: "blocks.3.0.bn2.weight"
  input: "blocks.3.0.bn2.bias"
  input: "blocks.3.0.conv_pwl.weight"
  input: "blocks.3.0.bn3.running_mean"
  input: "blocks.3.0.bn3.running_var"
  input: "blocks.3.0.bn3.weight"
  input: "blocks.3.0.bn3.bias"
  input: "blocks.3.1.conv_pw.weight"
  input: "blocks.3.1.bn1.running_mean"
  input: "blocks.3.1.bn1.running_var"
  input: "blocks.3.1.bn1.weight"
  input: "blocks.3.1.bn1.bias"
  input: "blocks.3.1.conv_dw.weight"
  input: "blocks.3.1.bn2.running_mean"
  input: "blocks.3.1.bn2.running_var"
  input: "blocks.3.1.bn2.weight"
  input: "blocks.3.1.bn2.bias"
  input: "blocks.3.1.conv_pwl.weight"
  input: "blocks.3.1.bn3.running_mean"
  input: "blocks.3.1.bn3.running_var"
  input: "blocks.3.1.bn3.weight"
  input: "blocks.3.1.bn3.bias"
  input: "blocks.3.2.conv_pw.weight"
  input: "blocks.3.2.bn1.running_mean"
  input: "blocks.3.2.bn1.running_var"
  input: "blocks.3.2.bn1.weight"
  input: "blocks.3.2.bn1.bias"
  input: "blocks.3.2.conv_dw.weight"
  input: "blocks.3.2.bn2.running_mean"
  input: "blocks.3.2.bn2.running_var"
  input: "blocks.3.2.bn2.weight"
  input: "blocks.3.2.bn2.bias"
  input: "blocks.3.2.conv_pwl.weight"
  input: "blocks.3.2.bn3.running_mean"
  input: "blocks.3.2.bn3.running_var"
  input: "blocks.3.2.bn3.weight"
  input: "blocks.3.2.bn3.bias"
  input: "blocks.3.3.conv_pw.weight"
  input: "blocks.3.3.bn1.running_mean"
  input: "blocks.3.3.bn1.running_var"
  input: "blocks.3.3.bn1.weight"
  input: "blocks.3.3.bn1.bias"
  input: "blocks.3.3.conv_dw.weight"
  input: "blocks.3.3.bn2.running_mean"
  input: "blocks.3.3.bn2.running_var"
  input: "blocks.3.3.bn2.weight"
  input: "blocks.3.3.bn2.bias"
  input: "blocks.3.3.conv_pwl.weight"
  input: "blocks.3.3.bn3.running_mean"
  input: "blocks.3.3.bn3.running_var"
  input: "blocks.3.3.bn3.weight"
  input: "blocks.3.3.bn3.bias"
  input: "blocks.4.0.conv_pw.weight"
  input: "blocks.4.0.bn1.running_mean"
  input: "blocks.4.0.bn1.running_var"
  input: "blocks.4.0.bn1.weight"
  input: "blocks.4.0.bn1.bias"
  input: "blocks.4.0.conv_dw.weight"
  input: "blocks.4.0.bn2.running_mean"
  input: "blocks.4.0.bn2.running_var"
  input: "blocks.4.0.bn2.weight"
  input: "blocks.4.0.bn2.bias"
  input: "blocks.4.0.conv_pwl.weight"
  input: "blocks.4.0.bn3.running_mean"
  input: "blocks.4.0.bn3.running_var"
  input: "blocks.4.0.bn3.weight"
  input: "blocks.4.0.bn3.bias"
  input: "blocks.4.1.conv_pw.weight"
  input: "blocks.4.1.bn1.running_mean"
  input: "blocks.4.1.bn1.running_var"
  input: "blocks.4.1.bn1.weight"
  input: "blocks.4.1.bn1.bias"
  input: "blocks.4.1.conv_dw.weight"
  input: "blocks.4.1.bn2.running_mean"
  input: "blocks.4.1.bn2.running_var"
  input: "blocks.4.1.bn2.weight"
  input: "blocks.4.1.bn2.bias"
  input: "blocks.4.1.conv_pwl.weight"
  input: "blocks.4.1.bn3.running_mean"
  input: "blocks.4.1.bn3.running_var"
  input: "blocks.4.1.bn3.weight"
  input: "blocks.4.1.bn3.bias"
  input: "blocks.4.2.conv_pw.weight"
  input: "blocks.4.2.bn1.running_mean"
  input: "blocks.4.2.bn1.running_var"
  input: "blocks.4.2.bn1.weight"
  input: "blocks.4.2.bn1.bias"
  input: "blocks.4.2.conv_dw.weight"
  input: "blocks.4.2.bn2.running_mean"
  input: "blocks.4.2.bn2.running_var"
  input: "blocks.4.2.bn2.weight"
  input: "blocks.4.2.bn2.bias"
  input: "blocks.4.2.conv_pwl.weight"
  input: "blocks.4.2.bn3.running_mean"
  input: "blocks.4.2.bn3.running_var"
  input: "blocks.4.2.bn3.weight"
  input: "blocks.4.2.bn3.bias"
  input: "blocks.5.0.conv_pw.weight"
  input: "blocks.5.0.bn1.running_mean"
  input: "blocks.5.0.bn1.running_var"
  input: "blocks.5.0.bn1.weight"
  input: "blocks.5.0.bn1.bias"
  input: "blocks.5.0.conv_dw.weight"
  input: "blocks.5.0.bn2.running_mean"
  input: "blocks.5.0.bn2.running_var"
  input: "blocks.5.0.bn2.weight"
  input: "blocks.5.0.bn2.bias"
  input: "blocks.5.0.conv_pwl.weight"
  input: "blocks.5.0.bn3.running_mean"
  input: "blocks.5.0.bn3.running_var"
  input: "blocks.5.0.bn3.weight"
  input: "blocks.5.0.bn3.bias"
  input: "blocks.5.1.conv_pw.weight"
  input: "blocks.5.1.bn1.running_mean"
  input: "blocks.5.1.bn1.running_var"
  input: "blocks.5.1.bn1.weight"
  input: "blocks.5.1.bn1.bias"
  input: "blocks.5.1.conv_dw.weight"
  input: "blocks.5.1.bn2.running_mean"
  input: "blocks.5.1.bn2.running_var"
  input: "blocks.5.1.bn2.weight"
  input: "blocks.5.1.bn2.bias"
  input: "blocks.5.1.conv_pwl.weight"
  input: "blocks.5.1.bn3.running_mean"
  input: "blocks.5.1.bn3.running_var"
  input: "blocks.5.1.bn3.weight"
  input: "blocks.5.1.bn3.bias"
  input: "blocks.5.2.conv_pw.weight"
  input: "blocks.5.2.bn1.running_mean"
  input: "blocks.5.2.bn1.running_var"
  input: "blocks.5.2.bn1.weight"
  input: "blocks.5.2.bn1.bias"
  input: "blocks.5.2.conv_dw.weight"
  input: "blocks.5.2.bn2.running_mean"
  input: "blocks.5.2.bn2.running_var"
  input: "blocks.5.2.bn2.weight"
  input: "blocks.5.2.bn2.bias"
  input: "blocks.5.2.conv_pwl.weight"
  input: "blocks.5.2.bn3.running_mean"
  input: "blocks.5.2.bn3.running_var"
  input: "blocks.5.2.bn3.weight"
  input: "blocks.5.2.bn3.bias"
  input: "blocks.6.0.conv_pw.weight"
  input: "blocks.6.0.bn1.running_mean"
  input: "blocks.6.0.bn1.running_var"
  input: "blocks.6.0.bn1.weight"
  input: "blocks.6.0.bn1.bias"
  input: "blocks.6.0.conv_dw.weight"
  input: "blocks.6.0.bn2.running_mean"
  input: "blocks.6.0.bn2.running_var"
  input: "blocks.6.0.bn2.weight"
  input: "blocks.6.0.bn2.bias"
  input: "blocks.6.0.conv_pwl.weight"
  input: "blocks.6.0.bn3.running_mean"
  input: "blocks.6.0.bn3.running_var"
  input: "blocks.6.0.bn3.weight"
  input: "blocks.6.0.bn3.bias"
  output: "blocks_6_1"
  node {
    input: "copy"
    input: "blocks.0.0.conv_dw.weight"
    input: "blocks.0.0.bn1.running_mean"
    input: "blocks.0.0.bn1.running_var"
    input: "blocks.0.0.bn1.weight"
    input: "blocks.0.0.bn1.bias"
    input: "blocks.0.0.conv_pw.weight"
    input: "blocks.0.0.bn2.running_mean"
    input: "blocks.0.0.bn2.running_var"
    input: "blocks.0.0.bn2.weight"
    input: "blocks.0.0.bn2.bias"
    output: "blocks_0_1"
    name: "torch_nn_modules_container_Sequential_blocks_0_1_0"
    op_type: "torch_nn_modules_container_Sequential_blocks_0_1"
    domain: "pkg.torch.2.2.0a0+git63d65dd"
  }
  node {
    input: "blocks_0_1"
    input: "blocks.1.0.conv_pw.weight"
    input: "blocks.1.0.bn1.running_mean"
    input: "blocks.1.0.bn1.running_var"
    input: "blocks.1.0.bn1.weight"
    input: "blocks.1.0.bn1.bias"
    input: "blocks.1.0.conv_dw.weight"
    input: "blocks.1.0.bn2.running_mean"
    input: "blocks.1.0.bn2.running_var"
    input: "blocks.1.0.bn2.weight"
    input: "blocks.1.0.bn2.bias"
    input: "blocks.1.0.conv_pwl.weight"
    input: "blocks.1.0.bn3.running_mean"
    input: "blocks.1.0.bn3.running_var"
    input: "blocks.1.0.bn3.weight"
    input: "blocks.1.0.bn3.bias"
    input: "blocks.1.1.conv_pw.weight"
    input: "blocks.1.1.bn1.running_mean"
    input: "blocks.1.1.bn1.running_var"
    input: "blocks.1.1.bn1.weight"
    input: "blocks.1.1.bn1.bias"
    input: "blocks.1.1.conv_dw.weight"
    input: "blocks.1.1.bn2.running_mean"
    input: "blocks.1.1.bn2.running_var"
    input: "blocks.1.1.bn2.weight"
    input: "blocks.1.1.bn2.bias"
    input: "blocks.1.1.conv_pwl.weight"
    input: "blocks.1.1.bn3.running_mean"
    input: "blocks.1.1.bn3.running_var"
    input: "blocks.1.1.bn3.weight"
    input: "blocks.1.1.bn3.bias"
    output: "blocks_1_1"
    name: "torch_nn_modules_container_Sequential_blocks_1_1_1"
    op_type: "torch_nn_modules_container_Sequential_blocks_1_1"
    domain: "pkg.torch.2.2.0a0+git63d65dd"
  }
  node {
    input: "blocks_1_1"
    input: "blocks.2.0.conv_pw.weight"
    input: "blocks.2.0.bn1.running_mean"
    input: "blocks.2.0.bn1.running_var"
    input: "blocks.2.0.bn1.weight"
    input: "blocks.2.0.bn1.bias"
    input: "blocks.2.0.conv_dw.weight"
    input: "blocks.2.0.bn2.running_mean"
    input: "blocks.2.0.bn2.running_var"
    input: "blocks.2.0.bn2.weight"
    input: "blocks.2.0.bn2.bias"
    input: "blocks.2.0.conv_pwl.weight"
    input: "blocks.2.0.bn3.running_mean"
    input: "blocks.2.0.bn3.running_var"
    input: "blocks.2.0.bn3.weight"
    input: "blocks.2.0.bn3.bias"
    input: "blocks.2.1.conv_pw.weight"
    input: "blocks.2.1.bn1.running_mean"
    input: "blocks.2.1.bn1.running_var"
    input: "blocks.2.1.bn1.weight"
    input: "blocks.2.1.bn1.bias"
    input: "blocks.2.1.conv_dw.weight"
    input: "blocks.2.1.bn2.running_mean"
    input: "blocks.2.1.bn2.running_var"
    input: "blocks.2.1.bn2.weight"
    input: "blocks.2.1.bn2.bias"
    input: "blocks.2.1.conv_pwl.weight"
    input: "blocks.2.1.bn3.running_mean"
    input: "blocks.2.1.bn3.running_var"
    input: "blocks.2.1.bn3.weight"
    input: "blocks.2.1.bn3.bias"
    input: "blocks.2.2.conv_pw.weight"
    input: "blocks.2.2.bn1.running_mean"
    input: "blocks.2.2.bn1.running_var"
    input: "blocks.2.2.bn1.weight"
    input: "blocks.2.2.bn1.bias"
    input: "blocks.2.2.conv_dw.weight"
    input: "blocks.2.2.bn2.running_mean"
    input: "blocks.2.2.bn2.running_var"
    input: "blocks.2.2.bn2.weight"
    input: "blocks.2.2.bn2.bias"
    input: "blocks.2.2.conv_pwl.weight"
    input: "blocks.2.2.bn3.running_mean"
    input: "blocks.2.2.bn3.running_var"
    input: "blocks.2.2.bn3.weight"
    input: "blocks.2.2.bn3.bias"
    output: "blocks_2_1"
    name: "torch_nn_modules_container_Sequential_blocks_2_1_2"
    op_type: "torch_nn_modules_container_Sequential_blocks_2_1"
    domain: "pkg.torch.2.2.0a0+git63d65dd"
  }
  node {
    input: "blocks_2_1"
    input: "blocks.3.0.conv_pw.weight"
    input: "blocks.3.0.bn1.running_mean"
    input: "blocks.3.0.bn1.running_var"
    input: "blocks.3.0.bn1.weight"
    input: "blocks.3.0.bn1.bias"
    input: "blocks.3.0.conv_dw.weight"
    input: "blocks.3.0.bn2.running_mean"
    input: "blocks.3.0.bn2.running_var"
    input: "blocks.3.0.bn2.weight"
    input: "blocks.3.0.bn2.bias"
    input: "blocks.3.0.conv_pwl.weight"
    input: "blocks.3.0.bn3.running_mean"
    input: "blocks.3.0.bn3.running_var"
    input: "blocks.3.0.bn3.weight"
    input: "blocks.3.0.bn3.bias"
    input: "blocks.3.1.conv_pw.weight"
    input: "blocks.3.1.bn1.running_mean"
    input: "blocks.3.1.bn1.running_var"
    input: "blocks.3.1.bn1.weight"
    input: "blocks.3.1.bn1.bias"
    input: "blocks.3.1.conv_dw.weight"
    input: "blocks.3.1.bn2.running_mean"
    input: "blocks.3.1.bn2.running_var"
    input: "blocks.3.1.bn2.weight"
    input: "blocks.3.1.bn2.bias"
    input: "blocks.3.1.conv_pwl.weight"
    input: "blocks.3.1.bn3.running_mean"
    input: "blocks.3.1.bn3.running_var"
    input: "blocks.3.1.bn3.weight"
    input: "blocks.3.1.bn3.bias"
    input: "blocks.3.2.conv_pw.weight"
    input: "blocks.3.2.bn1.running_mean"
    input: "blocks.3.2.bn1.running_var"
    input: "blocks.3.2.bn1.weight"
    input: "blocks.3.2.bn1.bias"
    input: "blocks.3.2.conv_dw.weight"
    input: "blocks.3.2.bn2.running_mean"
    input: "blocks.3.2.bn2.running_var"
    input: "blocks.3.2.bn2.weight"
    input: "blocks.3.2.bn2.bias"
    input: "blocks.3.2.conv_pwl.weight"
    input: "blocks.3.2.bn3.running_mean"
    input: "blocks.3.2.bn3.running_var"
    input: "blocks.3.2.bn3.weight"
    input: "blocks.3.2.bn3.bias"
    input: "blocks.3.3.conv_pw.weight"
    input: "blocks.3.3.bn1.running_mean"
    input: "blocks.3.3.bn1.running_var"
    input: "blocks.3.3.bn1.weight"
    input: "blocks.3.3.bn1.bias"
    input: "blocks.3.3.conv_dw.weight"
    input: "blocks.3.3.bn2.running_mean"
    input: "blocks.3.3.bn2.running_var"
    input: "blocks.3.3.bn2.weight"
    input: "blocks.3.3.bn2.bias"
    input: "blocks.3.3.conv_pwl.weight"
    input: "blocks.3.3.bn3.running_mean"
    input: "blocks.3.3.bn3.running_var"
    input: "blocks.3.3.bn3.weight"
    input: "blocks.3.3.bn3.bias"
    output: "blocks_3_1"
    name: "torch_nn_modules_container_Sequential_blocks_3_1_3"
    op_type: "torch_nn_modules_container_Sequential_blocks_3_1"
    domain: "pkg.torch.2.2.0a0+git63d65dd"
  }
  node {
    input: "blocks_3_1"
    input: "blocks.4.0.conv_pw.weight"
    input: "blocks.4.0.bn1.running_mean"
    input: "blocks.4.0.bn1.running_var"
    input: "blocks.4.0.bn1.weight"
    input: "blocks.4.0.bn1.bias"
    input: "blocks.4.0.conv_dw.weight"
    input: "blocks.4.0.bn2.running_mean"
    input: "blocks.4.0.bn2.running_var"
    input: "blocks.4.0.bn2.weight"
    input: "blocks.4.0.bn2.bias"
    input: "blocks.4.0.conv_pwl.weight"
    input: "blocks.4.0.bn3.running_mean"
    input: "blocks.4.0.bn3.running_var"
    input: "blocks.4.0.bn3.weight"
    input: "blocks.4.0.bn3.bias"
    input: "blocks.4.1.conv_pw.weight"
    input: "blocks.4.1.bn1.running_mean"
    input: "blocks.4.1.bn1.running_var"
    input: "blocks.4.1.bn1.weight"
    input: "blocks.4.1.bn1.bias"
    input: "blocks.4.1.conv_dw.weight"
    input: "blocks.4.1.bn2.running_mean"
    input: "blocks.4.1.bn2.running_var"
    input: "blocks.4.1.bn2.weight"
    input: "blocks.4.1.bn2.bias"
    input: "blocks.4.1.conv_pwl.weight"
    input: "blocks.4.1.bn3.running_mean"
    input: "blocks.4.1.bn3.running_var"
    input: "blocks.4.1.bn3.weight"
    input: "blocks.4.1.bn3.bias"
    input: "blocks.4.2.conv_pw.weight"
    input: "blocks.4.2.bn1.running_mean"
    input: "blocks.4.2.bn1.running_var"
    input: "blocks.4.2.bn1.weight"
    input: "blocks.4.2.bn1.bias"
    input: "blocks.4.2.conv_dw.weight"
    input: "blocks.4.2.bn2.running_mean"
    input: "blocks.4.2.bn2.running_var"
    input: "blocks.4.2.bn2.weight"
    input: "blocks.4.2.bn2.bias"
    input: "blocks.4.2.conv_pwl.weight"
    input: "blocks.4.2.bn3.running_mean"
    input: "blocks.4.2.bn3.running_var"
    input: "blocks.4.2.bn3.weight"
    input: "blocks.4.2.bn3.bias"
    output: "blocks_4_1"
    name: "torch_nn_modules_container_Sequential_blocks_4_1_4"
    op_type: "torch_nn_modules_container_Sequential_blocks_4_1"
    domain: "pkg.torch.2.2.0a0+git63d65dd"
  }
  node {
    input: "blocks_4_1"
    input: "blocks.5.0.conv_pw.weight"
    input: "blocks.5.0.bn1.running_mean"
    input: "blocks.5.0.bn1.running_var"
    input: "blocks.5.0.bn1.weight"
    input: "blocks.5.0.bn1.bias"
    input: "blocks.5.0.conv_dw.weight"
    input: "blocks.5.0.bn2.running_mean"
    input: "blocks.5.0.bn2.running_var"
    input: "blocks.5.0.bn2.weight"
    input: "blocks.5.0.bn2.bias"
    input: "blocks.5.0.conv_pwl.weight"
    input: "blocks.5.0.bn3.running_mean"
    input: "blocks.5.0.bn3.running_var"
    input: "blocks.5.0.bn3.weight"
    input: "blocks.5.0.bn3.bias"
    input: "blocks.5.1.conv_pw.weight"
    input: "blocks.5.1.bn1.running_mean"
    input: "blocks.5.1.bn1.running_var"
    input: "blocks.5.1.bn1.weight"
    input: "blocks.5.1.bn1.bias"
    input: "blocks.5.1.conv_dw.weight"
    input: "blocks.5.1.bn2.running_mean"
    input: "blocks.5.1.bn2.running_var"
    input: "blocks.5.1.bn2.weight"
    input: "blocks.5.1.bn2.bias"
    input: "blocks.5.1.conv_pwl.weight"
    input: "blocks.5.1.bn3.running_mean"
    input: "blocks.5.1.bn3.running_var"
    input: "blocks.5.1.bn3.weight"
    input: "blocks.5.1.bn3.bias"
    input: "blocks.5.2.conv_pw.weight"
    input: "blocks.5.2.bn1.running_mean"
    input: "blocks.5.2.bn1.running_var"
    input: "blocks.5.2.bn1.weight"
    input: "blocks.5.2.bn1.bias"
    input: "blocks.5.2.conv_dw.weight"
    input: "blocks.5.2.bn2.running_mean"
    input: "blocks.5.2.bn2.running_var"
    input: "blocks.5.2.bn2.weight"
    input: "blocks.5.2.bn2.bias"
    input: "blocks.5.2.conv_pwl.weight"
    input: "blocks.5.2.bn3.running_mean"
    input: "blocks.5.2.bn3.running_var"
    input: "blocks.5.2.bn3.weight"
    input: "blocks.5.2.bn3.bias"
    output: "blocks_5_1"
    name: "torch_nn_modules_container_Sequential_blocks_5_1_5"
    op_type: "torch_nn_modules_container_Sequential_blocks_5_1"
    domain: "pkg.torch.2.2.0a0+git63d65dd"
  }
  node {
    input: "blocks_5_1"
    input: "blocks.6.0.conv_pw.weight"
    input: "blocks.6.0.bn1.running_mean"
    input: "blocks.6.0.bn1.running_var"
    input: "blocks.6.0.bn1.weight"
    input: "blocks.6.0.bn1.bias"
    input: "blocks.6.0.conv_dw.weight"
    input: "blocks.6.0.bn2.running_mean"
    input: "blocks.6.0.bn2.running_var"
    input: "blocks.6.0.bn2.weight"
    input: "blocks.6.0.bn2.bias"
    input: "blocks.6.0.conv_pwl.weight"
    input: "blocks.6.0.bn3.running_mean"
    input: "blocks.6.0.bn3.running_var"
    input: "blocks.6.0.bn3.weight"
    input: "blocks.6.0.bn3.bias"
    output: "blocks_6_1"
    name: "torch_nn_modules_container_Sequential_blocks_6_1_6"
    op_type: "torch_nn_modules_container_Sequential_blocks_6_1"
    domain: "pkg.torch.2.2.0a0+git63d65dd"
  }
  opset_import {
    domain: ""
    version: 18
  }
  opset_import {
    domain: "pkg.torch.2.2.0a0+git63d65dd"
    version: 1
  }
  domain: "pkg.torch.2.2.0a0+git63d65dd"
}
functions {
  name: "torch_nn_modules_conv_Conv2d_conv_head_1"
  input: "add_111"
  input: "conv_head.weight"
  output: "convolution_51"
  node {
    input: "conv_head.weight"
    output: "_val_2"
    name: "Shape_2"
    op_type: "Shape"
    attribute {
      name: "end"
      i: 1
      type: INT
    }
    attribute {
      name: "start"
      i: 0
      type: INT
    }
  }
  node {
    output: "_val_3"
    name: "Constant_3"
    op_type: "Constant"
    attribute {
      name: "value_ints"
      ints: 1
      type: INTS
    }
  }
  node {
    input: "_val_2"
    input: "_val_3"
    output: "_val_4"
    name: "Expand_4"
    op_type: "Expand"
  }
  node {
    output: "_val_5"
    name: "Constant_5"
    op_type: "Constant"
    attribute {
      name: "value"
      t {
        data_type: 1
        raw_data: "\000\000\000\000"
      }
      type: TENSOR
    }
  }
  node {
    input: "_val_5"
    input: "add_111"
    output: "_val_6"
    name: "CastLike_6"
    op_type: "CastLike"
  }
  node {
    input: "_val_6"
    input: "_val_4"
    output: "_val_7"
    name: "Expand_7"
    op_type: "Expand"
  }
  node {
    output: "_val_8"
    name: "Constant_8"
    op_type: "Constant"
    attribute {
      name: "value"
      t {
        data_type: 9
        raw_data: "\000"
      }
      type: TENSOR
    }
  }
  node {
    input: "add_111"
    input: "conv_head.weight"
    input: "_val_7"
    input: "_val_8"
    output: "convolution_51"
    name: "_aten_convolution_onnx_9"
    op_type: "_aten_convolution_onnx"
    attribute {
      name: "dilations"
      ints: 1
      ints: 1
      type: INTS
    }
    attribute {
      name: "groups"
      i: 1
      type: INT
    }
    attribute {
      name: "output_padding"
      ints: 0
      ints: 0
      type: INTS
    }
    attribute {
      name: "pads"
      ints: 0
      ints: 0
      ints: 0
      ints: 0
      type: INTS
    }
    attribute {
      name: "strides"
      ints: 1
      ints: 1
      type: INTS
    }
    domain: "pkg.onnxscript.torch_lib"
  }
  opset_import {
    domain: ""
    version: 18
  }
  opset_import {
    domain: "pkg.onnxscript.torch_lib"
    version: 1
  }
  domain: "pkg.torch.2.2.0a0+git63d65dd"
}
functions {
  name: "torch_nn_modules_activation_ReLU6_bn2_act_1"
  input: "add_113"
  output: "copy_34"
  node {
    input: "add_113"
    output: "hardtanh_34"
    name: "aten_hardtanh_0"
    op_type: "aten_hardtanh"
    attribute {
      name: "max_val"
      f: 6.0
      type: FLOAT
    }
    attribute {
      name: "min_val"
      f: 0.0
      type: FLOAT
    }
    domain: "pkg.onnxscript.torch_lib"
  }
  node {
    input: "add_113"
    input: "hardtanh_34"
    output: "copy_34"
    name: "aten_copy_1"
    op_type: "aten_copy"
    attribute {
      name: "non_blocking"
      i: 0
      type: INT
    }
    domain: "pkg.onnxscript.torch_lib"
  }
  opset_import {
    domain: ""
    version: 18
  }
  opset_import {
    domain: "pkg.onnxscript.torch_lib"
    version: 1
  }
  domain: "pkg.torch.2.2.0a0+git63d65dd"
}
functions {
  name: "timm_layers_norm_act_BatchNormAct2d_bn2_1"
  input: "convolution_51"
  input: "bn2.running_mean"
  input: "bn2.running_var"
  input: "bn2.weight"
  input: "bn2.bias"
  output: "bn2_act_1"
  node {
    input: "bn2.running_mean"
    output: "convert_element_type_102"
    name: "prims_convert_element_type_2"
    op_type: "prims_convert_element_type"
    attribute {
      name: "dtype"
      i: 1
      type: INT
    }
    domain: "pkg.onnxscript.torch_lib"
  }
  node {
    input: "bn2.running_var"
    output: "convert_element_type_103"
    name: "prims_convert_element_type_3"
    op_type: "prims_convert_element_type"
    attribute {
      name: "dtype"
      i: 1
      type: INT
    }
    domain: "pkg.onnxscript.torch_lib"
  }
  node {
    output: "_val_5"
    name: "Constant_4"
    op_type: "Constant"
    attribute {
      name: "value"
      t {
        data_type: 1
        raw_data: "\254\305\'7"
      }
      type: TENSOR
    }
  }
  node {
    input: "convert_element_type_103"
    input: "_val_5"
    output: "add_112"
    name: "aten_add_5"
    op_type: "aten_add"
    attribute {
      name: "alpha"
      f: 1.0
      type: FLOAT
    }
    domain: "pkg.onnxscript.torch_lib"
  }
  node {
    input: "add_112"
    output: "sqrt_51"
    name: "aten_sqrt_6"
    op_type: "aten_sqrt"
    domain: "pkg.onnxscript.torch_lib"
  }
  node {
    input: "sqrt_51"
    output: "reciprocal_51"
    name: "aten_reciprocal_7"
    op_type: "aten_reciprocal"
    domain: "pkg.onnxscript.torch_lib"
  }
  node {
    output: "_val_9"
    name: "Constant_8"
    op_type: "Constant"
    attribute {
      name: "value"
      t {
        data_type: 7
        raw_data: "\001\000\000\000\000\000\000\000"
      }
      type: TENSOR
    }
  }
  node {
    input: "_val_9"
    output: "scalar_tensor_default_51"
    name: "aten_scalar_tensor_sym_number_9"
    op_type: "aten_scalar_tensor_sym_number"
    attribute {
      name: "dtype"
      i: 1
      type: INT
    }
    domain: "pkg.onnxscript.torch_lib"
  }
  node {
    input: "reciprocal_51"
    input: "scalar_tensor_default_51"
    output: "mul_153"
    name: "aten_mul_10"
    op_type: "aten_mul"
    domain: "pkg.onnxscript.torch_lib"
  }
  node {
    input: "convert_element_type_102"
    output: "unsqueeze_408"
    name: "aten_unsqueeze_11"
    op_type: "aten_unsqueeze"
    attribute {
      name: "dim"
      i: -1
      type: INT
    }
    domain: "pkg.onnxscript.torch_lib"
  }
  node {
    input: "unsqueeze_408"
    output: "unsqueeze_409"
    name: "aten_unsqueeze_12"
    op_type: "aten_unsqueeze"
    attribute {
      name: "dim"
      i: -1
      type: INT
    }
    domain: "pkg.onnxscript.torch_lib"
  }
  node {
    input: "mul_153"
    output: "unsqueeze_410"
    name: "aten_unsqueeze_13"
    op_type: "aten_unsqueeze"
    attribute {
      name: "dim"
      i: -1
      type: INT
    }
    domain: "pkg.onnxscript.torch_lib"
  }
  node {
    input: "unsqueeze_410"
    output: "unsqueeze_411"
    name: "aten_unsqueeze_14"
    op_type: "aten_unsqueeze"
    attribute {
      name: "dim"
      i: -1
      type: INT
    }
    domain: "pkg.onnxscript.torch_lib"
  }
  node {
    input: "convolution_51"
    input: "unsqueeze_409"
    output: "sub_51"
    name: "aten_sub_15"
    op_type: "aten_sub"
    attribute {
      name: "alpha"
      f: 1.0
      type: FLOAT
    }
    domain: "pkg.onnxscript.torch_lib"
  }
  node {
    input: "sub_51"
    input: "unsqueeze_411"
    output: "mul_154"
    name: "aten_mul_16"
    op_type: "aten_mul"
    domain: "pkg.onnxscript.torch_lib"
  }
  node {
    input: "bn2.weight"
    output: "unsqueeze_412"
    name: "aten_unsqueeze_17"
    op_type: "aten_unsqueeze"
    attribute {
      name: "dim"
      i: -1
      type: INT
    }
    domain: "pkg.onnxscript.torch_lib"
  }
  node {
    input: "unsqueeze_412"
    output: "unsqueeze_413"
    name: "aten_unsqueeze_18"
    op_type: "aten_unsqueeze"
    attribute {
      name: "dim"
      i: -1
      type: INT
    }
    domain: "pkg.onnxscript.torch_lib"
  }
  node {
    input: "mul_154"
    input: "unsqueeze_413"
    output: "mul_155"
    name: "aten_mul_19"
    op_type: "aten_mul"
    domain: "pkg.onnxscript.torch_lib"
  }
  node {
    input: "bn2.bias"
    output: "unsqueeze_414"
    name: "aten_unsqueeze_20"
    op_type: "aten_unsqueeze"
    attribute {
      name: "dim"
      i: -1
      type: INT
    }
    domain: "pkg.onnxscript.torch_lib"
  }
  node {
    input: "unsqueeze_414"
    output: "unsqueeze_415"
    name: "aten_unsqueeze_21"
    op_type: "aten_unsqueeze"
    attribute {
      name: "dim"
      i: -1
      type: INT
    }
    domain: "pkg.onnxscript.torch_lib"
  }
  node {
    input: "mul_155"
    input: "unsqueeze_415"
    output: "add_113"
    name: "aten_add_22"
    op_type: "aten_add"
    attribute {
      name: "alpha"
      f: 1.0
      type: FLOAT
    }
    domain: "pkg.onnxscript.torch_lib"
  }
  node {
    input: "add_113"
    output: "bn2_act_1"
    name: "torch_nn_modules_activation_ReLU6_bn2_act_1_23"
    op_type: "torch_nn_modules_activation_ReLU6_bn2_act_1"
    domain: "pkg.torch.2.2.0a0+git63d65dd"
  }
  opset_import {
    domain: ""
    version: 18
  }
  opset_import {
    domain: "pkg.onnxscript.torch_lib"
    version: 1
  }
  opset_import {
    domain: "pkg.torch.2.2.0a0+git63d65dd"
    version: 1
  }
  domain: "pkg.timm.0.9.7"
}
functions {
  name: "aten_mean_dim"
  input: "self"
  input: "dim"
  output: "result_10"
  node {
    input: "self"
    output: "tmp"
    name: "n0"
    op_type: "Shape"
  }
  node {
    input: "tmp"
    output: "tmp_0"
    name: "n1"
    op_type: "Size"
  }
  node {
    output: "int64_0"
    name: "n2"
    op_type: "Constant"
    attribute {
      name: "value"
      t {
        data_type: 7
        int64_data: 0
        name: "int64_0"
      }
      type: TENSOR
    }
  }
  node {
    input: "int64_0"
    input: "tmp_0"
    output: "int64_0_cast"
    name: "n3"
    op_type: "CastLike"
  }
  node {
    input: "tmp_0"
    input: "int64_0_cast"
    output: "cond"
    name: "n4"
    op_type: "Equal"
  }
  node {
    input: "cond"
    output: "result_10"
    name: "n5"
    op_type: "If"
    attribute {
      name: "then_branch"
      g {
        node {
          input: "self"
          output: "result"
          name: "n0"
          op_type: "Identity"
        }
        name: "thenGraph_5"
        output {
          name: "result"
        }
      }
      type: GRAPH
    }
    attribute {
      name: "else_branch"
      g {
        node {
          input: "dim"
          output: "tmp_1"
          name: "n0"
          op_type: "Shape"
        }
        node {
          input: "tmp_1"
          output: "tmp_2"
          name: "n1"
          op_type: "Size"
        }
        node {
          output: "int64_0_3"
          name: "n2"
          op_type: "Constant"
          attribute {
            name: "value"
            t {
              data_type: 7
              int64_data: 0
              name: "int64_0_3"
            }
            type: TENSOR
          }
        }
        node {
          input: "int64_0_3"
          input: "tmp_2"
          output: "int64_0_3_cast"
          name: "n3"
          op_type: "CastLike"
        }
        node {
          input: "tmp_2"
          input: "int64_0_3_cast"
          output: "cond_4"
          name: "n4"
          op_type: "Equal"
        }
        node {
          input: "cond_4"
          output: "dim_8"
          name: "n5"
          op_type: "If"
          attribute {
            name: "then_branch"
            g {
              node {
                output: "int64_0_5"
                name: "n0"
                op_type: "Constant"
                attribute {
                  name: "value"
                  t {
                    data_type: 7
                    int64_data: 0
                    name: "int64_0_5"
                  }
                  type: TENSOR
                }
              }
              node {
                input: "dim"
                input: "int64_0_5"
                output: "dim_6"
                name: "n1"
                op_type: "Unsqueeze"
              }
              name: "thenGraph_8"
              output {
                name: "dim_6"
              }
            }
            type: GRAPH
          }
          attribute {
            name: "else_branch"
            g {
              node {
                input: "dim"
                output: "dim_7"
                name: "n0"
                op_type: "Identity"
              }
              name: "elseGraph_8"
              output {
                name: "dim_7"
              }
            }
            type: GRAPH
          }
        }
        node {
          input: "self"
          input: "dim_8"
          output: "result_9"
          name: "n6"
          op_type: "ReduceMean"
          attribute {
            name: "keepdims"
            type: INT
            ref_attr_name: "keepdim"
          }
        }
        name: "elseGraph_5"
        output {
          name: "result_9"
        }
      }
      type: GRAPH
    }
  }
  doc_string: "mean.dim(Tensor self, int[1]? dim, bool keepdim=False, *, ScalarType? dtype=None) -> Tensor"
  opset_import {
    domain: ""
    version: 18
  }
  domain: "pkg.onnxscript.torch_lib"
  attribute_proto {
    name: "keepdim"
    i: 0
    type: INT
  }
}
functions {
  name: "torch_nn_modules_pooling_AdaptiveAvgPool2d_global_pool_pool_1"
  input: "copy_34"
  output: "mean"
  node {
    output: "_val_1"
    name: "Constant_1"
    op_type: "Constant"
    attribute {
      name: "value"
      t {
        dims: 2
        data_type: 7
        raw_data: "\377\377\377\377\377\377\377\377\376\377\377\377\377\377\377\377"
      }
      type: TENSOR
    }
  }
  node {
    input: "copy_34"
    input: "_val_1"
    output: "mean"
    name: "aten_mean_dim_2"
    op_type: "aten_mean_dim"
    attribute {
      name: "keepdim"
      i: 1
      type: INT
    }
    domain: "pkg.onnxscript.torch_lib"
  }
  opset_import {
    domain: ""
    version: 18
  }
  opset_import {
    domain: "pkg.onnxscript.torch_lib"
    version: 1
  }
  domain: "pkg.torch.2.2.0a0+git63d65dd"
}
functions {
  name: "aten_view"
  input: "self"
  input: "size"
  output: "return_val"
  node {
    input: "size"
    output: "size_0"
    name: "n0"
    op_type: "Cast"
    attribute {
      name: "to"
      i: 7
      type: INT
    }
  }
  node {
    input: "self"
    input: "size_0"
    output: "return_val"
    name: "n1"
    op_type: "Reshape"
  }
  doc_string: "view(Tensor(a) self, SymInt[] size) -> Tensor(a)"
  opset_import {
    domain: ""
    version: 18
  }
  domain: "pkg.onnxscript.torch_lib"
}
functions {
  name: "torch_nn_modules_flatten_Flatten_global_pool_flatten_1"
  input: "mean"
  output: "view"
  node {
    output: "_val_1"
    name: "Constant_1"
    op_type: "Constant"
    attribute {
      name: "value"
      t {
        dims: 2
        data_type: 7
        raw_data: "\001\000\000\000\000\000\000\000\000\005\000\000\000\000\000\000"
      }
      type: TENSOR
    }
  }
  node {
    input: "mean"
    input: "_val_1"
    output: "view"
    name: "aten_view_2"
    op_type: "aten_view"
    domain: "pkg.onnxscript.torch_lib"
  }
  opset_import {
    domain: ""
    version: 18
  }
  opset_import {
    domain: "pkg.onnxscript.torch_lib"
    version: 1
  }
  domain: "pkg.torch.2.2.0a0+git63d65dd"
}
functions {
  name: "timm_layers_adaptive_avgmax_pool_SelectAdaptivePool2d_global_pool_1"
  input: "copy_34"
  output: "global_pool_flatten_1"
  node {
    input: "copy_34"
    output: "global_pool_pool_1"
    name: "torch_nn_modules_pooling_AdaptiveAvgPool2d_global_pool_pool_1_0"
    op_type: "torch_nn_modules_pooling_AdaptiveAvgPool2d_global_pool_pool_1"
    domain: "pkg.torch.2.2.0a0+git63d65dd"
  }
  node {
    input: "global_pool_pool_1"
    output: "global_pool_flatten_1"
    name: "torch_nn_modules_flatten_Flatten_global_pool_flatten_1_1"
    op_type: "torch_nn_modules_flatten_Flatten_global_pool_flatten_1"
    domain: "pkg.torch.2.2.0a0+git63d65dd"
  }
  opset_import {
    domain: ""
    version: 18
  }
  opset_import {
    domain: "pkg.torch.2.2.0a0+git63d65dd"
    version: 1
  }
  domain: "pkg.timm.0.9.7"
}
functions {
  name: "aten_t"
  input: "self"
  output: "result_1"
  node {
    input: "self"
    output: "tmp"
    name: "n0"
    op_type: "Shape"
  }
  node {
    input: "tmp"
    output: "rank"
    name: "n1"
    op_type: "Size"
  }
  node {
    output: "int64_2"
    name: "n2"
    op_type: "Constant"
    attribute {
      name: "value"
      t {
        data_type: 7
        int64_data: 2
        name: "int64_2"
      }
      type: TENSOR
    }
  }
  node {
    input: "int64_2"
    input: "rank"
    output: "int64_2_cast"
    name: "n3"
    op_type: "CastLike"
  }
  node {
    input: "rank"
    input: "int64_2_cast"
    output: "cond"
    name: "n4"
    op_type: "Equal"
  }
  node {
    input: "cond"
    output: "result_1"
    name: "n5"
    op_type: "If"
    attribute {
      name: "then_branch"
      g {
        node {
          input: "self"
          output: "result"
          name: "n0"
          op_type: "Transpose"
          attribute {
            name: "perm"
            ints: 1
            ints: 0
            type: INTS
          }
        }
        name: "thenGraph_6"
        output {
          name: "result"
        }
      }
      type: GRAPH
    }
    attribute {
      name: "else_branch"
      g {
        node {
          input: "self"
          output: "result_0"
          name: "n0"
          op_type: "Identity"
        }
        name: "elseGraph_6"
        output {
          name: "result_0"
        }
      }
      type: GRAPH
    }
  }
  doc_string: "t(Tensor(a) self) -> Tensor(a)"
  opset_import {
    domain: ""
    version: 18
  }
  domain: "pkg.onnxscript.torch_lib"
}
functions {
  name: "aten_addmm"
  input: "self"
  input: "mat1"
  input: "mat2"
  output: "return_val"
  node {
    input: "mat1"
    input: "mat2"
    input: "self"
    output: "return_val"
    name: "n0"
    op_type: "Gemm"
    attribute {
      name: "alpha"
      type: FLOAT
      ref_attr_name: "alpha"
    }
    attribute {
      name: "beta"
      type: FLOAT
      ref_attr_name: "beta"
    }
  }
  doc_string: "addmm(Tensor self, Tensor mat1, Tensor mat2, *, Scalar beta=1, Scalar alpha=1) -> Tensor"
  opset_import {
    domain: ""
    version: 18
  }
  domain: "pkg.onnxscript.torch_lib"
  attribute_proto {
    name: "beta"
    f: 1.0
    type: FLOAT
  }
  attribute_proto {
    name: "alpha"
    f: 1.0
    type: FLOAT
  }
}
functions {
  name: "torch_nn_modules_linear_Linear_classifier_1"
  input: "view"
  input: "classifier.weight"
  input: "classifier.bias"
  output: "addmm"
  node {
    input: "classifier.weight"
    output: "t"
    name: "aten_t_0"
    op_type: "aten_t"
    domain: "pkg.onnxscript.torch_lib"
  }
  node {
    input: "classifier.bias"
    input: "view"
    input: "t"
    output: "addmm"
    name: "aten_addmm_1"
    op_type: "aten_addmm"
    attribute {
      name: "alpha"
      f: 1.0
      type: FLOAT
    }
    attribute {
      name: "beta"
      f: 1.0
      type: FLOAT
    }
    domain: "pkg.onnxscript.torch_lib"
  }
  opset_import {
    domain: ""
    version: 18
  }
  opset_import {
    domain: "pkg.onnxscript.torch_lib"
    version: 1
  }
  domain: "pkg.torch.2.2.0a0+git63d65dd"
}
functions {
  name: "Rank"
  input: "input"
  output: "return_val"
  node {
    input: "input"
    output: "tmp"
    name: "n0"
    op_type: "Shape"
  }
  node {
    input: "tmp"
    output: "return_val"
    name: "n1"
    op_type: "Size"
  }
  doc_string: "Take the rank of the input tensor."
  opset_import {
    domain: ""
    version: 18
  }
  domain: "pkg.onnxscript.torch_lib.common"
}
functions {
  name: "IsScalar"
  input: "input"
  output: "return_val"
  node {
    input: "input"
    output: "tmp"
    name: "n0"
    op_type: "Shape"
  }
  node {
    input: "tmp"
    output: "tmp_0"
    name: "n1"
    op_type: "Size"
  }
  node {
    output: "tmp_1"
    name: "n2"
    op_type: "Constant"
    attribute {
      name: "value_int"
      i: 0
      type: INT
    }
  }
  node {
    input: "tmp_0"
    input: "tmp_1"
    output: "return_val"
    name: "n3"
    op_type: "Equal"
  }
  doc_string: "Return whether the input has rank 0, or is a scalar."
  opset_import {
    domain: ""
    version: 18
  }
  domain: "pkg.onnxscript.torch_lib.common"
}
