ir_version: 8
producer_name: "pytorch"
producer_version: "2.2.0"
graph {
  node {
    input: "l_input_ids_"
    input: "model.decoder.embed_tokens.weight"
    input: "model.decoder.embed_positions.weights"
    input: "model.decoder.layers.0.self_attn.q_proj.weight"
    input: "model.decoder.layers.0.self_attn.q_proj.bias"
    input: "model.decoder.layers.0.self_attn.k_proj.weight"
    input: "model.decoder.layers.0.self_attn.k_proj.bias"
    input: "model.decoder.layers.0.self_attn.v_proj.weight"
    input: "model.decoder.layers.0.self_attn.v_proj.bias"
    input: "model.decoder.layers.0.self_attn.out_proj.weight"
    input: "model.decoder.layers.0.self_attn.out_proj.bias"
    input: "model.decoder.layers.0.self_attn_layer_norm.weight"
    input: "model.decoder.layers.0.self_attn_layer_norm.bias"
    input: "model.decoder.layers.0.fc1.weight"
    input: "model.decoder.layers.0.fc1.bias"
    input: "model.decoder.layers.0.fc2.weight"
    input: "model.decoder.layers.0.fc2.bias"
    input: "model.decoder.layers.0.final_layer_norm.weight"
    input: "model.decoder.layers.0.final_layer_norm.bias"
    input: "model.decoder.layers.1.self_attn.q_proj.weight"
    input: "model.decoder.layers.1.self_attn.q_proj.bias"
    input: "model.decoder.layers.1.self_attn.k_proj.weight"
    input: "model.decoder.layers.1.self_attn.k_proj.bias"
    input: "model.decoder.layers.1.self_attn.v_proj.weight"
    input: "model.decoder.layers.1.self_attn.v_proj.bias"
    input: "model.decoder.layers.1.self_attn.out_proj.weight"
    input: "model.decoder.layers.1.self_attn.out_proj.bias"
    input: "model.decoder.layers.1.self_attn_layer_norm.weight"
    input: "model.decoder.layers.1.self_attn_layer_norm.bias"
    input: "model.decoder.layers.1.fc1.weight"
    input: "model.decoder.layers.1.fc1.bias"
    input: "model.decoder.layers.1.fc2.weight"
    input: "model.decoder.layers.1.fc2.bias"
    input: "model.decoder.layers.1.final_layer_norm.weight"
    input: "model.decoder.layers.1.final_layer_norm.bias"
    input: "model.decoder.layers.2.self_attn.q_proj.weight"
    input: "model.decoder.layers.2.self_attn.q_proj.bias"
    input: "model.decoder.layers.2.self_attn.k_proj.weight"
    input: "model.decoder.layers.2.self_attn.k_proj.bias"
    input: "model.decoder.layers.2.self_attn.v_proj.weight"
    input: "model.decoder.layers.2.self_attn.v_proj.bias"
    input: "model.decoder.layers.2.self_attn.out_proj.weight"
    input: "model.decoder.layers.2.self_attn.out_proj.bias"
    input: "model.decoder.layers.2.self_attn_layer_norm.weight"
    input: "model.decoder.layers.2.self_attn_layer_norm.bias"
    input: "model.decoder.layers.2.fc1.weight"
    input: "model.decoder.layers.2.fc1.bias"
    input: "model.decoder.layers.2.fc2.weight"
    input: "model.decoder.layers.2.fc2.bias"
    input: "model.decoder.layers.2.final_layer_norm.weight"
    input: "model.decoder.layers.2.final_layer_norm.bias"
    input: "model.decoder.layers.3.self_attn.q_proj.weight"
    input: "model.decoder.layers.3.self_attn.q_proj.bias"
    input: "model.decoder.layers.3.self_attn.k_proj.weight"
    input: "model.decoder.layers.3.self_attn.k_proj.bias"
    input: "model.decoder.layers.3.self_attn.v_proj.weight"
    input: "model.decoder.layers.3.self_attn.v_proj.bias"
    input: "model.decoder.layers.3.self_attn.out_proj.weight"
    input: "model.decoder.layers.3.self_attn.out_proj.bias"
    input: "model.decoder.layers.3.self_attn_layer_norm.weight"
    input: "model.decoder.layers.3.self_attn_layer_norm.bias"
    input: "model.decoder.layers.3.fc1.weight"
    input: "model.decoder.layers.3.fc1.bias"
    input: "model.decoder.layers.3.fc2.weight"
    input: "model.decoder.layers.3.fc2.bias"
    input: "model.decoder.layers.3.final_layer_norm.weight"
    input: "model.decoder.layers.3.final_layer_norm.bias"
    input: "model.decoder.layers.4.self_attn.q_proj.weight"
    input: "model.decoder.layers.4.self_attn.q_proj.bias"
    input: "model.decoder.layers.4.self_attn.k_proj.weight"
    input: "model.decoder.layers.4.self_attn.k_proj.bias"
    input: "model.decoder.layers.4.self_attn.v_proj.weight"
    input: "model.decoder.layers.4.self_attn.v_proj.bias"
    input: "model.decoder.layers.4.self_attn.out_proj.weight"
    input: "model.decoder.layers.4.self_attn.out_proj.bias"
    input: "model.decoder.layers.4.self_attn_layer_norm.weight"
    input: "model.decoder.layers.4.self_attn_layer_norm.bias"
    input: "model.decoder.layers.4.fc1.weight"
    input: "model.decoder.layers.4.fc1.bias"
    input: "model.decoder.layers.4.fc2.weight"
    input: "model.decoder.layers.4.fc2.bias"
    input: "model.decoder.layers.4.final_layer_norm.weight"
    input: "model.decoder.layers.4.final_layer_norm.bias"
    input: "model.decoder.layers.5.self_attn.q_proj.weight"
    input: "model.decoder.layers.5.self_attn.q_proj.bias"
    input: "model.decoder.layers.5.self_attn.k_proj.weight"
    input: "model.decoder.layers.5.self_attn.k_proj.bias"
    input: "model.decoder.layers.5.self_attn.v_proj.weight"
    input: "model.decoder.layers.5.self_attn.v_proj.bias"
    input: "model.decoder.layers.5.self_attn.out_proj.weight"
    input: "model.decoder.layers.5.self_attn.out_proj.bias"
    input: "model.decoder.layers.5.self_attn_layer_norm.weight"
    input: "model.decoder.layers.5.self_attn_layer_norm.bias"
    input: "model.decoder.layers.5.fc1.weight"
    input: "model.decoder.layers.5.fc1.bias"
    input: "model.decoder.layers.5.fc2.weight"
    input: "model.decoder.layers.5.fc2.bias"
    input: "model.decoder.layers.5.final_layer_norm.weight"
    input: "model.decoder.layers.5.final_layer_norm.bias"
    output: "model_decoder_1"
    output: "model_decoder_1_1"
    output: "model_decoder_1_2"
    output: "model_decoder_1_3"
    output: "model_decoder_1_4"
    output: "model_decoder_1_5"
    output: "model_decoder_1_6"
    output: "model_decoder_1_7"
    output: "model_decoder_1_8"
    output: "model_decoder_1_9"
    output: "model_decoder_1_10"
    output: "model_decoder_1_11"
    output: "model_decoder_1_12"
    name: "transformers_models_speech_to_text_2_modeling_speech_to_text_2_Speech2Text2Decoder_model_decoder_1_7"
    op_type: "transformers_models_speech_to_text_2_modeling_speech_to_text_2_Speech2Text2Decoder_model_decoder_1"
    domain: "pkg.transformers.4.34.0.dev0"
  }
  node {
    input: "model_decoder_1_12"
    input: "model.decoder.embed_tokens.weight"
    output: "lm_head_1"
    name: "torch_nn_modules_linear_Linear_lm_head_1_8"
    op_type: "torch_nn_modules_linear_Linear_lm_head_1"
    domain: "pkg.torch.2.2.0a0+git63d65dd"
  }
  node {
    output: "_val_114"
    name: "Constant_9"
    op_type: "Constant"
    attribute {
      name: "value"
      t {
        dims: 2
        data_type: 7
        raw_data: "\377\377\377\377\377\377\377\377\020\'\000\000\000\000\000\000"
      }
      type: TENSOR
    }
  }
  node {
    input: "lm_head_1"
    input: "_val_114"
    output: "view_138"
    name: "aten_view_10"
    op_type: "aten_view"
    domain: "pkg.onnxscript.torch_lib"
  }
  node {
    output: "_val_116"
    name: "Constant_11"
    op_type: "Constant"
    attribute {
      name: "value"
      t {
        dims: 1
        data_type: 7
        raw_data: "\377\377\377\377\377\377\377\377"
      }
      type: TENSOR
    }
  }
  node {
    input: "l_labels_"
    input: "_val_116"
    output: "view_139"
    name: "aten_view_12"
    op_type: "aten_view"
    domain: "pkg.onnxscript.torch_lib"
  }
  node {
    input: "view_138"
    output: "_log_softmax"
    name: "aten__log_softmax_13"
    op_type: "aten__log_softmax"
    attribute {
      name: "dim"
      i: 1
      type: INT
    }
    attribute {
      name: "half_to_float"
      i: 0
      type: INT
    }
    domain: "pkg.onnxscript.torch_lib"
  }
  node {
    output: "_val_119"
    name: "Constant_14"
    op_type: "Constant"
    attribute {
      name: "value"
      t {
        data_type: 7
        raw_data: "\234\377\377\377\377\377\377\377"
      }
      type: TENSOR
    }
  }
  node {
    input: "view_139"
    input: "_val_119"
    output: "ne_1"
    name: "aten_ne_15"
    op_type: "aten_ne"
    domain: "pkg.onnxscript.torch_lib"
  }
  node {
    output: "_val_121"
    name: "Constant_16"
    op_type: "Constant"
    attribute {
      name: "value"
      t {
        data_type: 7
        raw_data: "\000\000\000\000\000\000\000\000"
      }
      type: TENSOR
    }
  }
  node {
    input: "_val_121"
    output: "scalar_tensor"
    name: "aten_scalar_tensor_sym_number_17"
    op_type: "aten_scalar_tensor_sym_number"
    attribute {
      name: "dtype"
      i: 7
      type: INT
    }
    domain: "pkg.onnxscript.torch_lib"
  }
  node {
    input: "ne_1"
    input: "view_139"
    input: "scalar_tensor"
    output: "where"
    name: "aten_where_18"
    op_type: "aten_where"
    domain: "pkg.onnxscript.torch_lib"
  }
  node {
    input: "where"
    output: "unsqueeze_4"
    name: "aten_unsqueeze_19"
    op_type: "aten_unsqueeze"
    attribute {
      name: "dim"
      i: 1
      type: INT
    }
    domain: "pkg.onnxscript.torch_lib"
  }
  node {
    input: "_log_softmax"
    input: "unsqueeze_4"
    output: "gather"
    name: "aten_gather_20"
    op_type: "aten_gather"
    attribute {
      name: "dim"
      i: 1
      type: INT
    }
    attribute {
      name: "sparse_grad"
      i: 0
      type: INT
    }
    domain: "pkg.onnxscript.torch_lib"
  }
  node {
    input: "gather"
    output: "squeeze"
    name: "aten_squeeze_dim_21"
    op_type: "aten_squeeze_dim"
    attribute {
      name: "dim"
      i: 1
      type: INT
    }
    domain: "pkg.onnxscript.torch_lib"
  }
  node {
    input: "squeeze"
    output: "neg"
    name: "aten_neg_22"
    op_type: "aten_neg"
    domain: "pkg.onnxscript.torch_lib"
  }
  node {
    output: "_val_128"
    name: "Constant_23"
    op_type: "Constant"
    attribute {
      name: "value"
      t {
        data_type: 7
        raw_data: "\234\377\377\377\377\377\377\377"
      }
      type: TENSOR
    }
  }
  node {
    input: "view_139"
    input: "_val_128"
    output: "ne_2"
    name: "aten_ne_24"
    op_type: "aten_ne"
    domain: "pkg.onnxscript.torch_lib"
  }
  node {
    output: "_val_130"
    name: "Constant_25"
    op_type: "Constant"
    attribute {
      name: "value"
      t {
        data_type: 7
        raw_data: "\000\000\000\000\000\000\000\000"
      }
      type: TENSOR
    }
  }
  node {
    input: "_val_130"
    output: "scalar_tensor_1"
    name: "aten_scalar_tensor_sym_number_26"
    op_type: "aten_scalar_tensor_sym_number"
    attribute {
      name: "dtype"
      i: 1
      type: INT
    }
    domain: "pkg.onnxscript.torch_lib"
  }
  node {
    input: "ne_2"
    input: "neg"
    input: "scalar_tensor_1"
    output: "where_1"
    name: "aten_where_27"
    op_type: "aten_where"
    domain: "pkg.onnxscript.torch_lib"
  }
  node {
    output: "_val_133"
    name: "Constant_28"
    op_type: "Constant"
    attribute {
      name: "value"
      t {
        data_type: 7
        raw_data: "\234\377\377\377\377\377\377\377"
      }
      type: TENSOR
    }
  }
  node {
    input: "view_139"
    input: "_val_133"
    output: "ne_3"
    name: "aten_ne_29"
    op_type: "aten_ne"
    domain: "pkg.onnxscript.torch_lib"
  }
  node {
    input: "ne_3"
    output: "convert_element_type_default_1"
    name: "prims_convert_element_type_30"
    op_type: "prims_convert_element_type"
    attribute {
      name: "dtype"
      i: 7
      type: INT
    }
    domain: "pkg.onnxscript.torch_lib"
  }
  node {
    input: "convert_element_type_default_1"
    output: "sum_1"
    name: "_aten_sum_dim_none_31"
    op_type: "_aten_sum_dim_none"
    attribute {
      name: "keepdim"
      i: 0
      type: INT
    }
    domain: "pkg.onnxscript.torch_lib"
  }
  node {
    input: "sum_1"
    output: "convert_element_type_3"
    name: "prims_convert_element_type_32"
    op_type: "prims_convert_element_type"
    attribute {
      name: "dtype"
      i: 1
      type: INT
    }
    domain: "pkg.onnxscript.torch_lib"
  }
  node {
    input: "where_1"
    output: "sum_2"
    name: "_aten_sum_dim_none_33"
    op_type: "_aten_sum_dim_none"
    attribute {
      name: "keepdim"
      i: 0
      type: INT
    }
    domain: "pkg.onnxscript.torch_lib"
  }
  node {
    input: "sum_2"
    input: "convert_element_type_3"
    output: "div"
    name: "aten_div_34"
    op_type: "aten_div"
    domain: "pkg.onnxscript.torch_lib"
  }
  name: "main_graph"
  initializer {
    dims: 10000
    dims: 256
    data_type: 1
    name: "model.decoder.embed_tokens.weight"
    raw_data: ""
  }
  initializer {
    dims: 1026
    dims: 256
    data_type: 1
    name: "model.decoder.embed_positions.weights"
    raw_data: ""
  }
  initializer {
    dims: 256
    dims: 256
    data_type: 1
    name: "model.decoder.layers.0.self_attn.q_proj.weight"
    raw_data: ""
  }
  initializer {
    dims: 256
    data_type: 1
    name: "model.decoder.layers.0.self_attn.q_proj.bias"
    raw_data: ""
  }
  initializer {
    dims: 256
    dims: 256
    data_type: 1
    name: "model.decoder.layers.0.self_attn.k_proj.weight"
    raw_data: ""
  }
  initializer {
    dims: 256
    data_type: 1
    name: "model.decoder.layers.0.self_attn.k_proj.bias"
    raw_data: ""
  }
  initializer {
    dims: 256
    dims: 256
    data_type: 1
    name: "model.decoder.layers.0.self_attn.v_proj.weight"
    raw_data: ""
  }
  initializer {
    dims: 256
    data_type: 1
    name: "model.decoder.layers.0.self_attn.v_proj.bias"
    raw_data: ""
  }
  initializer {
    dims: 256
    dims: 256
    data_type: 1
    name: "model.decoder.layers.0.self_attn.out_proj.weight"
    raw_data: ""
  }
  initializer {
    dims: 256
    data_type: 1
    name: "model.decoder.layers.0.self_attn.out_proj.bias"
    raw_data: ""
  }
  initializer {
    dims: 256
    data_type: 1
    name: "model.decoder.layers.0.self_attn_layer_norm.weight"
    raw_data: ""
  }
  initializer {
    dims: 256
    data_type: 1
    name: "model.decoder.layers.0.self_attn_layer_norm.bias"
    raw_data: ""
  }
  initializer {
    dims: 2048
    dims: 256
    data_type: 1
    name: "model.decoder.layers.0.fc1.weight"
    raw_data: ""
  }
  initializer {
    dims: 2048
    data_type: 1
    name: "model.decoder.layers.0.fc1.bias"
    raw_data: ""
  }
  initializer {
    dims: 256
    dims: 2048
    data_type: 1
    name: "model.decoder.layers.0.fc2.weight"
    raw_data: ""
  }
  initializer {
    dims: 256
    data_type: 1
    name: "model.decoder.layers.0.fc2.bias"
    raw_data: ""
  }
  initializer {
    dims: 256
    data_type: 1
    name: "model.decoder.layers.0.final_layer_norm.weight"
    raw_data: ""
  }
  initializer {
    dims: 256
    data_type: 1
    name: "model.decoder.layers.0.final_layer_norm.bias"
    raw_data: ""
  }
  initializer {
    dims: 256
    dims: 256
    data_type: 1
    name: "model.decoder.layers.1.self_attn.q_proj.weight"
    raw_data: ""
  }
  initializer {
    dims: 256
    data_type: 1
    name: "model.decoder.layers.1.self_attn.q_proj.bias"
    raw_data: ""
  }
  initializer {
    dims: 256
    dims: 256
    data_type: 1
    name: "model.decoder.layers.1.self_attn.k_proj.weight"
    raw_data: ""
  }
  initializer {
    dims: 256
    data_type: 1
    name: "model.decoder.layers.1.self_attn.k_proj.bias"
    raw_data: ""
  }
  initializer {
    dims: 256
    dims: 256
    data_type: 1
    name: "model.decoder.layers.1.self_attn.v_proj.weight"
    raw_data: ""
  }
  initializer {
    dims: 256
    data_type: 1
    name: "model.decoder.layers.1.self_attn.v_proj.bias"
    raw_data: ""
  }
  initializer {
    dims: 256
    dims: 256
    data_type: 1
    name: "model.decoder.layers.1.self_attn.out_proj.weight"
    raw_data: ""
  }
  initializer {
    dims: 256
    data_type: 1
    name: "model.decoder.layers.1.self_attn.out_proj.bias"
    raw_data: ""
  }
  initializer {
    dims: 256
    data_type: 1
    name: "model.decoder.layers.1.self_attn_layer_norm.weight"
    raw_data: ""
  }
  initializer {
    dims: 256
    data_type: 1
    name: "model.decoder.layers.1.self_attn_layer_norm.bias"
    raw_data: ""
  }
  initializer {
    dims: 2048
    dims: 256
    data_type: 1
    name: "model.decoder.layers.1.fc1.weight"
    raw_data: ""
  }
  initializer {
    dims: 2048
    data_type: 1
    name: "model.decoder.layers.1.fc1.bias"
    raw_data: ""
  }
  initializer {
    dims: 256
    dims: 2048
    data_type: 1
    name: "model.decoder.layers.1.fc2.weight"
    raw_data: ""
  }
  initializer {
    dims: 256
    data_type: 1
    name: "model.decoder.layers.1.fc2.bias"
    raw_data: ""
  }
  initializer {
    dims: 256
    data_type: 1
    name: "model.decoder.layers.1.final_layer_norm.weight"
    raw_data: ""
  }
  initializer {
    dims: 256
    data_type: 1
    name: "model.decoder.layers.1.final_layer_norm.bias"
    raw_data: ""
  }
  initializer {
    dims: 256
    dims: 256
    data_type: 1
    name: "model.decoder.layers.2.self_attn.q_proj.weight"
    raw_data: ""
  }
  initializer {
    dims: 256
    data_type: 1
    name: "model.decoder.layers.2.self_attn.q_proj.bias"
    raw_data: ""
  }
  initializer {
    dims: 256
    dims: 256
    data_type: 1
    name: "model.decoder.layers.2.self_attn.k_proj.weight"
    raw_data: ""
  }
  initializer {
    dims: 256
    data_type: 1
    name: "model.decoder.layers.2.self_attn.k_proj.bias"
    raw_data: ""
  }
  initializer {
    dims: 256
    dims: 256
    data_type: 1
    name: "model.decoder.layers.2.self_attn.v_proj.weight"
    raw_data: ""
  }
  initializer {
    dims: 256
    data_type: 1
    name: "model.decoder.layers.2.self_attn.v_proj.bias"
    raw_data: ""
  }
  initializer {
    dims: 256
    dims: 256
    data_type: 1
    name: "model.decoder.layers.2.self_attn.out_proj.weight"
    raw_data: ""
  }
  initializer {
    dims: 256
    data_type: 1
    name: "model.decoder.layers.2.self_attn.out_proj.bias"
    raw_data: ""
  }
  initializer {
    dims: 256
    data_type: 1
    name: "model.decoder.layers.2.self_attn_layer_norm.weight"
    raw_data: ""
  }
  initializer {
    dims: 256
    data_type: 1
    name: "model.decoder.layers.2.self_attn_layer_norm.bias"
    raw_data: ""
  }
  initializer {
    dims: 2048
    dims: 256
    data_type: 1
    name: "model.decoder.layers.2.fc1.weight"
    raw_data: ""
  }
  initializer {
    dims: 2048
    data_type: 1
    name: "model.decoder.layers.2.fc1.bias"
    raw_data: ""
  }
  initializer {
    dims: 256
    dims: 2048
    data_type: 1
    name: "model.decoder.layers.2.fc2.weight"
    raw_data: ""
  }
  initializer {
    dims: 256
    data_type: 1
    name: "model.decoder.layers.2.fc2.bias"
    raw_data: ""
  }
  initializer {
    dims: 256
    data_type: 1
    name: "model.decoder.layers.2.final_layer_norm.weight"
    raw_data: ""
  }
  initializer {
    dims: 256
    data_type: 1
    name: "model.decoder.layers.2.final_layer_norm.bias"
    raw_data: ""
  }
  initializer {
    dims: 256
    dims: 256
    data_type: 1
    name: "model.decoder.layers.3.self_attn.q_proj.weight"
    raw_data: ""
  }
  initializer {
    dims: 256
    data_type: 1
    name: "model.decoder.layers.3.self_attn.q_proj.bias"
    raw_data: ""
  }
  initializer {
    dims: 256
    dims: 256
    data_type: 1
    name: "model.decoder.layers.3.self_attn.k_proj.weight"
    raw_data: ""
  }
  initializer {
    dims: 256
    data_type: 1
    name: "model.decoder.layers.3.self_attn.k_proj.bias"
    raw_data: ""
  }
  initializer {
    dims: 256
    dims: 256
    data_type: 1
    name: "model.decoder.layers.3.self_attn.v_proj.weight"
    raw_data: ""
  }
  initializer {
    dims: 256
    data_type: 1
    name: "model.decoder.layers.3.self_attn.v_proj.bias"
    raw_data: ""
  }
  initializer {
    dims: 256
    dims: 256
    data_type: 1
    name: "model.decoder.layers.3.self_attn.out_proj.weight"
    raw_data: ""
  }
  initializer {
    dims: 256
    data_type: 1
    name: "model.decoder.layers.3.self_attn.out_proj.bias"
    raw_data: ""
  }
  initializer {
    dims: 256
    data_type: 1
    name: "model.decoder.layers.3.self_attn_layer_norm.weight"
    raw_data: ""
  }
  initializer {
    dims: 256
    data_type: 1
    name: "model.decoder.layers.3.self_attn_layer_norm.bias"
    raw_data: ""
  }
  initializer {
    dims: 2048
    dims: 256
    data_type: 1
    name: "model.decoder.layers.3.fc1.weight"
    raw_data: ""
  }
  initializer {
    dims: 2048
    data_type: 1
    name: "model.decoder.layers.3.fc1.bias"
    raw_data: ""
  }
  initializer {
    dims: 256
    dims: 2048
    data_type: 1
    name: "model.decoder.layers.3.fc2.weight"
    raw_data: ""
  }
  initializer {
    dims: 256
    data_type: 1
    name: "model.decoder.layers.3.fc2.bias"
    raw_data: ""
  }
  initializer {
    dims: 256
    data_type: 1
    name: "model.decoder.layers.3.final_layer_norm.weight"
    raw_data: ""
  }
  initializer {
    dims: 256
    data_type: 1
    name: "model.decoder.layers.3.final_layer_norm.bias"
    raw_data: ""
  }
  initializer {
    dims: 256
    dims: 256
    data_type: 1
    name: "model.decoder.layers.4.self_attn.q_proj.weight"
    raw_data: ""
  }
  initializer {
    dims: 256
    data_type: 1
    name: "model.decoder.layers.4.self_attn.q_proj.bias"
    raw_data: ""
  }
  initializer {
    dims: 256
    dims: 256
    data_type: 1
    name: "model.decoder.layers.4.self_attn.k_proj.weight"
    raw_data: ""
  }
  initializer {
    dims: 256
    data_type: 1
    name: "model.decoder.layers.4.self_attn.k_proj.bias"
    raw_data: ""
  }
  initializer {
    dims: 256
    dims: 256
    data_type: 1
    name: "model.decoder.layers.4.self_attn.v_proj.weight"
    raw_data: ""
  }
  initializer {
    dims: 256
    data_type: 1
    name: "model.decoder.layers.4.self_attn.v_proj.bias"
    raw_data: ""
  }
  initializer {
    dims: 256
    dims: 256
    data_type: 1
    name: "model.decoder.layers.4.self_attn.out_proj.weight"
    raw_data: ""
  }
  initializer {
    dims: 256
    data_type: 1
    name: "model.decoder.layers.4.self_attn.out_proj.bias"
    raw_data: ""
  }
  initializer {
    dims: 256
    data_type: 1
    name: "model.decoder.layers.4.self_attn_layer_norm.weight"
    raw_data: ""
  }
  initializer {
    dims: 256
    data_type: 1
    name: "model.decoder.layers.4.self_attn_layer_norm.bias"
    raw_data: ""
  }
  initializer {
    dims: 2048
    dims: 256
    data_type: 1
    name: "model.decoder.layers.4.fc1.weight"
    raw_data: ""
  }
  initializer {
    dims: 2048
    data_type: 1
    name: "model.decoder.layers.4.fc1.bias"
    raw_data: ""
  }
  initializer {
    dims: 256
    dims: 2048
    data_type: 1
    name: "model.decoder.layers.4.fc2.weight"
    raw_data: ""
  }
  initializer {
    dims: 256
    data_type: 1
    name: "model.decoder.layers.4.fc2.bias"
    raw_data: ""
  }
  initializer {
    dims: 256
    data_type: 1
    name: "model.decoder.layers.4.final_layer_norm.weight"
    raw_data: ""
  }
  initializer {
    dims: 256
    data_type: 1
    name: "model.decoder.layers.4.final_layer_norm.bias"
    raw_data: ""
  }
  initializer {
    dims: 256
    dims: 256
    data_type: 1
    name: "model.decoder.layers.5.self_attn.q_proj.weight"
    raw_data: ""
  }
  initializer {
    dims: 256
    data_type: 1
    name: "model.decoder.layers.5.self_attn.q_proj.bias"
    raw_data: ""
  }
  initializer {
    dims: 256
    dims: 256
    data_type: 1
    name: "model.decoder.layers.5.self_attn.k_proj.weight"
    raw_data: ""
  }
  initializer {
    dims: 256
    data_type: 1
    name: "model.decoder.layers.5.self_attn.k_proj.bias"
    raw_data: ""
  }
  initializer {
    dims: 256
    dims: 256
    data_type: 1
    name: "model.decoder.layers.5.self_attn.v_proj.weight"
    raw_data: ""
  }
  initializer {
    dims: 256
    data_type: 1
    name: "model.decoder.layers.5.self_attn.v_proj.bias"
    raw_data: ""
  }
  initializer {
    dims: 256
    dims: 256
    data_type: 1
    name: "model.decoder.layers.5.self_attn.out_proj.weight"
    raw_data: ""
  }
  initializer {
    dims: 256
    data_type: 1
    name: "model.decoder.layers.5.self_attn.out_proj.bias"
    raw_data: ""
  }
  initializer {
    dims: 256
    data_type: 1
    name: "model.decoder.layers.5.self_attn_layer_norm.weight"
    raw_data: ""
  }
  initializer {
    dims: 256
    data_type: 1
    name: "model.decoder.layers.5.self_attn_layer_norm.bias"
    raw_data: ""
  }
  initializer {
    dims: 2048
    dims: 256
    data_type: 1
    name: "model.decoder.layers.5.fc1.weight"
    raw_data: ""
  }
  initializer {
    dims: 2048
    data_type: 1
    name: "model.decoder.layers.5.fc1.bias"
    raw_data: ""
  }
  initializer {
    dims: 256
    dims: 2048
    data_type: 1
    name: "model.decoder.layers.5.fc2.weight"
    raw_data: ""
  }
  initializer {
    dims: 256
    data_type: 1
    name: "model.decoder.layers.5.fc2.bias"
    raw_data: ""
  }
  initializer {
    dims: 256
    data_type: 1
    name: "model.decoder.layers.5.final_layer_norm.weight"
    raw_data: ""
  }
  initializer {
    dims: 256
    data_type: 1
    name: "model.decoder.layers.5.final_layer_norm.bias"
    raw_data: ""
  }
  input {
    name: "l_input_ids_"
    type {
      tensor_type {
        elem_type: 7
        shape {
          dim {
            dim_value: 1
          }
          dim {
            dim_value: 128
          }
        }
      }
    }
  }
  input {
    name: "l_labels_"
    type {
      tensor_type {
        elem_type: 7
        shape {
          dim {
            dim_value: 1
          }
          dim {
            dim_value: 128
          }
        }
      }
    }
  }
  output {
    name: "div"
    type {
      tensor_type {
        elem_type: 1
        shape {
        }
      }
    }
  }
  output {
    name: "lm_head_1"
    type {
      tensor_type {
        elem_type: 1
        shape {
          dim {
            dim_value: 1
          }
          dim {
            dim_value: 128
          }
          dim {
            dim_value: 10000
          }
        }
      }
    }
  }
  output {
    name: "model_decoder_1"
    type {
      tensor_type {
        elem_type: 1
        shape {
          dim {
            dim_value: 1
          }
          dim {
            dim_value: 4
          }
          dim {
            dim_value: 128
          }
          dim {
            dim_value: 64
          }
        }
      }
    }
  }
  output {
    name: "model_decoder_1_1"
    type {
      tensor_type {
        elem_type: 1
        shape {
          dim {
            dim_value: 1
          }
          dim {
            dim_value: 4
          }
          dim {
            dim_value: 128
          }
          dim {
            dim_value: 64
          }
        }
      }
    }
  }
  output {
    name: "model_decoder_1_2"
    type {
      tensor_type {
        elem_type: 1
        shape {
          dim {
            dim_value: 1
          }
          dim {
            dim_value: 4
          }
          dim {
            dim_value: 128
          }
          dim {
            dim_value: 64
          }
        }
      }
    }
  }
  output {
    name: "model_decoder_1_3"
    type {
      tensor_type {
        elem_type: 1
        shape {
          dim {
            dim_value: 1
          }
          dim {
            dim_value: 4
          }
          dim {
            dim_value: 128
          }
          dim {
            dim_value: 64
          }
        }
      }
    }
  }
  output {
    name: "model_decoder_1_4"
    type {
      tensor_type {
        elem_type: 1
        shape {
          dim {
            dim_value: 1
          }
          dim {
            dim_value: 4
          }
          dim {
            dim_value: 128
          }
          dim {
            dim_value: 64
          }
        }
      }
    }
  }
  output {
    name: "model_decoder_1_5"
    type {
      tensor_type {
        elem_type: 1
        shape {
          dim {
            dim_value: 1
          }
          dim {
            dim_value: 4
          }
          dim {
            dim_value: 128
          }
          dim {
            dim_value: 64
          }
        }
      }
    }
  }
  output {
    name: "model_decoder_1_6"
    type {
      tensor_type {
        elem_type: 1
        shape {
          dim {
            dim_value: 1
          }
          dim {
            dim_value: 4
          }
          dim {
            dim_value: 128
          }
          dim {
            dim_value: 64
          }
        }
      }
    }
  }
  output {
    name: "model_decoder_1_7"
    type {
      tensor_type {
        elem_type: 1
        shape {
          dim {
            dim_value: 1
          }
          dim {
            dim_value: 4
          }
          dim {
            dim_value: 128
          }
          dim {
            dim_value: 64
          }
        }
      }
    }
  }
  output {
    name: "model_decoder_1_8"
    type {
      tensor_type {
        elem_type: 1
        shape {
          dim {
            dim_value: 1
          }
          dim {
            dim_value: 4
          }
          dim {
            dim_value: 128
          }
          dim {
            dim_value: 64
          }
        }
      }
    }
  }
  output {
    name: "model_decoder_1_9"
    type {
      tensor_type {
        elem_type: 1
        shape {
          dim {
            dim_value: 1
          }
          dim {
            dim_value: 4
          }
          dim {
            dim_value: 128
          }
          dim {
            dim_value: 64
          }
        }
      }
    }
  }
  output {
    name: "model_decoder_1_10"
    type {
      tensor_type {
        elem_type: 1
        shape {
          dim {
            dim_value: 1
          }
          dim {
            dim_value: 4
          }
          dim {
            dim_value: 128
          }
          dim {
            dim_value: 64
          }
        }
      }
    }
  }
  output {
    name: "model_decoder_1_11"
    type {
      tensor_type {
        elem_type: 1
        shape {
          dim {
            dim_value: 1
          }
          dim {
            dim_value: 4
          }
          dim {
            dim_value: 128
          }
          dim {
            dim_value: 64
          }
        }
      }
    }
  }
  value_info {
    name: "model.decoder.embed_tokens.weight"
    type {
      tensor_type {
        elem_type: 1
        shape {
          dim {
            dim_value: 10000
          }
          dim {
            dim_value: 256
          }
        }
      }
    }
  }
  value_info {
    name: "model.decoder.embed_positions.weights"
    type {
      tensor_type {
        elem_type: 1
        shape {
          dim {
            dim_value: 1026
          }
          dim {
            dim_value: 256
          }
        }
      }
    }
  }
  value_info {
    name: "model.decoder.layers.0.self_attn.q_proj.weight"
    type {
      tensor_type {
        elem_type: 1
        shape {
          dim {
            dim_value: 256
          }
          dim {
            dim_value: 256
          }
        }
      }
    }
  }
  value_info {
    name: "model.decoder.layers.0.self_attn.q_proj.bias"
    type {
      tensor_type {
        elem_type: 1
        shape {
          dim {
            dim_value: 256
          }
        }
      }
    }
  }
  value_info {
    name: "model.decoder.layers.0.self_attn.k_proj.weight"
    type {
      tensor_type {
        elem_type: 1
        shape {
          dim {
            dim_value: 256
          }
          dim {
            dim_value: 256
          }
        }
      }
    }
  }
  value_info {
    name: "model.decoder.layers.0.self_attn.k_proj.bias"
    type {
      tensor_type {
        elem_type: 1
        shape {
          dim {
            dim_value: 256
          }
        }
      }
    }
  }
  value_info {
    name: "model.decoder.layers.0.self_attn.v_proj.weight"
    type {
      tensor_type {
        elem_type: 1
        shape {
          dim {
            dim_value: 256
          }
          dim {
            dim_value: 256
          }
        }
      }
    }
  }
  value_info {
    name: "model.decoder.layers.0.self_attn.v_proj.bias"
    type {
      tensor_type {
        elem_type: 1
        shape {
          dim {
            dim_value: 256
          }
        }
      }
    }
  }
  value_info {
    name: "model.decoder.layers.0.self_attn.out_proj.weight"
    type {
      tensor_type {
        elem_type: 1
        shape {
          dim {
            dim_value: 256
          }
          dim {
            dim_value: 256
          }
        }
      }
    }
  }
  value_info {
    name: "model.decoder.layers.0.self_attn.out_proj.bias"
    type {
      tensor_type {
        elem_type: 1
        shape {
          dim {
            dim_value: 256
          }
        }
      }
    }
  }
  value_info {
    name: "model.decoder.layers.0.self_attn_layer_norm.weight"
    type {
      tensor_type {
        elem_type: 1
        shape {
          dim {
            dim_value: 256
          }
        }
      }
    }
  }
  value_info {
    name: "model.decoder.layers.0.self_attn_layer_norm.bias"
    type {
      tensor_type {
        elem_type: 1
        shape {
          dim {
            dim_value: 256
          }
        }
      }
    }
  }
  value_info {
    name: "model.decoder.layers.0.fc1.weight"
    type {
      tensor_type {
        elem_type: 1
        shape {
          dim {
            dim_value: 2048
          }
          dim {
            dim_value: 256
          }
        }
      }
    }
  }
  value_info {
    name: "model.decoder.layers.0.fc1.bias"
    type {
      tensor_type {
        elem_type: 1
        shape {
          dim {
            dim_value: 2048
          }
        }
      }
    }
  }
  value_info {
    name: "model.decoder.layers.0.fc2.weight"
    type {
      tensor_type {
        elem_type: 1
        shape {
          dim {
            dim_value: 256
          }
          dim {
            dim_value: 2048
          }
        }
      }
    }
  }
  value_info {
    name: "model.decoder.layers.0.fc2.bias"
    type {
      tensor_type {
        elem_type: 1
        shape {
          dim {
            dim_value: 256
          }
        }
      }
    }
  }
  value_info {
    name: "model.decoder.layers.0.final_layer_norm.weight"
    type {
      tensor_type {
        elem_type: 1
        shape {
          dim {
            dim_value: 256
          }
        }
      }
    }
  }
  value_info {
    name: "model.decoder.layers.0.final_layer_norm.bias"
    type {
      tensor_type {
        elem_type: 1
        shape {
          dim {
            dim_value: 256
          }
        }
      }
    }
  }
  value_info {
    name: "model.decoder.layers.1.self_attn.q_proj.weight"
    type {
      tensor_type {
        elem_type: 1
        shape {
          dim {
            dim_value: 256
          }
          dim {
            dim_value: 256
          }
        }
      }
    }
  }
  value_info {
    name: "model.decoder.layers.1.self_attn.q_proj.bias"
    type {
      tensor_type {
        elem_type: 1
        shape {
          dim {
            dim_value: 256
          }
        }
      }
    }
  }
  value_info {
    name: "model.decoder.layers.1.self_attn.k_proj.weight"
    type {
      tensor_type {
        elem_type: 1
        shape {
          dim {
            dim_value: 256
          }
          dim {
            dim_value: 256
          }
        }
      }
    }
  }
  value_info {
    name: "model.decoder.layers.1.self_attn.k_proj.bias"
    type {
      tensor_type {
        elem_type: 1
        shape {
          dim {
            dim_value: 256
          }
        }
      }
    }
  }
  value_info {
    name: "model.decoder.layers.1.self_attn.v_proj.weight"
    type {
      tensor_type {
        elem_type: 1
        shape {
          dim {
            dim_value: 256
          }
          dim {
            dim_value: 256
          }
        }
      }
    }
  }
  value_info {
    name: "model.decoder.layers.1.self_attn.v_proj.bias"
    type {
      tensor_type {
        elem_type: 1
        shape {
          dim {
            dim_value: 256
          }
        }
      }
    }
  }
  value_info {
    name: "model.decoder.layers.1.self_attn.out_proj.weight"
    type {
      tensor_type {
        elem_type: 1
        shape {
          dim {
            dim_value: 256
          }
          dim {
            dim_value: 256
          }
        }
      }
    }
  }
  value_info {
    name: "model.decoder.layers.1.self_attn.out_proj.bias"
    type {
      tensor_type {
        elem_type: 1
        shape {
          dim {
            dim_value: 256
          }
        }
      }
    }
  }
  value_info {
    name: "model.decoder.layers.1.self_attn_layer_norm.weight"
    type {
      tensor_type {
        elem_type: 1
        shape {
          dim {
            dim_value: 256
          }
        }
      }
    }
  }
  value_info {
    name: "model.decoder.layers.1.self_attn_layer_norm.bias"
    type {
      tensor_type {
        elem_type: 1
        shape {
          dim {
            dim_value: 256
          }
        }
      }
    }
  }
  value_info {
    name: "model.decoder.layers.1.fc1.weight"
    type {
      tensor_type {
        elem_type: 1
        shape {
          dim {
            dim_value: 2048
          }
          dim {
            dim_value: 256
          }
        }
      }
    }
  }
  value_info {
    name: "model.decoder.layers.1.fc1.bias"
    type {
      tensor_type {
        elem_type: 1
        shape {
          dim {
            dim_value: 2048
          }
        }
      }
    }
  }
  value_info {
    name: "model.decoder.layers.1.fc2.weight"
    type {
      tensor_type {
        elem_type: 1
        shape {
          dim {
            dim_value: 256
          }
          dim {
            dim_value: 2048
          }
        }
      }
    }
  }
  value_info {
    name: "model.decoder.layers.1.fc2.bias"
    type {
      tensor_type {
        elem_type: 1
        shape {
          dim {
            dim_value: 256
          }
        }
      }
    }
  }
  value_info {
    name: "model.decoder.layers.1.final_layer_norm.weight"
    type {
      tensor_type {
        elem_type: 1
        shape {
          dim {
            dim_value: 256
          }
        }
      }
    }
  }
  value_info {
    name: "model.decoder.layers.1.final_layer_norm.bias"
    type {
      tensor_type {
        elem_type: 1
        shape {
          dim {
            dim_value: 256
          }
        }
      }
    }
  }
  value_info {
    name: "model.decoder.layers.2.self_attn.q_proj.weight"
    type {
      tensor_type {
        elem_type: 1
        shape {
          dim {
            dim_value: 256
          }
          dim {
            dim_value: 256
          }
        }
      }
    }
  }
  value_info {
    name: "model.decoder.layers.2.self_attn.q_proj.bias"
    type {
      tensor_type {
        elem_type: 1
        shape {
          dim {
            dim_value: 256
          }
        }
      }
    }
  }
  value_info {
    name: "model.decoder.layers.2.self_attn.k_proj.weight"
    type {
      tensor_type {
        elem_type: 1
        shape {
          dim {
            dim_value: 256
          }
          dim {
            dim_value: 256
          }
        }
      }
    }
  }
  value_info {
    name: "model.decoder.layers.2.self_attn.k_proj.bias"
    type {
      tensor_type {
        elem_type: 1
        shape {
          dim {
            dim_value: 256
          }
        }
      }
    }
  }
  value_info {
    name: "model.decoder.layers.2.self_attn.v_proj.weight"
    type {
      tensor_type {
        elem_type: 1
        shape {
          dim {
            dim_value: 256
          }
          dim {
            dim_value: 256
          }
        }
      }
    }
  }
  value_info {
    name: "model.decoder.layers.2.self_attn.v_proj.bias"
    type {
      tensor_type {
        elem_type: 1
        shape {
          dim {
            dim_value: 256
          }
        }
      }
    }
  }
  value_info {
    name: "model.decoder.layers.2.self_attn.out_proj.weight"
    type {
      tensor_type {
        elem_type: 1
        shape {
          dim {
            dim_value: 256
          }
          dim {
            dim_value: 256
          }
        }
      }
    }
  }
  value_info {
    name: "model.decoder.layers.2.self_attn.out_proj.bias"
    type {
      tensor_type {
        elem_type: 1
        shape {
          dim {
            dim_value: 256
          }
        }
      }
    }
  }
  value_info {
    name: "model.decoder.layers.2.self_attn_layer_norm.weight"
    type {
      tensor_type {
        elem_type: 1
        shape {
          dim {
            dim_value: 256
          }
        }
      }
    }
  }
  value_info {
    name: "model.decoder.layers.2.self_attn_layer_norm.bias"
    type {
      tensor_type {
        elem_type: 1
        shape {
          dim {
            dim_value: 256
          }
        }
      }
    }
  }
  value_info {
    name: "model.decoder.layers.2.fc1.weight"
    type {
      tensor_type {
        elem_type: 1
        shape {
          dim {
            dim_value: 2048
          }
          dim {
            dim_value: 256
          }
        }
      }
    }
  }
  value_info {
    name: "model.decoder.layers.2.fc1.bias"
    type {
      tensor_type {
        elem_type: 1
        shape {
          dim {
            dim_value: 2048
          }
        }
      }
    }
  }
  value_info {
    name: "model.decoder.layers.2.fc2.weight"
    type {
      tensor_type {
        elem_type: 1
        shape {
          dim {
            dim_value: 256
          }
          dim {
            dim_value: 2048
          }
        }
      }
    }
  }
  value_info {
    name: "model.decoder.layers.2.fc2.bias"
    type {
      tensor_type {
        elem_type: 1
        shape {
          dim {
            dim_value: 256
          }
        }
      }
    }
  }
  value_info {
    name: "model.decoder.layers.2.final_layer_norm.weight"
    type {
      tensor_type {
        elem_type: 1
        shape {
          dim {
            dim_value: 256
          }
        }
      }
    }
  }
  value_info {
    name: "model.decoder.layers.2.final_layer_norm.bias"
    type {
      tensor_type {
        elem_type: 1
        shape {
          dim {
            dim_value: 256
          }
        }
      }
    }
  }
  value_info {
    name: "model.decoder.layers.3.self_attn.q_proj.weight"
    type {
      tensor_type {
        elem_type: 1
        shape {
          dim {
            dim_value: 256
          }
          dim {
            dim_value: 256
          }
        }
      }
    }
  }
  value_info {
    name: "model.decoder.layers.3.self_attn.q_proj.bias"
    type {
      tensor_type {
        elem_type: 1
        shape {
          dim {
            dim_value: 256
          }
        }
      }
    }
  }
  value_info {
    name: "model.decoder.layers.3.self_attn.k_proj.weight"
    type {
      tensor_type {
        elem_type: 1
        shape {
          dim {
            dim_value: 256
          }
          dim {
            dim_value: 256
          }
        }
      }
    }
  }
  value_info {
    name: "model.decoder.layers.3.self_attn.k_proj.bias"
    type {
      tensor_type {
        elem_type: 1
        shape {
          dim {
            dim_value: 256
          }
        }
      }
    }
  }
  value_info {
    name: "model.decoder.layers.3.self_attn.v_proj.weight"
    type {
      tensor_type {
        elem_type: 1
        shape {
          dim {
            dim_value: 256
          }
          dim {
            dim_value: 256
          }
        }
      }
    }
  }
  value_info {
    name: "model.decoder.layers.3.self_attn.v_proj.bias"
    type {
      tensor_type {
        elem_type: 1
        shape {
          dim {
            dim_value: 256
          }
        }
      }
    }
  }
  value_info {
    name: "model.decoder.layers.3.self_attn.out_proj.weight"
    type {
      tensor_type {
        elem_type: 1
        shape {
          dim {
            dim_value: 256
          }
          dim {
            dim_value: 256
          }
        }
      }
    }
  }
  value_info {
    name: "model.decoder.layers.3.self_attn.out_proj.bias"
    type {
      tensor_type {
        elem_type: 1
        shape {
          dim {
            dim_value: 256
          }
        }
      }
    }
  }
  value_info {
    name: "model.decoder.layers.3.self_attn_layer_norm.weight"
    type {
      tensor_type {
        elem_type: 1
        shape {
          dim {
            dim_value: 256
          }
        }
      }
    }
  }
  value_info {
    name: "model.decoder.layers.3.self_attn_layer_norm.bias"
    type {
      tensor_type {
        elem_type: 1
        shape {
          dim {
            dim_value: 256
          }
        }
      }
    }
  }
  value_info {
    name: "model.decoder.layers.3.fc1.weight"
    type {
      tensor_type {
        elem_type: 1
        shape {
          dim {
            dim_value: 2048
          }
          dim {
            dim_value: 256
          }
        }
      }
    }
  }
  value_info {
    name: "model.decoder.layers.3.fc1.bias"
    type {
      tensor_type {
        elem_type: 1
        shape {
          dim {
            dim_value: 2048
          }
        }
      }
    }
  }
  value_info {
    name: "model.decoder.layers.3.fc2.weight"
    type {
      tensor_type {
        elem_type: 1
        shape {
          dim {
            dim_value: 256
          }
          dim {
            dim_value: 2048
          }
        }
      }
    }
  }
  value_info {
    name: "model.decoder.layers.3.fc2.bias"
    type {
      tensor_type {
        elem_type: 1
        shape {
          dim {
            dim_value: 256
          }
        }
      }
    }
  }
  value_info {
    name: "model.decoder.layers.3.final_layer_norm.weight"
    type {
      tensor_type {
        elem_type: 1
        shape {
          dim {
            dim_value: 256
          }
        }
      }
    }
  }
  value_info {
    name: "model.decoder.layers.3.final_layer_norm.bias"
    type {
      tensor_type {
        elem_type: 1
        shape {
          dim {
            dim_value: 256
          }
        }
      }
    }
  }
  value_info {
    name: "model.decoder.layers.4.self_attn.q_proj.weight"
    type {
      tensor_type {
        elem_type: 1
        shape {
          dim {
            dim_value: 256
          }
          dim {
            dim_value: 256
          }
        }
      }
    }
  }
  value_info {
    name: "model.decoder.layers.4.self_attn.q_proj.bias"
    type {
      tensor_type {
        elem_type: 1
        shape {
          dim {
            dim_value: 256
          }
        }
      }
    }
  }
  value_info {
    name: "model.decoder.layers.4.self_attn.k_proj.weight"
    type {
      tensor_type {
        elem_type: 1
        shape {
          dim {
            dim_value: 256
          }
          dim {
            dim_value: 256
          }
        }
      }
    }
  }
  value_info {
    name: "model.decoder.layers.4.self_attn.k_proj.bias"
    type {
      tensor_type {
        elem_type: 1
        shape {
          dim {
            dim_value: 256
          }
        }
      }
    }
  }
  value_info {
    name: "model.decoder.layers.4.self_attn.v_proj.weight"
    type {
      tensor_type {
        elem_type: 1
        shape {
          dim {
            dim_value: 256
          }
          dim {
            dim_value: 256
          }
        }
      }
    }
  }
  value_info {
    name: "model.decoder.layers.4.self_attn.v_proj.bias"
    type {
      tensor_type {
        elem_type: 1
        shape {
          dim {
            dim_value: 256
          }
        }
      }
    }
  }
  value_info {
    name: "model.decoder.layers.4.self_attn.out_proj.weight"
    type {
      tensor_type {
        elem_type: 1
        shape {
          dim {
            dim_value: 256
          }
          dim {
            dim_value: 256
          }
        }
      }
    }
  }
  value_info {
    name: "model.decoder.layers.4.self_attn.out_proj.bias"
    type {
      tensor_type {
        elem_type: 1
        shape {
          dim {
            dim_value: 256
          }
        }
      }
    }
  }
  value_info {
    name: "model.decoder.layers.4.self_attn_layer_norm.weight"
    type {
      tensor_type {
        elem_type: 1
        shape {
          dim {
            dim_value: 256
          }
        }
      }
    }
  }
  value_info {
    name: "model.decoder.layers.4.self_attn_layer_norm.bias"
    type {
      tensor_type {
        elem_type: 1
        shape {
          dim {
            dim_value: 256
          }
        }
      }
    }
  }
  value_info {
    name: "model.decoder.layers.4.fc1.weight"
    type {
      tensor_type {
        elem_type: 1
        shape {
          dim {
            dim_value: 2048
          }
          dim {
            dim_value: 256
          }
        }
      }
    }
  }
  value_info {
    name: "model.decoder.layers.4.fc1.bias"
    type {
      tensor_type {
        elem_type: 1
        shape {
          dim {
            dim_value: 2048
          }
        }
      }
    }
  }
  value_info {
    name: "model.decoder.layers.4.fc2.weight"
    type {
      tensor_type {
        elem_type: 1
        shape {
          dim {
            dim_value: 256
          }
          dim {
            dim_value: 2048
          }
        }
      }
    }
  }
  value_info {
    name: "model.decoder.layers.4.fc2.bias"
    type {
      tensor_type {
        elem_type: 1
        shape {
          dim {
            dim_value: 256
          }
        }
      }
    }
  }
  value_info {
    name: "model.decoder.layers.4.final_layer_norm.weight"
    type {
      tensor_type {
        elem_type: 1
        shape {
          dim {
            dim_value: 256
          }
        }
      }
    }
  }
  value_info {
    name: "model.decoder.layers.4.final_layer_norm.bias"
    type {
      tensor_type {
        elem_type: 1
        shape {
          dim {
            dim_value: 256
          }
        }
      }
    }
  }
  value_info {
    name: "model.decoder.layers.5.self_attn.q_proj.weight"
    type {
      tensor_type {
        elem_type: 1
        shape {
          dim {
            dim_value: 256
          }
          dim {
            dim_value: 256
          }
        }
      }
    }
  }
  value_info {
    name: "model.decoder.layers.5.self_attn.q_proj.bias"
    type {
      tensor_type {
        elem_type: 1
        shape {
          dim {
            dim_value: 256
          }
        }
      }
    }
  }
  value_info {
    name: "model.decoder.layers.5.self_attn.k_proj.weight"
    type {
      tensor_type {
        elem_type: 1
        shape {
          dim {
            dim_value: 256
          }
          dim {
            dim_value: 256
          }
        }
      }
    }
  }
  value_info {
    name: "model.decoder.layers.5.self_attn.k_proj.bias"
    type {
      tensor_type {
        elem_type: 1
        shape {
          dim {
            dim_value: 256
          }
        }
      }
    }
  }
  value_info {
    name: "model.decoder.layers.5.self_attn.v_proj.weight"
    type {
      tensor_type {
        elem_type: 1
        shape {
          dim {
            dim_value: 256
          }
          dim {
            dim_value: 256
          }
        }
      }
    }
  }
  value_info {
    name: "model.decoder.layers.5.self_attn.v_proj.bias"
    type {
      tensor_type {
        elem_type: 1
        shape {
          dim {
            dim_value: 256
          }
        }
      }
    }
  }
  value_info {
    name: "model.decoder.layers.5.self_attn.out_proj.weight"
    type {
      tensor_type {
        elem_type: 1
        shape {
          dim {
            dim_value: 256
          }
          dim {
            dim_value: 256
          }
        }
      }
    }
  }
  value_info {
    name: "model.decoder.layers.5.self_attn.out_proj.bias"
    type {
      tensor_type {
        elem_type: 1
        shape {
          dim {
            dim_value: 256
          }
        }
      }
    }
  }
  value_info {
    name: "model.decoder.layers.5.self_attn_layer_norm.weight"
    type {
      tensor_type {
        elem_type: 1
        shape {
          dim {
            dim_value: 256
          }
        }
      }
    }
  }
  value_info {
    name: "model.decoder.layers.5.self_attn_layer_norm.bias"
    type {
      tensor_type {
        elem_type: 1
        shape {
          dim {
            dim_value: 256
          }
        }
      }
    }
  }
  value_info {
    name: "model.decoder.layers.5.fc1.weight"
    type {
      tensor_type {
        elem_type: 1
        shape {
          dim {
            dim_value: 2048
          }
          dim {
            dim_value: 256
          }
        }
      }
    }
  }
  value_info {
    name: "model.decoder.layers.5.fc1.bias"
    type {
      tensor_type {
        elem_type: 1
        shape {
          dim {
            dim_value: 2048
          }
        }
      }
    }
  }
  value_info {
    name: "model.decoder.layers.5.fc2.weight"
    type {
      tensor_type {
        elem_type: 1
        shape {
          dim {
            dim_value: 256
          }
          dim {
            dim_value: 2048
          }
        }
      }
    }
  }
  value_info {
    name: "model.decoder.layers.5.fc2.bias"
    type {
      tensor_type {
        elem_type: 1
        shape {
          dim {
            dim_value: 256
          }
        }
      }
    }
  }
  value_info {
    name: "model.decoder.layers.5.final_layer_norm.weight"
    type {
      tensor_type {
        elem_type: 1
        shape {
          dim {
            dim_value: 256
          }
        }
      }
    }
  }
  value_info {
    name: "model.decoder.layers.5.final_layer_norm.bias"
    type {
      tensor_type {
        elem_type: 1
        shape {
          dim {
            dim_value: 256
          }
        }
      }
    }
  }
  value_info {
    name: "model_decoder_1_12"
    type {
      tensor_type {
        elem_type: 1
        shape {
          dim {
            dim_value: 1
          }
          dim {
            dim_value: 128
          }
          dim {
            dim_value: 256
          }
        }
      }
    }
  }
  value_info {
    name: "_val_114"
    type {
      tensor_type {
        elem_type: 7
        shape {
          dim {
            dim_value: 2
          }
        }
      }
    }
  }
  value_info {
    name: "view_138"
    type {
      tensor_type {
        elem_type: 1
        shape {
          dim {
            dim_value: 128
          }
          dim {
            dim_value: 10000
          }
        }
      }
    }
  }
  value_info {
    name: "_val_116"
    type {
      tensor_type {
        elem_type: 7
        shape {
          dim {
            dim_value: 1
          }
        }
      }
    }
  }
  value_info {
    name: "view_139"
    type {
      tensor_type {
        elem_type: 7
        shape {
          dim {
            dim_value: 128
          }
        }
      }
    }
  }
  value_info {
    name: "_log_softmax"
    type {
      tensor_type {
        elem_type: 1
        shape {
          dim {
            dim_value: 128
          }
          dim {
            dim_value: 10000
          }
        }
      }
    }
  }
  value_info {
    name: "_val_119"
    type {
      tensor_type {
        elem_type: 7
        shape {
        }
      }
    }
  }
  value_info {
    name: "ne_1"
    type {
      tensor_type {
        elem_type: 9
        shape {
          dim {
            dim_value: 128
          }
        }
      }
    }
  }
  value_info {
    name: "_val_121"
    type {
      tensor_type {
        elem_type: 7
        shape {
        }
      }
    }
  }
  value_info {
    name: "scalar_tensor"
    type {
      tensor_type {
        elem_type: 7
        shape {
        }
      }
    }
  }
  value_info {
    name: "where"
    type {
      tensor_type {
        elem_type: 7
        shape {
          dim {
            dim_value: 128
          }
        }
      }
    }
  }
  value_info {
    name: "unsqueeze_4"
    type {
      tensor_type {
        elem_type: 7
        shape {
          dim {
            dim_value: 128
          }
          dim {
            dim_value: 1
          }
        }
      }
    }
  }
  value_info {
    name: "gather"
    type {
      tensor_type {
        elem_type: 1
        shape {
          dim {
            dim_value: 128
          }
          dim {
            dim_value: 1
          }
        }
      }
    }
  }
  value_info {
    name: "squeeze"
    type {
      tensor_type {
        elem_type: 1
        shape {
          dim {
            dim_value: 128
          }
        }
      }
    }
  }
  value_info {
    name: "neg"
    type {
      tensor_type {
        elem_type: 1
        shape {
          dim {
            dim_value: 128
          }
        }
      }
    }
  }
  value_info {
    name: "_val_128"
    type {
      tensor_type {
        elem_type: 7
        shape {
        }
      }
    }
  }
  value_info {
    name: "ne_2"
    type {
      tensor_type {
        elem_type: 9
        shape {
          dim {
            dim_value: 128
          }
        }
      }
    }
  }
  value_info {
    name: "_val_130"
    type {
      tensor_type {
        elem_type: 7
        shape {
        }
      }
    }
  }
  value_info {
    name: "scalar_tensor_1"
    type {
      tensor_type {
        elem_type: 1
        shape {
        }
      }
    }
  }
  value_info {
    name: "where_1"
    type {
      tensor_type {
        elem_type: 1
        shape {
          dim {
            dim_value: 128
          }
        }
      }
    }
  }
  value_info {
    name: "_val_133"
    type {
      tensor_type {
        elem_type: 7
        shape {
        }
      }
    }
  }
  value_info {
    name: "ne_3"
    type {
      tensor_type {
        elem_type: 9
        shape {
          dim {
            dim_value: 128
          }
        }
      }
    }
  }
  value_info {
    name: "convert_element_type_default_1"
    type {
      tensor_type {
        elem_type: 7
        shape {
          dim {
            dim_value: 128
          }
        }
      }
    }
  }
  value_info {
    name: "sum_1"
    type {
      tensor_type {
        elem_type: 7
        shape {
        }
      }
    }
  }
  value_info {
    name: "convert_element_type_3"
    type {
      tensor_type {
        elem_type: 1
        shape {
        }
      }
    }
  }
  value_info {
    name: "sum_2"
    type {
      tensor_type {
        elem_type: 1
        shape {
        }
      }
    }
  }
  value_info {
    name: "pkg.torch.2.2.0a0+git63d65dd::torch_nn_modules_sparse_Embedding_model_decoder_embed_tokens_1/view"
    type {
      tensor_type {
        elem_type: 7
        shape {
          dim {
            dim_value: 1
          }
          dim {
            dim_value: 128
          }
        }
      }
    }
  }
  value_info {
    name: "pkg.torch.2.2.0a0+git63d65dd::torch_nn_modules_sparse_Embedding_model_decoder_embed_tokens_1/embedding"
    type {
      tensor_type {
        elem_type: 1
        shape {
          dim {
            dim_value: 1
          }
          dim {
            dim_value: 128
          }
          dim {
            dim_value: 256
          }
        }
      }
    }
  }
  value_info {
    name: "pkg.transformers.4.34.0.dev0::transformers_models_speech_to_text_2_modeling_speech_to_text_2_Speech2Text2SinusoidalPositionalEmbedding_model_decoder_embed_positions_1/view"
    type {
      tensor_type {
        elem_type: 7
        shape {
          dim {
            dim_value: 1
          }
          dim {
            dim_value: 128
          }
        }
      }
    }
  }
  value_info {
    name: "pkg.transformers.4.34.0.dev0::transformers_models_speech_to_text_2_modeling_speech_to_text_2_Speech2Text2SinusoidalPositionalEmbedding_model_decoder_embed_positions_1/ne"
    type {
      tensor_type {
        elem_type: 9
        shape {
          dim {
            dim_value: 1
          }
          dim {
            dim_value: 128
          }
        }
      }
    }
  }
  value_info {
    name: "pkg.transformers.4.34.0.dev0::transformers_models_speech_to_text_2_modeling_speech_to_text_2_Speech2Text2SinusoidalPositionalEmbedding_model_decoder_embed_positions_1/convert_element_type"
    type {
      tensor_type {
        elem_type: 6
        shape {
          dim {
            dim_value: 1
          }
          dim {
            dim_value: 128
          }
        }
      }
    }
  }
  value_info {
    name: "pkg.transformers.4.34.0.dev0::transformers_models_speech_to_text_2_modeling_speech_to_text_2_Speech2Text2SinusoidalPositionalEmbedding_model_decoder_embed_positions_1/convert_element_type_default"
    type {
      tensor_type {
        elem_type: 7
        shape {
          dim {
            dim_value: 1
          }
          dim {
            dim_value: 128
          }
        }
      }
    }
  }
  value_info {
    name: "pkg.transformers.4.34.0.dev0::transformers_models_speech_to_text_2_modeling_speech_to_text_2_Speech2Text2SinusoidalPositionalEmbedding_model_decoder_embed_positions_1/cumsum"
    type {
      tensor_type {
        elem_type: 7
        shape {
          dim {
            dim_value: 1
          }
          dim {
            dim_value: 128
          }
        }
      }
    }
  }
  value_info {
    name: "pkg.transformers.4.34.0.dev0::transformers_models_speech_to_text_2_modeling_speech_to_text_2_Speech2Text2SinusoidalPositionalEmbedding_model_decoder_embed_positions_1/convert_element_type_1"
    type {
      tensor_type {
        elem_type: 6
        shape {
          dim {
            dim_value: 1
          }
          dim {
            dim_value: 128
          }
        }
      }
    }
  }
  value_info {
    name: "pkg.transformers.4.34.0.dev0::transformers_models_speech_to_text_2_modeling_speech_to_text_2_Speech2Text2SinusoidalPositionalEmbedding_model_decoder_embed_positions_1/scalar_tensor_default"
    type {
      tensor_type {
        elem_type: 6
        shape {
        }
      }
    }
  }
  value_info {
    name: "pkg.transformers.4.34.0.dev0::transformers_models_speech_to_text_2_modeling_speech_to_text_2_Speech2Text2SinusoidalPositionalEmbedding_model_decoder_embed_positions_1/add_1"
    type {
      tensor_type {
        elem_type: 6
        shape {
          dim {
            dim_value: 1
          }
          dim {
            dim_value: 128
          }
        }
      }
    }
  }
  value_info {
    name: "pkg.transformers.4.34.0.dev0::transformers_models_speech_to_text_2_modeling_speech_to_text_2_Speech2Text2SinusoidalPositionalEmbedding_model_decoder_embed_positions_1/mul_1"
    type {
      tensor_type {
        elem_type: 6
        shape {
          dim {
            dim_value: 1
          }
          dim {
            dim_value: 128
          }
        }
      }
    }
  }
  value_info {
    name: "pkg.transformers.4.34.0.dev0::transformers_models_speech_to_text_2_modeling_speech_to_text_2_Speech2Text2SinusoidalPositionalEmbedding_model_decoder_embed_positions_1/convert_element_type_2"
    type {
      tensor_type {
        elem_type: 7
        shape {
          dim {
            dim_value: 1
          }
          dim {
            dim_value: 128
          }
        }
      }
    }
  }
  value_info {
    name: "pkg.transformers.4.34.0.dev0::transformers_models_speech_to_text_2_modeling_speech_to_text_2_Speech2Text2SinusoidalPositionalEmbedding_model_decoder_embed_positions_1/add_2"
    type {
      tensor_type {
        elem_type: 7
        shape {
          dim {
            dim_value: 1
          }
          dim {
            dim_value: 128
          }
        }
      }
    }
  }
  value_info {
    name: "pkg.transformers.4.34.0.dev0::transformers_models_speech_to_text_2_modeling_speech_to_text_2_Speech2Text2SinusoidalPositionalEmbedding_model_decoder_embed_positions_1/view_2"
    type {
      tensor_type {
        elem_type: 7
        shape {
          dim {
            dim_value: 128
          }
        }
      }
    }
  }
  value_info {
    name: "pkg.transformers.4.34.0.dev0::transformers_models_speech_to_text_2_modeling_speech_to_text_2_Speech2Text2SinusoidalPositionalEmbedding_model_decoder_embed_positions_1/index_select"
    type {
      tensor_type {
        elem_type: 1
        shape {
          dim {
            dim_value: 128
          }
          dim {
            dim_value: 256
          }
        }
      }
    }
  }
  value_info {
    name: "pkg.transformers.4.34.0.dev0::transformers_models_speech_to_text_2_modeling_speech_to_text_2_Speech2Text2SinusoidalPositionalEmbedding_model_decoder_embed_positions_1/view_3"
    type {
      tensor_type {
        elem_type: 1
        shape {
          dim {
            dim_value: 1
          }
          dim {
            dim_value: 128
          }
          dim {
            dim_value: 256
          }
        }
      }
    }
  }
  value_info {
    name: "pkg.transformers.4.34.0.dev0::transformers_models_speech_to_text_2_modeling_speech_to_text_2_Speech2Text2SinusoidalPositionalEmbedding_model_decoder_embed_positions_1/detach"
    type {
      tensor_type {
        elem_type: 1
        shape {
          dim {
            dim_value: 1
          }
          dim {
            dim_value: 128
          }
          dim {
            dim_value: 256
          }
        }
      }
    }
  }
  value_info {
    name: "pkg.transformers.4.34.0.dev0::transformers_models_speech_to_text_2_modeling_speech_to_text_2_Speech2Text2SinusoidalPositionalEmbedding_model_decoder_embed_positions_1/detach_1"
    type {
      tensor_type {
        elem_type: 1
        shape {
          dim {
            dim_value: 1
          }
          dim {
            dim_value: 128
          }
          dim {
            dim_value: 256
          }
        }
      }
    }
  }
  value_info {
    name: "pkg.torch.2.2.0a0+git63d65dd::torch_nn_modules_linear_Linear_model_decoder_layers_0_self_attn_q_proj_1/clone"
    type {
      tensor_type {
        elem_type: 1
        shape {
          dim {
            dim_value: 1
          }
          dim {
            dim_value: 128
          }
          dim {
            dim_value: 256
          }
        }
      }
    }
  }
  value_info {
    name: "pkg.torch.2.2.0a0+git63d65dd::torch_nn_modules_linear_Linear_model_decoder_layers_0_self_attn_q_proj_1/view_4"
    type {
      tensor_type {
        elem_type: 1
        shape {
          dim {
            dim_value: 128
          }
          dim {
            dim_value: 256
          }
        }
      }
    }
  }
  value_info {
    name: "pkg.torch.2.2.0a0+git63d65dd::torch_nn_modules_linear_Linear_model_decoder_layers_0_self_attn_q_proj_1/t"
    type {
      tensor_type {
        elem_type: 1
        shape {
          dim {
            dim_value: 256
          }
          dim {
            dim_value: 256
          }
        }
      }
    }
  }
  value_info {
    name: "pkg.torch.2.2.0a0+git63d65dd::torch_nn_modules_linear_Linear_model_decoder_layers_0_self_attn_q_proj_1/addmm"
    type {
      tensor_type {
        elem_type: 1
        shape {
          dim {
            dim_value: 128
          }
          dim {
            dim_value: 256
          }
        }
      }
    }
  }
  value_info {
    name: "pkg.torch.2.2.0a0+git63d65dd::torch_nn_modules_linear_Linear_model_decoder_layers_0_self_attn_q_proj_1/view_5"
    type {
      tensor_type {
        elem_type: 1
        shape {
          dim {
            dim_value: 1
          }
          dim {
            dim_value: 128
          }
          dim {
            dim_value: 256
          }
        }
      }
    }
  }
  value_info {
    name: "pkg.torch.2.2.0a0+git63d65dd::torch_nn_modules_linear_Linear_model_decoder_layers_0_self_attn_k_proj_1/clone"
    type {
      tensor_type {
        elem_type: 1
        shape {
          dim {
            dim_value: 1
          }
          dim {
            dim_value: 128
          }
          dim {
            dim_value: 256
          }
        }
      }
    }
  }
  value_info {
    name: "pkg.torch.2.2.0a0+git63d65dd::torch_nn_modules_linear_Linear_model_decoder_layers_0_self_attn_k_proj_1/view_6"
    type {
      tensor_type {
        elem_type: 1
        shape {
          dim {
            dim_value: 128
          }
          dim {
            dim_value: 256
          }
        }
      }
    }
  }
  value_info {
    name: "pkg.torch.2.2.0a0+git63d65dd::torch_nn_modules_linear_Linear_model_decoder_layers_0_self_attn_k_proj_1/t_1"
    type {
      tensor_type {
        elem_type: 1
        shape {
          dim {
            dim_value: 256
          }
          dim {
            dim_value: 256
          }
        }
      }
    }
  }
  value_info {
    name: "pkg.torch.2.2.0a0+git63d65dd::torch_nn_modules_linear_Linear_model_decoder_layers_0_self_attn_k_proj_1/addmm_1"
    type {
      tensor_type {
        elem_type: 1
        shape {
          dim {
            dim_value: 128
          }
          dim {
            dim_value: 256
          }
        }
      }
    }
  }
  value_info {
    name: "pkg.torch.2.2.0a0+git63d65dd::torch_nn_modules_linear_Linear_model_decoder_layers_0_self_attn_k_proj_1/view_7"
    type {
      tensor_type {
        elem_type: 1
        shape {
          dim {
            dim_value: 1
          }
          dim {
            dim_value: 128
          }
          dim {
            dim_value: 256
          }
        }
      }
    }
  }
  value_info {
    name: "pkg.torch.2.2.0a0+git63d65dd::torch_nn_modules_linear_Linear_model_decoder_layers_0_self_attn_v_proj_1/clone"
    type {
      tensor_type {
        elem_type: 1
        shape {
          dim {
            dim_value: 1
          }
          dim {
            dim_value: 128
          }
          dim {
            dim_value: 256
          }
        }
      }
    }
  }
  value_info {
    name: "pkg.torch.2.2.0a0+git63d65dd::torch_nn_modules_linear_Linear_model_decoder_layers_0_self_attn_v_proj_1/view_9"
    type {
      tensor_type {
        elem_type: 1
        shape {
          dim {
            dim_value: 128
          }
          dim {
            dim_value: 256
          }
        }
      }
    }
  }
  value_info {
    name: "pkg.torch.2.2.0a0+git63d65dd::torch_nn_modules_linear_Linear_model_decoder_layers_0_self_attn_v_proj_1/t_2"
    type {
      tensor_type {
        elem_type: 1
        shape {
          dim {
            dim_value: 256
          }
          dim {
            dim_value: 256
          }
        }
      }
    }
  }
  value_info {
    name: "pkg.torch.2.2.0a0+git63d65dd::torch_nn_modules_linear_Linear_model_decoder_layers_0_self_attn_v_proj_1/addmm_2"
    type {
      tensor_type {
        elem_type: 1
        shape {
          dim {
            dim_value: 128
          }
          dim {
            dim_value: 256
          }
        }
      }
    }
  }
  value_info {
    name: "pkg.torch.2.2.0a0+git63d65dd::torch_nn_modules_linear_Linear_model_decoder_layers_0_self_attn_v_proj_1/view_10"
    type {
      tensor_type {
        elem_type: 1
        shape {
          dim {
            dim_value: 1
          }
          dim {
            dim_value: 128
          }
          dim {
            dim_value: 256
          }
        }
      }
    }
  }
  value_info {
    name: "pkg.torch.2.2.0a0+git63d65dd::torch_nn_modules_linear_Linear_model_decoder_layers_0_self_attn_out_proj_1/view_19"
    type {
      tensor_type {
        elem_type: 1
        shape {
          dim {
            dim_value: 1
          }
          dim {
            dim_value: 128
          }
          dim {
            dim_value: 256
          }
        }
      }
    }
  }
  value_info {
    name: "pkg.torch.2.2.0a0+git63d65dd::torch_nn_modules_linear_Linear_model_decoder_layers_0_self_attn_out_proj_1/view_20"
    type {
      tensor_type {
        elem_type: 1
        shape {
          dim {
            dim_value: 128
          }
          dim {
            dim_value: 256
          }
        }
      }
    }
  }
  value_info {
    name: "pkg.torch.2.2.0a0+git63d65dd::torch_nn_modules_linear_Linear_model_decoder_layers_0_self_attn_out_proj_1/t_3"
    type {
      tensor_type {
        elem_type: 1
        shape {
          dim {
            dim_value: 256
          }
          dim {
            dim_value: 256
          }
        }
      }
    }
  }
  value_info {
    name: "pkg.torch.2.2.0a0+git63d65dd::torch_nn_modules_linear_Linear_model_decoder_layers_0_self_attn_out_proj_1/addmm_3"
    type {
      tensor_type {
        elem_type: 1
        shape {
          dim {
            dim_value: 128
          }
          dim {
            dim_value: 256
          }
        }
      }
    }
  }
  value_info {
    name: "pkg.torch.2.2.0a0+git63d65dd::torch_nn_modules_linear_Linear_model_decoder_layers_0_self_attn_out_proj_1/view_21"
    type {
      tensor_type {
        elem_type: 1
        shape {
          dim {
            dim_value: 1
          }
          dim {
            dim_value: 128
          }
          dim {
            dim_value: 256
          }
        }
      }
    }
  }
  value_info {
    name: "pkg.transformers.4.34.0.dev0::transformers_models_speech_to_text_2_modeling_speech_to_text_2_Speech2Text2Attention_model_decoder_layers_0_self_attn_1/clone"
    type {
      tensor_type {
        elem_type: 1
        shape {
          dim {
            dim_value: 1
          }
          dim {
            dim_value: 128
          }
          dim {
            dim_value: 256
          }
        }
      }
    }
  }
  value_info {
    name: "pkg.transformers.4.34.0.dev0::transformers_models_speech_to_text_2_modeling_speech_to_text_2_Speech2Text2Attention_model_decoder_layers_0_self_attn_1/masked_fill"
    type {
      tensor_type {
        elem_type: 1
        shape {
          dim {
            dim_value: 128
          }
          dim {
            dim_value: 128
          }
        }
      }
    }
  }
  value_info {
    name: "pkg.transformers.4.34.0.dev0::transformers_models_speech_to_text_2_modeling_speech_to_text_2_Speech2Text2Attention_model_decoder_layers_0_self_attn_1/model_decoder_layers_0_self_attn_q_proj_1"
    type {
      tensor_type {
        elem_type: 1
        shape {
          dim {
            dim_value: 1
          }
          dim {
            dim_value: 128
          }
          dim {
            dim_value: 256
          }
        }
      }
    }
  }
  value_info {
    name: "pkg.transformers.4.34.0.dev0::transformers_models_speech_to_text_2_modeling_speech_to_text_2_Speech2Text2Attention_model_decoder_layers_0_self_attn_1/mul_2"
    type {
      tensor_type {
        elem_type: 1
        shape {
          dim {
            dim_value: 1
          }
          dim {
            dim_value: 128
          }
          dim {
            dim_value: 256
          }
        }
      }
    }
  }
  value_info {
    name: "pkg.transformers.4.34.0.dev0::transformers_models_speech_to_text_2_modeling_speech_to_text_2_Speech2Text2Attention_model_decoder_layers_0_self_attn_1/model_decoder_layers_0_self_attn_k_proj_1"
    type {
      tensor_type {
        elem_type: 1
        shape {
          dim {
            dim_value: 1
          }
          dim {
            dim_value: 128
          }
          dim {
            dim_value: 256
          }
        }
      }
    }
  }
  value_info {
    name: "pkg.transformers.4.34.0.dev0::transformers_models_speech_to_text_2_modeling_speech_to_text_2_Speech2Text2Attention_model_decoder_layers_0_self_attn_1/view_8"
    type {
      tensor_type {
        elem_type: 1
        shape {
          dim {
            dim_value: 1
          }
          dim {
            dim_value: 128
          }
          dim {
            dim_value: 4
          }
          dim {
            dim_value: 64
          }
        }
      }
    }
  }
  value_info {
    name: "pkg.transformers.4.34.0.dev0::transformers_models_speech_to_text_2_modeling_speech_to_text_2_Speech2Text2Attention_model_decoder_layers_0_self_attn_1/transpose"
    type {
      tensor_type {
        elem_type: 1
        shape {
          dim {
            dim_value: 1
          }
          dim {
            dim_value: 4
          }
          dim {
            dim_value: 128
          }
          dim {
            dim_value: 64
          }
        }
      }
    }
  }
  value_info {
    name: "pkg.transformers.4.34.0.dev0::transformers_models_speech_to_text_2_modeling_speech_to_text_2_Speech2Text2Attention_model_decoder_layers_0_self_attn_1/clone_1"
    type {
      tensor_type {
        elem_type: 1
        shape {
          dim {
            dim_value: 1
          }
          dim {
            dim_value: 4
          }
          dim {
            dim_value: 128
          }
          dim {
            dim_value: 64
          }
        }
      }
    }
  }
  value_info {
    name: "pkg.transformers.4.34.0.dev0::transformers_models_speech_to_text_2_modeling_speech_to_text_2_Speech2Text2Attention_model_decoder_layers_0_self_attn_1/model_decoder_layers_0_self_attn_v_proj_1"
    type {
      tensor_type {
        elem_type: 1
        shape {
          dim {
            dim_value: 1
          }
          dim {
            dim_value: 128
          }
          dim {
            dim_value: 256
          }
        }
      }
    }
  }
  value_info {
    name: "pkg.transformers.4.34.0.dev0::transformers_models_speech_to_text_2_modeling_speech_to_text_2_Speech2Text2Attention_model_decoder_layers_0_self_attn_1/view_11"
    type {
      tensor_type {
        elem_type: 1
        shape {
          dim {
            dim_value: 1
          }
          dim {
            dim_value: 128
          }
          dim {
            dim_value: 4
          }
          dim {
            dim_value: 64
          }
        }
      }
    }
  }
  value_info {
    name: "pkg.transformers.4.34.0.dev0::transformers_models_speech_to_text_2_modeling_speech_to_text_2_Speech2Text2Attention_model_decoder_layers_0_self_attn_1/transpose_1"
    type {
      tensor_type {
        elem_type: 1
        shape {
          dim {
            dim_value: 1
          }
          dim {
            dim_value: 4
          }
          dim {
            dim_value: 128
          }
          dim {
            dim_value: 64
          }
        }
      }
    }
  }
  value_info {
    name: "pkg.transformers.4.34.0.dev0::transformers_models_speech_to_text_2_modeling_speech_to_text_2_Speech2Text2Attention_model_decoder_layers_0_self_attn_1/clone_2"
    type {
      tensor_type {
        elem_type: 1
        shape {
          dim {
            dim_value: 1
          }
          dim {
            dim_value: 4
          }
          dim {
            dim_value: 128
          }
          dim {
            dim_value: 64
          }
        }
      }
    }
  }
  value_info {
    name: "pkg.transformers.4.34.0.dev0::transformers_models_speech_to_text_2_modeling_speech_to_text_2_Speech2Text2Attention_model_decoder_layers_0_self_attn_1/view_12"
    type {
      tensor_type {
        elem_type: 1
        shape {
          dim {
            dim_value: 1
          }
          dim {
            dim_value: 128
          }
          dim {
            dim_value: 4
          }
          dim {
            dim_value: 64
          }
        }
      }
    }
  }
  value_info {
    name: "pkg.transformers.4.34.0.dev0::transformers_models_speech_to_text_2_modeling_speech_to_text_2_Speech2Text2Attention_model_decoder_layers_0_self_attn_1/transpose_2"
    type {
      tensor_type {
        elem_type: 1
        shape {
          dim {
            dim_value: 1
          }
          dim {
            dim_value: 4
          }
          dim {
            dim_value: 128
          }
          dim {
            dim_value: 64
          }
        }
      }
    }
  }
  value_info {
    name: "pkg.transformers.4.34.0.dev0::transformers_models_speech_to_text_2_modeling_speech_to_text_2_Speech2Text2Attention_model_decoder_layers_0_self_attn_1/clone_3"
    type {
      tensor_type {
        elem_type: 1
        shape {
          dim {
            dim_value: 1
          }
          dim {
            dim_value: 4
          }
          dim {
            dim_value: 128
          }
          dim {
            dim_value: 64
          }
        }
      }
    }
  }
  value_info {
    name: "pkg.transformers.4.34.0.dev0::transformers_models_speech_to_text_2_modeling_speech_to_text_2_Speech2Text2Attention_model_decoder_layers_0_self_attn_1/view_13"
    type {
      tensor_type {
        elem_type: 1
        shape {
          dim {
            dim_value: 4
          }
          dim {
            dim_value: 128
          }
          dim {
            dim_value: 64
          }
        }
      }
    }
  }
  value_info {
    name: "pkg.transformers.4.34.0.dev0::transformers_models_speech_to_text_2_modeling_speech_to_text_2_Speech2Text2Attention_model_decoder_layers_0_self_attn_1/view_14"
    type {
      tensor_type {
        elem_type: 1
        shape {
          dim {
            dim_value: 4
          }
          dim {
            dim_value: 128
          }
          dim {
            dim_value: 64
          }
        }
      }
    }
  }
  value_info {
    name: "pkg.transformers.4.34.0.dev0::transformers_models_speech_to_text_2_modeling_speech_to_text_2_Speech2Text2Attention_model_decoder_layers_0_self_attn_1/view_15"
    type {
      tensor_type {
        elem_type: 1
        shape {
          dim {
            dim_value: 4
          }
          dim {
            dim_value: 128
          }
          dim {
            dim_value: 64
          }
        }
      }
    }
  }
  value_info {
    name: "pkg.transformers.4.34.0.dev0::transformers_models_speech_to_text_2_modeling_speech_to_text_2_Speech2Text2Attention_model_decoder_layers_0_self_attn_1/transpose_3"
    type {
      tensor_type {
        elem_type: 1
        shape {
          dim {
            dim_value: 4
          }
          dim {
            dim_value: 64
          }
          dim {
            dim_value: 128
          }
        }
      }
    }
  }
  value_info {
    name: "pkg.transformers.4.34.0.dev0::transformers_models_speech_to_text_2_modeling_speech_to_text_2_Speech2Text2Attention_model_decoder_layers_0_self_attn_1/bmm"
    type {
      tensor_type {
        elem_type: 1
        shape {
          dim {
            dim_value: 4
          }
          dim {
            dim_value: 128
          }
          dim {
            dim_value: 128
          }
        }
      }
    }
  }
  value_info {
    name: "pkg.transformers.4.34.0.dev0::transformers_models_speech_to_text_2_modeling_speech_to_text_2_Speech2Text2Attention_model_decoder_layers_0_self_attn_1/view_16"
    type {
      tensor_type {
        elem_type: 1
        shape {
          dim {
            dim_value: 1
          }
          dim {
            dim_value: 4
          }
          dim {
            dim_value: 128
          }
          dim {
            dim_value: 128
          }
        }
      }
    }
  }
  value_info {
    name: "pkg.transformers.4.34.0.dev0::transformers_models_speech_to_text_2_modeling_speech_to_text_2_Speech2Text2Attention_model_decoder_layers_0_self_attn_1/unsqueeze_2"
    type {
      tensor_type {
        elem_type: 1
        shape {
          dim {
            dim_value: 1
          }
          dim {
            dim_value: 128
          }
          dim {
            dim_value: 128
          }
        }
      }
    }
  }
  value_info {
    name: "pkg.transformers.4.34.0.dev0::transformers_models_speech_to_text_2_modeling_speech_to_text_2_Speech2Text2Attention_model_decoder_layers_0_self_attn_1/unsqueeze_3"
    type {
      tensor_type {
        elem_type: 1
        shape {
          dim {
            dim_value: 1
          }
          dim {
            dim_value: 1
          }
          dim {
            dim_value: 128
          }
          dim {
            dim_value: 128
          }
        }
      }
    }
  }
  value_info {
    name: "pkg.transformers.4.34.0.dev0::transformers_models_speech_to_text_2_modeling_speech_to_text_2_Speech2Text2Attention_model_decoder_layers_0_self_attn_1/slice_3"
    type {
      tensor_type {
        elem_type: 1
        shape {
          dim {
            dim_value: 1
          }
          dim {
            dim_value: 1
          }
          dim {
            dim_value: 128
          }
          dim {
            dim_value: 128
          }
        }
      }
    }
  }
  value_info {
    name: "pkg.transformers.4.34.0.dev0::transformers_models_speech_to_text_2_modeling_speech_to_text_2_Speech2Text2Attention_model_decoder_layers_0_self_attn_1/slice_4"
    type {
      tensor_type {
        elem_type: 1
        shape {
          dim {
            dim_value: 1
          }
          dim {
            dim_value: 1
          }
          dim {
            dim_value: 128
          }
          dim {
            dim_value: 128
          }
        }
      }
    }
  }
  value_info {
    name: "pkg.transformers.4.34.0.dev0::transformers_models_speech_to_text_2_modeling_speech_to_text_2_Speech2Text2Attention_model_decoder_layers_0_self_attn_1/expand_1"
    type {
      tensor_type {
        elem_type: 1
        shape {
          dim {
            dim_value: 1
          }
          dim {
            dim_value: 1
          }
          dim {
            dim_value: 128
          }
          dim {
            dim_value: 128
          }
        }
      }
    }
  }
  value_info {
    name: "pkg.transformers.4.34.0.dev0::transformers_models_speech_to_text_2_modeling_speech_to_text_2_Speech2Text2Attention_model_decoder_layers_0_self_attn_1/add_4"
    type {
      tensor_type {
        elem_type: 1
        shape {
          dim {
            dim_value: 1
          }
          dim {
            dim_value: 4
          }
          dim {
            dim_value: 128
          }
          dim {
            dim_value: 128
          }
        }
      }
    }
  }
  value_info {
    name: "pkg.transformers.4.34.0.dev0::transformers_models_speech_to_text_2_modeling_speech_to_text_2_Speech2Text2Attention_model_decoder_layers_0_self_attn_1/view_17"
    type {
      tensor_type {
        elem_type: 1
        shape {
          dim {
            dim_value: 4
          }
          dim {
            dim_value: 128
          }
          dim {
            dim_value: 128
          }
        }
      }
    }
  }
  value_info {
    name: "pkg.transformers.4.34.0.dev0::transformers_models_speech_to_text_2_modeling_speech_to_text_2_Speech2Text2Attention_model_decoder_layers_0_self_attn_1/_softmax"
    type {
      tensor_type {
        elem_type: 1
        shape {
          dim {
            dim_value: 4
          }
          dim {
            dim_value: 128
          }
          dim {
            dim_value: 128
          }
        }
      }
    }
  }
  value_info {
    name: "pkg.transformers.4.34.0.dev0::transformers_models_speech_to_text_2_modeling_speech_to_text_2_Speech2Text2Attention_model_decoder_layers_0_self_attn_1/clone_4"
    type {
      tensor_type {
        elem_type: 1
        shape {
          dim {
            dim_value: 4
          }
          dim {
            dim_value: 128
          }
          dim {
            dim_value: 128
          }
        }
      }
    }
  }
  value_info {
    name: "pkg.transformers.4.34.0.dev0::transformers_models_speech_to_text_2_modeling_speech_to_text_2_Speech2Text2Attention_model_decoder_layers_0_self_attn_1/bmm_1"
    type {
      tensor_type {
        elem_type: 1
        shape {
          dim {
            dim_value: 4
          }
          dim {
            dim_value: 128
          }
          dim {
            dim_value: 64
          }
        }
      }
    }
  }
  value_info {
    name: "pkg.transformers.4.34.0.dev0::transformers_models_speech_to_text_2_modeling_speech_to_text_2_Speech2Text2Attention_model_decoder_layers_0_self_attn_1/view_18"
    type {
      tensor_type {
        elem_type: 1
        shape {
          dim {
            dim_value: 1
          }
          dim {
            dim_value: 4
          }
          dim {
            dim_value: 128
          }
          dim {
            dim_value: 64
          }
        }
      }
    }
  }
  value_info {
    name: "pkg.transformers.4.34.0.dev0::transformers_models_speech_to_text_2_modeling_speech_to_text_2_Speech2Text2Attention_model_decoder_layers_0_self_attn_1/transpose_4"
    type {
      tensor_type {
        elem_type: 1
        shape {
          dim {
            dim_value: 1
          }
          dim {
            dim_value: 128
          }
          dim {
            dim_value: 4
          }
          dim {
            dim_value: 64
          }
        }
      }
    }
  }
  value_info {
    name: "pkg.transformers.4.34.0.dev0::transformers_models_speech_to_text_2_modeling_speech_to_text_2_Speech2Text2Attention_model_decoder_layers_0_self_attn_1/clone_5"
    type {
      tensor_type {
        elem_type: 1
        shape {
          dim {
            dim_value: 1
          }
          dim {
            dim_value: 128
          }
          dim {
            dim_value: 4
          }
          dim {
            dim_value: 64
          }
        }
      }
    }
  }
  value_info {
    name: "pkg.transformers.4.34.0.dev0::transformers_models_speech_to_text_2_modeling_speech_to_text_2_Speech2Text2Attention_model_decoder_layers_0_self_attn_1/view_19"
    type {
      tensor_type {
        elem_type: 1
        shape {
          dim {
            dim_value: 1
          }
          dim {
            dim_value: 128
          }
          dim {
            dim_value: 256
          }
        }
      }
    }
  }
  value_info {
    name: "pkg.transformers.4.34.0.dev0::transformers_models_speech_to_text_2_modeling_speech_to_text_2_Speech2Text2Attention_model_decoder_layers_0_self_attn_1/model_decoder_layers_0_self_attn_out_proj_1"
    type {
      tensor_type {
        elem_type: 1
        shape {
          dim {
            dim_value: 1
          }
          dim {
            dim_value: 128
          }
          dim {
            dim_value: 256
          }
        }
      }
    }
  }
  value_info {
    name: "pkg.torch.2.2.0a0+git63d65dd::torch_nn_modules_normalization_LayerNorm_model_decoder_layers_0_self_attn_layer_norm_1/add_5"
    type {
      tensor_type {
        elem_type: 1
        shape {
          dim {
            dim_value: 1
          }
          dim {
            dim_value: 128
          }
          dim {
            dim_value: 256
          }
        }
      }
    }
  }
  value_info {
    name: "pkg.torch.2.2.0a0+git63d65dd::torch_nn_modules_normalization_LayerNorm_model_decoder_layers_0_self_attn_layer_norm_1/native_layer_norm"
    type {
      tensor_type {
        elem_type: 1
        shape {
          dim {
            dim_value: 1
          }
          dim {
            dim_value: 128
          }
          dim {
            dim_value: 256
          }
        }
      }
    }
  }
  value_info {
    name: "pkg.torch.2.2.0a0+git63d65dd::torch_nn_modules_normalization_LayerNorm_model_decoder_layers_0_self_attn_layer_norm_1/native_layer_norm_1"
    type {
      tensor_type {
        elem_type: 1
        shape {
          dim {
            dim_value: 1
          }
          dim {
            dim_value: 128
          }
          dim {
            dim_value: 1
          }
        }
      }
    }
  }
  value_info {
    name: "pkg.torch.2.2.0a0+git63d65dd::torch_nn_modules_normalization_LayerNorm_model_decoder_layers_0_self_attn_layer_norm_1/native_layer_norm_2"
    type {
      tensor_type {
        elem_type: 1
        shape {
          dim {
            dim_value: 1
          }
          dim {
            dim_value: 128
          }
          dim {
            dim_value: 1
          }
        }
      }
    }
  }
  value_info {
    name: "pkg.torch.2.2.0a0+git63d65dd::torch_nn_modules_linear_Linear_model_decoder_layers_0_fc1_1/getitem"
    type {
      tensor_type {
        elem_type: 1
        shape {
          dim {
            dim_value: 1
          }
          dim {
            dim_value: 128
          }
          dim {
            dim_value: 256
          }
        }
      }
    }
  }
  value_info {
    name: "pkg.torch.2.2.0a0+git63d65dd::torch_nn_modules_linear_Linear_model_decoder_layers_0_fc1_1/view_22"
    type {
      tensor_type {
        elem_type: 1
        shape {
          dim {
            dim_value: 128
          }
          dim {
            dim_value: 256
          }
        }
      }
    }
  }
  value_info {
    name: "pkg.torch.2.2.0a0+git63d65dd::torch_nn_modules_linear_Linear_model_decoder_layers_0_fc1_1/t_4"
    type {
      tensor_type {
        elem_type: 1
        shape {
          dim {
            dim_value: 256
          }
          dim {
            dim_value: 2048
          }
        }
      }
    }
  }
  value_info {
    name: "pkg.torch.2.2.0a0+git63d65dd::torch_nn_modules_linear_Linear_model_decoder_layers_0_fc1_1/addmm_4"
    type {
      tensor_type {
        elem_type: 1
        shape {
          dim {
            dim_value: 128
          }
          dim {
            dim_value: 2048
          }
        }
      }
    }
  }
  value_info {
    name: "pkg.torch.2.2.0a0+git63d65dd::torch_nn_modules_linear_Linear_model_decoder_layers_0_fc1_1/view_23"
    type {
      tensor_type {
        elem_type: 1
        shape {
          dim {
            dim_value: 1
          }
          dim {
            dim_value: 128
          }
          dim {
            dim_value: 2048
          }
        }
      }
    }
  }
  value_info {
    name: "pkg.torch.2.2.0a0+git63d65dd::torch_nn_modules_activation_ReLU_model_decoder_layers_0_activation_fn_1/view_23"
    type {
      tensor_type {
        elem_type: 1
        shape {
          dim {
            dim_value: 1
          }
          dim {
            dim_value: 128
          }
          dim {
            dim_value: 2048
          }
        }
      }
    }
  }
  value_info {
    name: "pkg.torch.2.2.0a0+git63d65dd::torch_nn_modules_activation_ReLU_model_decoder_layers_0_activation_fn_1/relu"
    type {
      tensor_type {
        elem_type: 1
        shape {
          dim {
            dim_value: 1
          }
          dim {
            dim_value: 128
          }
          dim {
            dim_value: 2048
          }
        }
      }
    }
  }
  value_info {
    name: "pkg.torch.2.2.0a0+git63d65dd::torch_nn_modules_linear_Linear_model_decoder_layers_0_fc2_1/clone_7"
    type {
      tensor_type {
        elem_type: 1
        shape {
          dim {
            dim_value: 1
          }
          dim {
            dim_value: 128
          }
          dim {
            dim_value: 2048
          }
        }
      }
    }
  }
  value_info {
    name: "pkg.torch.2.2.0a0+git63d65dd::torch_nn_modules_linear_Linear_model_decoder_layers_0_fc2_1/view_24"
    type {
      tensor_type {
        elem_type: 1
        shape {
          dim {
            dim_value: 128
          }
          dim {
            dim_value: 2048
          }
        }
      }
    }
  }
  value_info {
    name: "pkg.torch.2.2.0a0+git63d65dd::torch_nn_modules_linear_Linear_model_decoder_layers_0_fc2_1/t_5"
    type {
      tensor_type {
        elem_type: 1
        shape {
          dim {
            dim_value: 2048
          }
          dim {
            dim_value: 256
          }
        }
      }
    }
  }
  value_info {
    name: "pkg.torch.2.2.0a0+git63d65dd::torch_nn_modules_linear_Linear_model_decoder_layers_0_fc2_1/addmm_5"
    type {
      tensor_type {
        elem_type: 1
        shape {
          dim {
            dim_value: 128
          }
          dim {
            dim_value: 256
          }
        }
      }
    }
  }
  value_info {
    name: "pkg.torch.2.2.0a0+git63d65dd::torch_nn_modules_linear_Linear_model_decoder_layers_0_fc2_1/view_25"
    type {
      tensor_type {
        elem_type: 1
        shape {
          dim {
            dim_value: 1
          }
          dim {
            dim_value: 128
          }
          dim {
            dim_value: 256
          }
        }
      }
    }
  }
  value_info {
    name: "pkg.torch.2.2.0a0+git63d65dd::torch_nn_modules_normalization_LayerNorm_model_decoder_layers_0_final_layer_norm_1/add_6"
    type {
      tensor_type {
        elem_type: 1
        shape {
          dim {
            dim_value: 1
          }
          dim {
            dim_value: 128
          }
          dim {
            dim_value: 256
          }
        }
      }
    }
  }
  value_info {
    name: "pkg.torch.2.2.0a0+git63d65dd::torch_nn_modules_normalization_LayerNorm_model_decoder_layers_0_final_layer_norm_1/native_layer_norm_1"
    type {
      tensor_type {
        elem_type: 1
        shape {
          dim {
            dim_value: 1
          }
          dim {
            dim_value: 128
          }
          dim {
            dim_value: 256
          }
        }
      }
    }
  }
  value_info {
    name: "pkg.torch.2.2.0a0+git63d65dd::torch_nn_modules_normalization_LayerNorm_model_decoder_layers_0_final_layer_norm_1/native_layer_norm_1_1"
    type {
      tensor_type {
        elem_type: 1
        shape {
          dim {
            dim_value: 1
          }
          dim {
            dim_value: 128
          }
          dim {
            dim_value: 1
          }
        }
      }
    }
  }
  value_info {
    name: "pkg.torch.2.2.0a0+git63d65dd::torch_nn_modules_normalization_LayerNorm_model_decoder_layers_0_final_layer_norm_1/native_layer_norm_1_2"
    type {
      tensor_type {
        elem_type: 1
        shape {
          dim {
            dim_value: 1
          }
          dim {
            dim_value: 128
          }
          dim {
            dim_value: 1
          }
        }
      }
    }
  }
  value_info {
    name: "pkg.transformers.4.34.0.dev0::transformers_models_speech_to_text_2_modeling_speech_to_text_2_Speech2Text2DecoderLayer_model_decoder_layers_0_1/clone"
    type {
      tensor_type {
        elem_type: 1
        shape {
          dim {
            dim_value: 1
          }
          dim {
            dim_value: 128
          }
          dim {
            dim_value: 256
          }
        }
      }
    }
  }
  value_info {
    name: "pkg.transformers.4.34.0.dev0::transformers_models_speech_to_text_2_modeling_speech_to_text_2_Speech2Text2DecoderLayer_model_decoder_layers_0_1/masked_fill"
    type {
      tensor_type {
        elem_type: 1
        shape {
          dim {
            dim_value: 128
          }
          dim {
            dim_value: 128
          }
        }
      }
    }
  }
  value_info {
    name: "pkg.transformers.4.34.0.dev0::transformers_models_speech_to_text_2_modeling_speech_to_text_2_Speech2Text2DecoderLayer_model_decoder_layers_0_1/model_decoder_layers_0_self_attn_1"
    type {
      tensor_type {
        elem_type: 1
        shape {
          dim {
            dim_value: 1
          }
          dim {
            dim_value: 4
          }
          dim {
            dim_value: 128
          }
          dim {
            dim_value: 64
          }
        }
      }
    }
  }
  value_info {
    name: "pkg.transformers.4.34.0.dev0::transformers_models_speech_to_text_2_modeling_speech_to_text_2_Speech2Text2DecoderLayer_model_decoder_layers_0_1/model_decoder_layers_0_self_attn_1_1"
    type {
      tensor_type {
        elem_type: 1
        shape {
          dim {
            dim_value: 1
          }
          dim {
            dim_value: 4
          }
          dim {
            dim_value: 128
          }
          dim {
            dim_value: 64
          }
        }
      }
    }
  }
  value_info {
    name: "pkg.transformers.4.34.0.dev0::transformers_models_speech_to_text_2_modeling_speech_to_text_2_Speech2Text2DecoderLayer_model_decoder_layers_0_1/model_decoder_layers_0_self_attn_1_2"
    type {
      tensor_type {
        elem_type: 1
        shape {
          dim {
            dim_value: 1
          }
          dim {
            dim_value: 1
          }
          dim {
            dim_value: 128
          }
          dim {
            dim_value: 128
          }
        }
      }
    }
  }
  value_info {
    name: "pkg.transformers.4.34.0.dev0::transformers_models_speech_to_text_2_modeling_speech_to_text_2_Speech2Text2DecoderLayer_model_decoder_layers_0_1/model_decoder_layers_0_self_attn_1_3"
    type {
      tensor_type {
        elem_type: 1
        shape {
          dim {
            dim_value: 1
          }
          dim {
            dim_value: 128
          }
          dim {
            dim_value: 256
          }
        }
      }
    }
  }
  value_info {
    name: "pkg.transformers.4.34.0.dev0::transformers_models_speech_to_text_2_modeling_speech_to_text_2_Speech2Text2DecoderLayer_model_decoder_layers_0_1/clone_6"
    type {
      tensor_type {
        elem_type: 1
        shape {
          dim {
            dim_value: 1
          }
          dim {
            dim_value: 128
          }
          dim {
            dim_value: 256
          }
        }
      }
    }
  }
  value_info {
    name: "pkg.transformers.4.34.0.dev0::transformers_models_speech_to_text_2_modeling_speech_to_text_2_Speech2Text2DecoderLayer_model_decoder_layers_0_1/add_5"
    type {
      tensor_type {
        elem_type: 1
        shape {
          dim {
            dim_value: 1
          }
          dim {
            dim_value: 128
          }
          dim {
            dim_value: 256
          }
        }
      }
    }
  }
  value_info {
    name: "pkg.transformers.4.34.0.dev0::transformers_models_speech_to_text_2_modeling_speech_to_text_2_Speech2Text2DecoderLayer_model_decoder_layers_0_1/model_decoder_layers_0_self_attn_layer_norm_1"
    type {
      tensor_type {
        elem_type: 1
        shape {
          dim {
            dim_value: 1
          }
          dim {
            dim_value: 128
          }
          dim {
            dim_value: 256
          }
        }
      }
    }
  }
  value_info {
    name: "pkg.transformers.4.34.0.dev0::transformers_models_speech_to_text_2_modeling_speech_to_text_2_Speech2Text2DecoderLayer_model_decoder_layers_0_1/model_decoder_layers_0_fc1_1"
    type {
      tensor_type {
        elem_type: 1
        shape {
          dim {
            dim_value: 1
          }
          dim {
            dim_value: 128
          }
          dim {
            dim_value: 2048
          }
        }
      }
    }
  }
  value_info {
    name: "pkg.transformers.4.34.0.dev0::transformers_models_speech_to_text_2_modeling_speech_to_text_2_Speech2Text2DecoderLayer_model_decoder_layers_0_1/model_decoder_layers_0_activation_fn_1"
    type {
      tensor_type {
        elem_type: 1
        shape {
          dim {
            dim_value: 1
          }
          dim {
            dim_value: 128
          }
          dim {
            dim_value: 2048
          }
        }
      }
    }
  }
  value_info {
    name: "pkg.transformers.4.34.0.dev0::transformers_models_speech_to_text_2_modeling_speech_to_text_2_Speech2Text2DecoderLayer_model_decoder_layers_0_1/clone_7"
    type {
      tensor_type {
        elem_type: 1
        shape {
          dim {
            dim_value: 1
          }
          dim {
            dim_value: 128
          }
          dim {
            dim_value: 2048
          }
        }
      }
    }
  }
  value_info {
    name: "pkg.transformers.4.34.0.dev0::transformers_models_speech_to_text_2_modeling_speech_to_text_2_Speech2Text2DecoderLayer_model_decoder_layers_0_1/model_decoder_layers_0_fc2_1"
    type {
      tensor_type {
        elem_type: 1
        shape {
          dim {
            dim_value: 1
          }
          dim {
            dim_value: 128
          }
          dim {
            dim_value: 256
          }
        }
      }
    }
  }
  value_info {
    name: "pkg.transformers.4.34.0.dev0::transformers_models_speech_to_text_2_modeling_speech_to_text_2_Speech2Text2DecoderLayer_model_decoder_layers_0_1/clone_8"
    type {
      tensor_type {
        elem_type: 1
        shape {
          dim {
            dim_value: 1
          }
          dim {
            dim_value: 128
          }
          dim {
            dim_value: 256
          }
        }
      }
    }
  }
  value_info {
    name: "pkg.transformers.4.34.0.dev0::transformers_models_speech_to_text_2_modeling_speech_to_text_2_Speech2Text2DecoderLayer_model_decoder_layers_0_1/add_6"
    type {
      tensor_type {
        elem_type: 1
        shape {
          dim {
            dim_value: 1
          }
          dim {
            dim_value: 128
          }
          dim {
            dim_value: 256
          }
        }
      }
    }
  }
  value_info {
    name: "pkg.transformers.4.34.0.dev0::transformers_models_speech_to_text_2_modeling_speech_to_text_2_Speech2Text2DecoderLayer_model_decoder_layers_0_1/model_decoder_layers_0_final_layer_norm_1"
    type {
      tensor_type {
        elem_type: 1
        shape {
          dim {
            dim_value: 1
          }
          dim {
            dim_value: 128
          }
          dim {
            dim_value: 256
          }
        }
      }
    }
  }
  value_info {
    name: "pkg.torch.2.2.0a0+git63d65dd::torch_nn_modules_linear_Linear_model_decoder_layers_1_self_attn_q_proj_1/getitem_3"
    type {
      tensor_type {
        elem_type: 1
        shape {
          dim {
            dim_value: 1
          }
          dim {
            dim_value: 128
          }
          dim {
            dim_value: 256
          }
        }
      }
    }
  }
  value_info {
    name: "pkg.torch.2.2.0a0+git63d65dd::torch_nn_modules_linear_Linear_model_decoder_layers_1_self_attn_q_proj_1/view_26"
    type {
      tensor_type {
        elem_type: 1
        shape {
          dim {
            dim_value: 128
          }
          dim {
            dim_value: 256
          }
        }
      }
    }
  }
  value_info {
    name: "pkg.torch.2.2.0a0+git63d65dd::torch_nn_modules_linear_Linear_model_decoder_layers_1_self_attn_q_proj_1/t_6"
    type {
      tensor_type {
        elem_type: 1
        shape {
          dim {
            dim_value: 256
          }
          dim {
            dim_value: 256
          }
        }
      }
    }
  }
  value_info {
    name: "pkg.torch.2.2.0a0+git63d65dd::torch_nn_modules_linear_Linear_model_decoder_layers_1_self_attn_q_proj_1/addmm_6"
    type {
      tensor_type {
        elem_type: 1
        shape {
          dim {
            dim_value: 128
          }
          dim {
            dim_value: 256
          }
        }
      }
    }
  }
  value_info {
    name: "pkg.torch.2.2.0a0+git63d65dd::torch_nn_modules_linear_Linear_model_decoder_layers_1_self_attn_q_proj_1/view_27"
    type {
      tensor_type {
        elem_type: 1
        shape {
          dim {
            dim_value: 1
          }
          dim {
            dim_value: 128
          }
          dim {
            dim_value: 256
          }
        }
      }
    }
  }
  value_info {
    name: "pkg.torch.2.2.0a0+git63d65dd::torch_nn_modules_linear_Linear_model_decoder_layers_1_self_attn_k_proj_1/getitem_3"
    type {
      tensor_type {
        elem_type: 1
        shape {
          dim {
            dim_value: 1
          }
          dim {
            dim_value: 128
          }
          dim {
            dim_value: 256
          }
        }
      }
    }
  }
  value_info {
    name: "pkg.torch.2.2.0a0+git63d65dd::torch_nn_modules_linear_Linear_model_decoder_layers_1_self_attn_k_proj_1/view_28"
    type {
      tensor_type {
        elem_type: 1
        shape {
          dim {
            dim_value: 128
          }
          dim {
            dim_value: 256
          }
        }
      }
    }
  }
  value_info {
    name: "pkg.torch.2.2.0a0+git63d65dd::torch_nn_modules_linear_Linear_model_decoder_layers_1_self_attn_k_proj_1/t_7"
    type {
      tensor_type {
        elem_type: 1
        shape {
          dim {
            dim_value: 256
          }
          dim {
            dim_value: 256
          }
        }
      }
    }
  }
  value_info {
    name: "pkg.torch.2.2.0a0+git63d65dd::torch_nn_modules_linear_Linear_model_decoder_layers_1_self_attn_k_proj_1/addmm_7"
    type {
      tensor_type {
        elem_type: 1
        shape {
          dim {
            dim_value: 128
          }
          dim {
            dim_value: 256
          }
        }
      }
    }
  }
  value_info {
    name: "pkg.torch.2.2.0a0+git63d65dd::torch_nn_modules_linear_Linear_model_decoder_layers_1_self_attn_k_proj_1/view_29"
    type {
      tensor_type {
        elem_type: 1
        shape {
          dim {
            dim_value: 1
          }
          dim {
            dim_value: 128
          }
          dim {
            dim_value: 256
          }
        }
      }
    }
  }
  value_info {
    name: "pkg.torch.2.2.0a0+git63d65dd::torch_nn_modules_linear_Linear_model_decoder_layers_1_self_attn_v_proj_1/getitem_3"
    type {
      tensor_type {
        elem_type: 1
        shape {
          dim {
            dim_value: 1
          }
          dim {
            dim_value: 128
          }
          dim {
            dim_value: 256
          }
        }
      }
    }
  }
  value_info {
    name: "pkg.torch.2.2.0a0+git63d65dd::torch_nn_modules_linear_Linear_model_decoder_layers_1_self_attn_v_proj_1/view_31"
    type {
      tensor_type {
        elem_type: 1
        shape {
          dim {
            dim_value: 128
          }
          dim {
            dim_value: 256
          }
        }
      }
    }
  }
  value_info {
    name: "pkg.torch.2.2.0a0+git63d65dd::torch_nn_modules_linear_Linear_model_decoder_layers_1_self_attn_v_proj_1/t_8"
    type {
      tensor_type {
        elem_type: 1
        shape {
          dim {
            dim_value: 256
          }
          dim {
            dim_value: 256
          }
        }
      }
    }
  }
  value_info {
    name: "pkg.torch.2.2.0a0+git63d65dd::torch_nn_modules_linear_Linear_model_decoder_layers_1_self_attn_v_proj_1/addmm_8"
    type {
      tensor_type {
        elem_type: 1
        shape {
          dim {
            dim_value: 128
          }
          dim {
            dim_value: 256
          }
        }
      }
    }
  }
  value_info {
    name: "pkg.torch.2.2.0a0+git63d65dd::torch_nn_modules_linear_Linear_model_decoder_layers_1_self_attn_v_proj_1/view_32"
    type {
      tensor_type {
        elem_type: 1
        shape {
          dim {
            dim_value: 1
          }
          dim {
            dim_value: 128
          }
          dim {
            dim_value: 256
          }
        }
      }
    }
  }
  value_info {
    name: "pkg.torch.2.2.0a0+git63d65dd::torch_nn_modules_linear_Linear_model_decoder_layers_1_self_attn_out_proj_1/view_41"
    type {
      tensor_type {
        elem_type: 1
        shape {
          dim {
            dim_value: 1
          }
          dim {
            dim_value: 128
          }
          dim {
            dim_value: 256
          }
        }
      }
    }
  }
  value_info {
    name: "pkg.torch.2.2.0a0+git63d65dd::torch_nn_modules_linear_Linear_model_decoder_layers_1_self_attn_out_proj_1/view_42"
    type {
      tensor_type {
        elem_type: 1
        shape {
          dim {
            dim_value: 128
          }
          dim {
            dim_value: 256
          }
        }
      }
    }
  }
  value_info {
    name: "pkg.torch.2.2.0a0+git63d65dd::torch_nn_modules_linear_Linear_model_decoder_layers_1_self_attn_out_proj_1/t_9"
    type {
      tensor_type {
        elem_type: 1
        shape {
          dim {
            dim_value: 256
          }
          dim {
            dim_value: 256
          }
        }
      }
    }
  }
  value_info {
    name: "pkg.torch.2.2.0a0+git63d65dd::torch_nn_modules_linear_Linear_model_decoder_layers_1_self_attn_out_proj_1/addmm_9"
    type {
      tensor_type {
        elem_type: 1
        shape {
          dim {
            dim_value: 128
          }
          dim {
            dim_value: 256
          }
        }
      }
    }
  }
  value_info {
    name: "pkg.torch.2.2.0a0+git63d65dd::torch_nn_modules_linear_Linear_model_decoder_layers_1_self_attn_out_proj_1/view_43"
    type {
      tensor_type {
        elem_type: 1
        shape {
          dim {
            dim_value: 1
          }
          dim {
            dim_value: 128
          }
          dim {
            dim_value: 256
          }
        }
      }
    }
  }
  value_info {
    name: "pkg.transformers.4.34.0.dev0::transformers_models_speech_to_text_2_modeling_speech_to_text_2_Speech2Text2Attention_model_decoder_layers_1_self_attn_1/getitem_3"
    type {
      tensor_type {
        elem_type: 1
        shape {
          dim {
            dim_value: 1
          }
          dim {
            dim_value: 128
          }
          dim {
            dim_value: 256
          }
        }
      }
    }
  }
  value_info {
    name: "pkg.transformers.4.34.0.dev0::transformers_models_speech_to_text_2_modeling_speech_to_text_2_Speech2Text2Attention_model_decoder_layers_1_self_attn_1/expand_1"
    type {
      tensor_type {
        elem_type: 1
        shape {
          dim {
            dim_value: 1
          }
          dim {
            dim_value: 1
          }
          dim {
            dim_value: 128
          }
          dim {
            dim_value: 128
          }
        }
      }
    }
  }
  value_info {
    name: "pkg.transformers.4.34.0.dev0::transformers_models_speech_to_text_2_modeling_speech_to_text_2_Speech2Text2Attention_model_decoder_layers_1_self_attn_1/model_decoder_layers_1_self_attn_q_proj_1"
    type {
      tensor_type {
        elem_type: 1
        shape {
          dim {
            dim_value: 1
          }
          dim {
            dim_value: 128
          }
          dim {
            dim_value: 256
          }
        }
      }
    }
  }
  value_info {
    name: "pkg.transformers.4.34.0.dev0::transformers_models_speech_to_text_2_modeling_speech_to_text_2_Speech2Text2Attention_model_decoder_layers_1_self_attn_1/mul_3"
    type {
      tensor_type {
        elem_type: 1
        shape {
          dim {
            dim_value: 1
          }
          dim {
            dim_value: 128
          }
          dim {
            dim_value: 256
          }
        }
      }
    }
  }
  value_info {
    name: "pkg.transformers.4.34.0.dev0::transformers_models_speech_to_text_2_modeling_speech_to_text_2_Speech2Text2Attention_model_decoder_layers_1_self_attn_1/model_decoder_layers_1_self_attn_k_proj_1"
    type {
      tensor_type {
        elem_type: 1
        shape {
          dim {
            dim_value: 1
          }
          dim {
            dim_value: 128
          }
          dim {
            dim_value: 256
          }
        }
      }
    }
  }
  value_info {
    name: "pkg.transformers.4.34.0.dev0::transformers_models_speech_to_text_2_modeling_speech_to_text_2_Speech2Text2Attention_model_decoder_layers_1_self_attn_1/view_30"
    type {
      tensor_type {
        elem_type: 1
        shape {
          dim {
            dim_value: 1
          }
          dim {
            dim_value: 128
          }
          dim {
            dim_value: 4
          }
          dim {
            dim_value: 64
          }
        }
      }
    }
  }
  value_info {
    name: "pkg.transformers.4.34.0.dev0::transformers_models_speech_to_text_2_modeling_speech_to_text_2_Speech2Text2Attention_model_decoder_layers_1_self_attn_1/transpose_5"
    type {
      tensor_type {
        elem_type: 1
        shape {
          dim {
            dim_value: 1
          }
          dim {
            dim_value: 4
          }
          dim {
            dim_value: 128
          }
          dim {
            dim_value: 64
          }
        }
      }
    }
  }
  value_info {
    name: "pkg.transformers.4.34.0.dev0::transformers_models_speech_to_text_2_modeling_speech_to_text_2_Speech2Text2Attention_model_decoder_layers_1_self_attn_1/clone_9"
    type {
      tensor_type {
        elem_type: 1
        shape {
          dim {
            dim_value: 1
          }
          dim {
            dim_value: 4
          }
          dim {
            dim_value: 128
          }
          dim {
            dim_value: 64
          }
        }
      }
    }
  }
  value_info {
    name: "pkg.transformers.4.34.0.dev0::transformers_models_speech_to_text_2_modeling_speech_to_text_2_Speech2Text2Attention_model_decoder_layers_1_self_attn_1/model_decoder_layers_1_self_attn_v_proj_1"
    type {
      tensor_type {
        elem_type: 1
        shape {
          dim {
            dim_value: 1
          }
          dim {
            dim_value: 128
          }
          dim {
            dim_value: 256
          }
        }
      }
    }
  }
  value_info {
    name: "pkg.transformers.4.34.0.dev0::transformers_models_speech_to_text_2_modeling_speech_to_text_2_Speech2Text2Attention_model_decoder_layers_1_self_attn_1/view_33"
    type {
      tensor_type {
        elem_type: 1
        shape {
          dim {
            dim_value: 1
          }
          dim {
            dim_value: 128
          }
          dim {
            dim_value: 4
          }
          dim {
            dim_value: 64
          }
        }
      }
    }
  }
  value_info {
    name: "pkg.transformers.4.34.0.dev0::transformers_models_speech_to_text_2_modeling_speech_to_text_2_Speech2Text2Attention_model_decoder_layers_1_self_attn_1/transpose_6"
    type {
      tensor_type {
        elem_type: 1
        shape {
          dim {
            dim_value: 1
          }
          dim {
            dim_value: 4
          }
          dim {
            dim_value: 128
          }
          dim {
            dim_value: 64
          }
        }
      }
    }
  }
  value_info {
    name: "pkg.transformers.4.34.0.dev0::transformers_models_speech_to_text_2_modeling_speech_to_text_2_Speech2Text2Attention_model_decoder_layers_1_self_attn_1/clone_10"
    type {
      tensor_type {
        elem_type: 1
        shape {
          dim {
            dim_value: 1
          }
          dim {
            dim_value: 4
          }
          dim {
            dim_value: 128
          }
          dim {
            dim_value: 64
          }
        }
      }
    }
  }
  value_info {
    name: "pkg.transformers.4.34.0.dev0::transformers_models_speech_to_text_2_modeling_speech_to_text_2_Speech2Text2Attention_model_decoder_layers_1_self_attn_1/view_34"
    type {
      tensor_type {
        elem_type: 1
        shape {
          dim {
            dim_value: 1
          }
          dim {
            dim_value: 128
          }
          dim {
            dim_value: 4
          }
          dim {
            dim_value: 64
          }
        }
      }
    }
  }
  value_info {
    name: "pkg.transformers.4.34.0.dev0::transformers_models_speech_to_text_2_modeling_speech_to_text_2_Speech2Text2Attention_model_decoder_layers_1_self_attn_1/transpose_7"
    type {
      tensor_type {
        elem_type: 1
        shape {
          dim {
            dim_value: 1
          }
          dim {
            dim_value: 4
          }
          dim {
            dim_value: 128
          }
          dim {
            dim_value: 64
          }
        }
      }
    }
  }
  value_info {
    name: "pkg.transformers.4.34.0.dev0::transformers_models_speech_to_text_2_modeling_speech_to_text_2_Speech2Text2Attention_model_decoder_layers_1_self_attn_1/clone_11"
    type {
      tensor_type {
        elem_type: 1
        shape {
          dim {
            dim_value: 1
          }
          dim {
            dim_value: 4
          }
          dim {
            dim_value: 128
          }
          dim {
            dim_value: 64
          }
        }
      }
    }
  }
  value_info {
    name: "pkg.transformers.4.34.0.dev0::transformers_models_speech_to_text_2_modeling_speech_to_text_2_Speech2Text2Attention_model_decoder_layers_1_self_attn_1/view_35"
    type {
      tensor_type {
        elem_type: 1
        shape {
          dim {
            dim_value: 4
          }
          dim {
            dim_value: 128
          }
          dim {
            dim_value: 64
          }
        }
      }
    }
  }
  value_info {
    name: "pkg.transformers.4.34.0.dev0::transformers_models_speech_to_text_2_modeling_speech_to_text_2_Speech2Text2Attention_model_decoder_layers_1_self_attn_1/view_36"
    type {
      tensor_type {
        elem_type: 1
        shape {
          dim {
            dim_value: 4
          }
          dim {
            dim_value: 128
          }
          dim {
            dim_value: 64
          }
        }
      }
    }
  }
  value_info {
    name: "pkg.transformers.4.34.0.dev0::transformers_models_speech_to_text_2_modeling_speech_to_text_2_Speech2Text2Attention_model_decoder_layers_1_self_attn_1/view_37"
    type {
      tensor_type {
        elem_type: 1
        shape {
          dim {
            dim_value: 4
          }
          dim {
            dim_value: 128
          }
          dim {
            dim_value: 64
          }
        }
      }
    }
  }
  value_info {
    name: "pkg.transformers.4.34.0.dev0::transformers_models_speech_to_text_2_modeling_speech_to_text_2_Speech2Text2Attention_model_decoder_layers_1_self_attn_1/transpose_8"
    type {
      tensor_type {
        elem_type: 1
        shape {
          dim {
            dim_value: 4
          }
          dim {
            dim_value: 64
          }
          dim {
            dim_value: 128
          }
        }
      }
    }
  }
  value_info {
    name: "pkg.transformers.4.34.0.dev0::transformers_models_speech_to_text_2_modeling_speech_to_text_2_Speech2Text2Attention_model_decoder_layers_1_self_attn_1/bmm_2"
    type {
      tensor_type {
        elem_type: 1
        shape {
          dim {
            dim_value: 4
          }
          dim {
            dim_value: 128
          }
          dim {
            dim_value: 128
          }
        }
      }
    }
  }
  value_info {
    name: "pkg.transformers.4.34.0.dev0::transformers_models_speech_to_text_2_modeling_speech_to_text_2_Speech2Text2Attention_model_decoder_layers_1_self_attn_1/view_38"
    type {
      tensor_type {
        elem_type: 1
        shape {
          dim {
            dim_value: 1
          }
          dim {
            dim_value: 4
          }
          dim {
            dim_value: 128
          }
          dim {
            dim_value: 128
          }
        }
      }
    }
  }
  value_info {
    name: "pkg.transformers.4.34.0.dev0::transformers_models_speech_to_text_2_modeling_speech_to_text_2_Speech2Text2Attention_model_decoder_layers_1_self_attn_1/add_7"
    type {
      tensor_type {
        elem_type: 1
        shape {
          dim {
            dim_value: 1
          }
          dim {
            dim_value: 4
          }
          dim {
            dim_value: 128
          }
          dim {
            dim_value: 128
          }
        }
      }
    }
  }
  value_info {
    name: "pkg.transformers.4.34.0.dev0::transformers_models_speech_to_text_2_modeling_speech_to_text_2_Speech2Text2Attention_model_decoder_layers_1_self_attn_1/view_39"
    type {
      tensor_type {
        elem_type: 1
        shape {
          dim {
            dim_value: 4
          }
          dim {
            dim_value: 128
          }
          dim {
            dim_value: 128
          }
        }
      }
    }
  }
  value_info {
    name: "pkg.transformers.4.34.0.dev0::transformers_models_speech_to_text_2_modeling_speech_to_text_2_Speech2Text2Attention_model_decoder_layers_1_self_attn_1/_softmax_1"
    type {
      tensor_type {
        elem_type: 1
        shape {
          dim {
            dim_value: 4
          }
          dim {
            dim_value: 128
          }
          dim {
            dim_value: 128
          }
        }
      }
    }
  }
  value_info {
    name: "pkg.transformers.4.34.0.dev0::transformers_models_speech_to_text_2_modeling_speech_to_text_2_Speech2Text2Attention_model_decoder_layers_1_self_attn_1/clone_12"
    type {
      tensor_type {
        elem_type: 1
        shape {
          dim {
            dim_value: 4
          }
          dim {
            dim_value: 128
          }
          dim {
            dim_value: 128
          }
        }
      }
    }
  }
  value_info {
    name: "pkg.transformers.4.34.0.dev0::transformers_models_speech_to_text_2_modeling_speech_to_text_2_Speech2Text2Attention_model_decoder_layers_1_self_attn_1/bmm_3"
    type {
      tensor_type {
        elem_type: 1
        shape {
          dim {
            dim_value: 4
          }
          dim {
            dim_value: 128
          }
          dim {
            dim_value: 64
          }
        }
      }
    }
  }
  value_info {
    name: "pkg.transformers.4.34.0.dev0::transformers_models_speech_to_text_2_modeling_speech_to_text_2_Speech2Text2Attention_model_decoder_layers_1_self_attn_1/view_40"
    type {
      tensor_type {
        elem_type: 1
        shape {
          dim {
            dim_value: 1
          }
          dim {
            dim_value: 4
          }
          dim {
            dim_value: 128
          }
          dim {
            dim_value: 64
          }
        }
      }
    }
  }
  value_info {
    name: "pkg.transformers.4.34.0.dev0::transformers_models_speech_to_text_2_modeling_speech_to_text_2_Speech2Text2Attention_model_decoder_layers_1_self_attn_1/transpose_9"
    type {
      tensor_type {
        elem_type: 1
        shape {
          dim {
            dim_value: 1
          }
          dim {
            dim_value: 128
          }
          dim {
            dim_value: 4
          }
          dim {
            dim_value: 64
          }
        }
      }
    }
  }
  value_info {
    name: "pkg.transformers.4.34.0.dev0::transformers_models_speech_to_text_2_modeling_speech_to_text_2_Speech2Text2Attention_model_decoder_layers_1_self_attn_1/clone_13"
    type {
      tensor_type {
        elem_type: 1
        shape {
          dim {
            dim_value: 1
          }
          dim {
            dim_value: 128
          }
          dim {
            dim_value: 4
          }
          dim {
            dim_value: 64
          }
        }
      }
    }
  }
  value_info {
    name: "pkg.transformers.4.34.0.dev0::transformers_models_speech_to_text_2_modeling_speech_to_text_2_Speech2Text2Attention_model_decoder_layers_1_self_attn_1/view_41"
    type {
      tensor_type {
        elem_type: 1
        shape {
          dim {
            dim_value: 1
          }
          dim {
            dim_value: 128
          }
          dim {
            dim_value: 256
          }
        }
      }
    }
  }
  value_info {
    name: "pkg.transformers.4.34.0.dev0::transformers_models_speech_to_text_2_modeling_speech_to_text_2_Speech2Text2Attention_model_decoder_layers_1_self_attn_1/model_decoder_layers_1_self_attn_out_proj_1"
    type {
      tensor_type {
        elem_type: 1
        shape {
          dim {
            dim_value: 1
          }
          dim {
            dim_value: 128
          }
          dim {
            dim_value: 256
          }
        }
      }
    }
  }
  value_info {
    name: "pkg.torch.2.2.0a0+git63d65dd::torch_nn_modules_normalization_LayerNorm_model_decoder_layers_1_self_attn_layer_norm_1/add_8"
    type {
      tensor_type {
        elem_type: 1
        shape {
          dim {
            dim_value: 1
          }
          dim {
            dim_value: 128
          }
          dim {
            dim_value: 256
          }
        }
      }
    }
  }
  value_info {
    name: "pkg.torch.2.2.0a0+git63d65dd::torch_nn_modules_normalization_LayerNorm_model_decoder_layers_1_self_attn_layer_norm_1/native_layer_norm_2"
    type {
      tensor_type {
        elem_type: 1
        shape {
          dim {
            dim_value: 1
          }
          dim {
            dim_value: 128
          }
          dim {
            dim_value: 256
          }
        }
      }
    }
  }
  value_info {
    name: "pkg.torch.2.2.0a0+git63d65dd::torch_nn_modules_normalization_LayerNorm_model_decoder_layers_1_self_attn_layer_norm_1/native_layer_norm_2_1"
    type {
      tensor_type {
        elem_type: 1
        shape {
          dim {
            dim_value: 1
          }
          dim {
            dim_value: 128
          }
          dim {
            dim_value: 1
          }
        }
      }
    }
  }
  value_info {
    name: "pkg.torch.2.2.0a0+git63d65dd::torch_nn_modules_normalization_LayerNorm_model_decoder_layers_1_self_attn_layer_norm_1/native_layer_norm_2_2"
    type {
      tensor_type {
        elem_type: 1
        shape {
          dim {
            dim_value: 1
          }
          dim {
            dim_value: 128
          }
          dim {
            dim_value: 1
          }
        }
      }
    }
  }
  value_info {
    name: "pkg.torch.2.2.0a0+git63d65dd::torch_nn_modules_linear_Linear_model_decoder_layers_1_fc1_1/getitem_6"
    type {
      tensor_type {
        elem_type: 1
        shape {
          dim {
            dim_value: 1
          }
          dim {
            dim_value: 128
          }
          dim {
            dim_value: 256
          }
        }
      }
    }
  }
  value_info {
    name: "pkg.torch.2.2.0a0+git63d65dd::torch_nn_modules_linear_Linear_model_decoder_layers_1_fc1_1/view_44"
    type {
      tensor_type {
        elem_type: 1
        shape {
          dim {
            dim_value: 128
          }
          dim {
            dim_value: 256
          }
        }
      }
    }
  }
  value_info {
    name: "pkg.torch.2.2.0a0+git63d65dd::torch_nn_modules_linear_Linear_model_decoder_layers_1_fc1_1/t_10"
    type {
      tensor_type {
        elem_type: 1
        shape {
          dim {
            dim_value: 256
          }
          dim {
            dim_value: 2048
          }
        }
      }
    }
  }
  value_info {
    name: "pkg.torch.2.2.0a0+git63d65dd::torch_nn_modules_linear_Linear_model_decoder_layers_1_fc1_1/addmm_10"
    type {
      tensor_type {
        elem_type: 1
        shape {
          dim {
            dim_value: 128
          }
          dim {
            dim_value: 2048
          }
        }
      }
    }
  }
  value_info {
    name: "pkg.torch.2.2.0a0+git63d65dd::torch_nn_modules_linear_Linear_model_decoder_layers_1_fc1_1/view_45"
    type {
      tensor_type {
        elem_type: 1
        shape {
          dim {
            dim_value: 1
          }
          dim {
            dim_value: 128
          }
          dim {
            dim_value: 2048
          }
        }
      }
    }
  }
  value_info {
    name: "pkg.torch.2.2.0a0+git63d65dd::torch_nn_modules_activation_ReLU_model_decoder_layers_1_activation_fn_1/view_45"
    type {
      tensor_type {
        elem_type: 1
        shape {
          dim {
            dim_value: 1
          }
          dim {
            dim_value: 128
          }
          dim {
            dim_value: 2048
          }
        }
      }
    }
  }
  value_info {
    name: "pkg.torch.2.2.0a0+git63d65dd::torch_nn_modules_activation_ReLU_model_decoder_layers_1_activation_fn_1/relu_1"
    type {
      tensor_type {
        elem_type: 1
        shape {
          dim {
            dim_value: 1
          }
          dim {
            dim_value: 128
          }
          dim {
            dim_value: 2048
          }
        }
      }
    }
  }
  value_info {
    name: "pkg.torch.2.2.0a0+git63d65dd::torch_nn_modules_linear_Linear_model_decoder_layers_1_fc2_1/clone_15"
    type {
      tensor_type {
        elem_type: 1
        shape {
          dim {
            dim_value: 1
          }
          dim {
            dim_value: 128
          }
          dim {
            dim_value: 2048
          }
        }
      }
    }
  }
  value_info {
    name: "pkg.torch.2.2.0a0+git63d65dd::torch_nn_modules_linear_Linear_model_decoder_layers_1_fc2_1/view_46"
    type {
      tensor_type {
        elem_type: 1
        shape {
          dim {
            dim_value: 128
          }
          dim {
            dim_value: 2048
          }
        }
      }
    }
  }
  value_info {
    name: "pkg.torch.2.2.0a0+git63d65dd::torch_nn_modules_linear_Linear_model_decoder_layers_1_fc2_1/t_11"
    type {
      tensor_type {
        elem_type: 1
        shape {
          dim {
            dim_value: 2048
          }
          dim {
            dim_value: 256
          }
        }
      }
    }
  }
  value_info {
    name: "pkg.torch.2.2.0a0+git63d65dd::torch_nn_modules_linear_Linear_model_decoder_layers_1_fc2_1/addmm_11"
    type {
      tensor_type {
        elem_type: 1
        shape {
          dim {
            dim_value: 128
          }
          dim {
            dim_value: 256
          }
        }
      }
    }
  }
  value_info {
    name: "pkg.torch.2.2.0a0+git63d65dd::torch_nn_modules_linear_Linear_model_decoder_layers_1_fc2_1/view_47"
    type {
      tensor_type {
        elem_type: 1
        shape {
          dim {
            dim_value: 1
          }
          dim {
            dim_value: 128
          }
          dim {
            dim_value: 256
          }
        }
      }
    }
  }
  value_info {
    name: "pkg.torch.2.2.0a0+git63d65dd::torch_nn_modules_normalization_LayerNorm_model_decoder_layers_1_final_layer_norm_1/add_9"
    type {
      tensor_type {
        elem_type: 1
        shape {
          dim {
            dim_value: 1
          }
          dim {
            dim_value: 128
          }
          dim {
            dim_value: 256
          }
        }
      }
    }
  }
  value_info {
    name: "pkg.torch.2.2.0a0+git63d65dd::torch_nn_modules_normalization_LayerNorm_model_decoder_layers_1_final_layer_norm_1/native_layer_norm_3"
    type {
      tensor_type {
        elem_type: 1
        shape {
          dim {
            dim_value: 1
          }
          dim {
            dim_value: 128
          }
          dim {
            dim_value: 256
          }
        }
      }
    }
  }
  value_info {
    name: "pkg.torch.2.2.0a0+git63d65dd::torch_nn_modules_normalization_LayerNorm_model_decoder_layers_1_final_layer_norm_1/native_layer_norm_3_1"
    type {
      tensor_type {
        elem_type: 1
        shape {
          dim {
            dim_value: 1
          }
          dim {
            dim_value: 128
          }
          dim {
            dim_value: 1
          }
        }
      }
    }
  }
  value_info {
    name: "pkg.torch.2.2.0a0+git63d65dd::torch_nn_modules_normalization_LayerNorm_model_decoder_layers_1_final_layer_norm_1/native_layer_norm_3_2"
    type {
      tensor_type {
        elem_type: 1
        shape {
          dim {
            dim_value: 1
          }
          dim {
            dim_value: 128
          }
          dim {
            dim_value: 1
          }
        }
      }
    }
  }
  value_info {
    name: "pkg.transformers.4.34.0.dev0::transformers_models_speech_to_text_2_modeling_speech_to_text_2_Speech2Text2DecoderLayer_model_decoder_layers_1_1/getitem_3"
    type {
      tensor_type {
        elem_type: 1
        shape {
          dim {
            dim_value: 1
          }
          dim {
            dim_value: 128
          }
          dim {
            dim_value: 256
          }
        }
      }
    }
  }
  value_info {
    name: "pkg.transformers.4.34.0.dev0::transformers_models_speech_to_text_2_modeling_speech_to_text_2_Speech2Text2DecoderLayer_model_decoder_layers_1_1/expand_1"
    type {
      tensor_type {
        elem_type: 1
        shape {
          dim {
            dim_value: 1
          }
          dim {
            dim_value: 1
          }
          dim {
            dim_value: 128
          }
          dim {
            dim_value: 128
          }
        }
      }
    }
  }
  value_info {
    name: "pkg.transformers.4.34.0.dev0::transformers_models_speech_to_text_2_modeling_speech_to_text_2_Speech2Text2DecoderLayer_model_decoder_layers_1_1/model_decoder_layers_1_self_attn_1"
    type {
      tensor_type {
        elem_type: 1
        shape {
          dim {
            dim_value: 1
          }
          dim {
            dim_value: 4
          }
          dim {
            dim_value: 128
          }
          dim {
            dim_value: 64
          }
        }
      }
    }
  }
  value_info {
    name: "pkg.transformers.4.34.0.dev0::transformers_models_speech_to_text_2_modeling_speech_to_text_2_Speech2Text2DecoderLayer_model_decoder_layers_1_1/model_decoder_layers_1_self_attn_1_1"
    type {
      tensor_type {
        elem_type: 1
        shape {
          dim {
            dim_value: 1
          }
          dim {
            dim_value: 4
          }
          dim {
            dim_value: 128
          }
          dim {
            dim_value: 64
          }
        }
      }
    }
  }
  value_info {
    name: "pkg.transformers.4.34.0.dev0::transformers_models_speech_to_text_2_modeling_speech_to_text_2_Speech2Text2DecoderLayer_model_decoder_layers_1_1/model_decoder_layers_1_self_attn_1_2"
    type {
      tensor_type {
        elem_type: 1
        shape {
          dim {
            dim_value: 1
          }
          dim {
            dim_value: 128
          }
          dim {
            dim_value: 256
          }
        }
      }
    }
  }
  value_info {
    name: "pkg.transformers.4.34.0.dev0::transformers_models_speech_to_text_2_modeling_speech_to_text_2_Speech2Text2DecoderLayer_model_decoder_layers_1_1/clone_14"
    type {
      tensor_type {
        elem_type: 1
        shape {
          dim {
            dim_value: 1
          }
          dim {
            dim_value: 128
          }
          dim {
            dim_value: 256
          }
        }
      }
    }
  }
  value_info {
    name: "pkg.transformers.4.34.0.dev0::transformers_models_speech_to_text_2_modeling_speech_to_text_2_Speech2Text2DecoderLayer_model_decoder_layers_1_1/add_8"
    type {
      tensor_type {
        elem_type: 1
        shape {
          dim {
            dim_value: 1
          }
          dim {
            dim_value: 128
          }
          dim {
            dim_value: 256
          }
        }
      }
    }
  }
  value_info {
    name: "pkg.transformers.4.34.0.dev0::transformers_models_speech_to_text_2_modeling_speech_to_text_2_Speech2Text2DecoderLayer_model_decoder_layers_1_1/model_decoder_layers_1_self_attn_layer_norm_1"
    type {
      tensor_type {
        elem_type: 1
        shape {
          dim {
            dim_value: 1
          }
          dim {
            dim_value: 128
          }
          dim {
            dim_value: 256
          }
        }
      }
    }
  }
  value_info {
    name: "pkg.transformers.4.34.0.dev0::transformers_models_speech_to_text_2_modeling_speech_to_text_2_Speech2Text2DecoderLayer_model_decoder_layers_1_1/model_decoder_layers_1_fc1_1"
    type {
      tensor_type {
        elem_type: 1
        shape {
          dim {
            dim_value: 1
          }
          dim {
            dim_value: 128
          }
          dim {
            dim_value: 2048
          }
        }
      }
    }
  }
  value_info {
    name: "pkg.transformers.4.34.0.dev0::transformers_models_speech_to_text_2_modeling_speech_to_text_2_Speech2Text2DecoderLayer_model_decoder_layers_1_1/model_decoder_layers_1_activation_fn_1"
    type {
      tensor_type {
        elem_type: 1
        shape {
          dim {
            dim_value: 1
          }
          dim {
            dim_value: 128
          }
          dim {
            dim_value: 2048
          }
        }
      }
    }
  }
  value_info {
    name: "pkg.transformers.4.34.0.dev0::transformers_models_speech_to_text_2_modeling_speech_to_text_2_Speech2Text2DecoderLayer_model_decoder_layers_1_1/clone_15"
    type {
      tensor_type {
        elem_type: 1
        shape {
          dim {
            dim_value: 1
          }
          dim {
            dim_value: 128
          }
          dim {
            dim_value: 2048
          }
        }
      }
    }
  }
  value_info {
    name: "pkg.transformers.4.34.0.dev0::transformers_models_speech_to_text_2_modeling_speech_to_text_2_Speech2Text2DecoderLayer_model_decoder_layers_1_1/model_decoder_layers_1_fc2_1"
    type {
      tensor_type {
        elem_type: 1
        shape {
          dim {
            dim_value: 1
          }
          dim {
            dim_value: 128
          }
          dim {
            dim_value: 256
          }
        }
      }
    }
  }
  value_info {
    name: "pkg.transformers.4.34.0.dev0::transformers_models_speech_to_text_2_modeling_speech_to_text_2_Speech2Text2DecoderLayer_model_decoder_layers_1_1/clone_16"
    type {
      tensor_type {
        elem_type: 1
        shape {
          dim {
            dim_value: 1
          }
          dim {
            dim_value: 128
          }
          dim {
            dim_value: 256
          }
        }
      }
    }
  }
  value_info {
    name: "pkg.transformers.4.34.0.dev0::transformers_models_speech_to_text_2_modeling_speech_to_text_2_Speech2Text2DecoderLayer_model_decoder_layers_1_1/add_9"
    type {
      tensor_type {
        elem_type: 1
        shape {
          dim {
            dim_value: 1
          }
          dim {
            dim_value: 128
          }
          dim {
            dim_value: 256
          }
        }
      }
    }
  }
  value_info {
    name: "pkg.transformers.4.34.0.dev0::transformers_models_speech_to_text_2_modeling_speech_to_text_2_Speech2Text2DecoderLayer_model_decoder_layers_1_1/model_decoder_layers_1_final_layer_norm_1"
    type {
      tensor_type {
        elem_type: 1
        shape {
          dim {
            dim_value: 1
          }
          dim {
            dim_value: 128
          }
          dim {
            dim_value: 256
          }
        }
      }
    }
  }
  value_info {
    name: "pkg.torch.2.2.0a0+git63d65dd::torch_nn_modules_linear_Linear_model_decoder_layers_2_self_attn_q_proj_1/getitem_9"
    type {
      tensor_type {
        elem_type: 1
        shape {
          dim {
            dim_value: 1
          }
          dim {
            dim_value: 128
          }
          dim {
            dim_value: 256
          }
        }
      }
    }
  }
  value_info {
    name: "pkg.torch.2.2.0a0+git63d65dd::torch_nn_modules_linear_Linear_model_decoder_layers_2_self_attn_q_proj_1/view_48"
    type {
      tensor_type {
        elem_type: 1
        shape {
          dim {
            dim_value: 128
          }
          dim {
            dim_value: 256
          }
        }
      }
    }
  }
  value_info {
    name: "pkg.torch.2.2.0a0+git63d65dd::torch_nn_modules_linear_Linear_model_decoder_layers_2_self_attn_q_proj_1/t_12"
    type {
      tensor_type {
        elem_type: 1
        shape {
          dim {
            dim_value: 256
          }
          dim {
            dim_value: 256
          }
        }
      }
    }
  }
  value_info {
    name: "pkg.torch.2.2.0a0+git63d65dd::torch_nn_modules_linear_Linear_model_decoder_layers_2_self_attn_q_proj_1/addmm_12"
    type {
      tensor_type {
        elem_type: 1
        shape {
          dim {
            dim_value: 128
          }
          dim {
            dim_value: 256
          }
        }
      }
    }
  }
  value_info {
    name: "pkg.torch.2.2.0a0+git63d65dd::torch_nn_modules_linear_Linear_model_decoder_layers_2_self_attn_q_proj_1/view_49"
    type {
      tensor_type {
        elem_type: 1
        shape {
          dim {
            dim_value: 1
          }
          dim {
            dim_value: 128
          }
          dim {
            dim_value: 256
          }
        }
      }
    }
  }
  value_info {
    name: "pkg.torch.2.2.0a0+git63d65dd::torch_nn_modules_linear_Linear_model_decoder_layers_2_self_attn_k_proj_1/getitem_9"
    type {
      tensor_type {
        elem_type: 1
        shape {
          dim {
            dim_value: 1
          }
          dim {
            dim_value: 128
          }
          dim {
            dim_value: 256
          }
        }
      }
    }
  }
  value_info {
    name: "pkg.torch.2.2.0a0+git63d65dd::torch_nn_modules_linear_Linear_model_decoder_layers_2_self_attn_k_proj_1/view_50"
    type {
      tensor_type {
        elem_type: 1
        shape {
          dim {
            dim_value: 128
          }
          dim {
            dim_value: 256
          }
        }
      }
    }
  }
  value_info {
    name: "pkg.torch.2.2.0a0+git63d65dd::torch_nn_modules_linear_Linear_model_decoder_layers_2_self_attn_k_proj_1/t_13"
    type {
      tensor_type {
        elem_type: 1
        shape {
          dim {
            dim_value: 256
          }
          dim {
            dim_value: 256
          }
        }
      }
    }
  }
  value_info {
    name: "pkg.torch.2.2.0a0+git63d65dd::torch_nn_modules_linear_Linear_model_decoder_layers_2_self_attn_k_proj_1/addmm_13"
    type {
      tensor_type {
        elem_type: 1
        shape {
          dim {
            dim_value: 128
          }
          dim {
            dim_value: 256
          }
        }
      }
    }
  }
  value_info {
    name: "pkg.torch.2.2.0a0+git63d65dd::torch_nn_modules_linear_Linear_model_decoder_layers_2_self_attn_k_proj_1/view_51"
    type {
      tensor_type {
        elem_type: 1
        shape {
          dim {
            dim_value: 1
          }
          dim {
            dim_value: 128
          }
          dim {
            dim_value: 256
          }
        }
      }
    }
  }
  value_info {
    name: "pkg.torch.2.2.0a0+git63d65dd::torch_nn_modules_linear_Linear_model_decoder_layers_2_self_attn_v_proj_1/getitem_9"
    type {
      tensor_type {
        elem_type: 1
        shape {
          dim {
            dim_value: 1
          }
          dim {
            dim_value: 128
          }
          dim {
            dim_value: 256
          }
        }
      }
    }
  }
  value_info {
    name: "pkg.torch.2.2.0a0+git63d65dd::torch_nn_modules_linear_Linear_model_decoder_layers_2_self_attn_v_proj_1/view_53"
    type {
      tensor_type {
        elem_type: 1
        shape {
          dim {
            dim_value: 128
          }
          dim {
            dim_value: 256
          }
        }
      }
    }
  }
  value_info {
    name: "pkg.torch.2.2.0a0+git63d65dd::torch_nn_modules_linear_Linear_model_decoder_layers_2_self_attn_v_proj_1/t_14"
    type {
      tensor_type {
        elem_type: 1
        shape {
          dim {
            dim_value: 256
          }
          dim {
            dim_value: 256
          }
        }
      }
    }
  }
  value_info {
    name: "pkg.torch.2.2.0a0+git63d65dd::torch_nn_modules_linear_Linear_model_decoder_layers_2_self_attn_v_proj_1/addmm_14"
    type {
      tensor_type {
        elem_type: 1
        shape {
          dim {
            dim_value: 128
          }
          dim {
            dim_value: 256
          }
        }
      }
    }
  }
  value_info {
    name: "pkg.torch.2.2.0a0+git63d65dd::torch_nn_modules_linear_Linear_model_decoder_layers_2_self_attn_v_proj_1/view_54"
    type {
      tensor_type {
        elem_type: 1
        shape {
          dim {
            dim_value: 1
          }
          dim {
            dim_value: 128
          }
          dim {
            dim_value: 256
          }
        }
      }
    }
  }
  value_info {
    name: "pkg.torch.2.2.0a0+git63d65dd::torch_nn_modules_linear_Linear_model_decoder_layers_2_self_attn_out_proj_1/view_63"
    type {
      tensor_type {
        elem_type: 1
        shape {
          dim {
            dim_value: 1
          }
          dim {
            dim_value: 128
          }
          dim {
            dim_value: 256
          }
        }
      }
    }
  }
  value_info {
    name: "pkg.torch.2.2.0a0+git63d65dd::torch_nn_modules_linear_Linear_model_decoder_layers_2_self_attn_out_proj_1/view_64"
    type {
      tensor_type {
        elem_type: 1
        shape {
          dim {
            dim_value: 128
          }
          dim {
            dim_value: 256
          }
        }
      }
    }
  }
  value_info {
    name: "pkg.torch.2.2.0a0+git63d65dd::torch_nn_modules_linear_Linear_model_decoder_layers_2_self_attn_out_proj_1/t_15"
    type {
      tensor_type {
        elem_type: 1
        shape {
          dim {
            dim_value: 256
          }
          dim {
            dim_value: 256
          }
        }
      }
    }
  }
  value_info {
    name: "pkg.torch.2.2.0a0+git63d65dd::torch_nn_modules_linear_Linear_model_decoder_layers_2_self_attn_out_proj_1/addmm_15"
    type {
      tensor_type {
        elem_type: 1
        shape {
          dim {
            dim_value: 128
          }
          dim {
            dim_value: 256
          }
        }
      }
    }
  }
  value_info {
    name: "pkg.torch.2.2.0a0+git63d65dd::torch_nn_modules_linear_Linear_model_decoder_layers_2_self_attn_out_proj_1/view_65"
    type {
      tensor_type {
        elem_type: 1
        shape {
          dim {
            dim_value: 1
          }
          dim {
            dim_value: 128
          }
          dim {
            dim_value: 256
          }
        }
      }
    }
  }
  value_info {
    name: "pkg.transformers.4.34.0.dev0::transformers_models_speech_to_text_2_modeling_speech_to_text_2_Speech2Text2Attention_model_decoder_layers_2_self_attn_1/getitem_9"
    type {
      tensor_type {
        elem_type: 1
        shape {
          dim {
            dim_value: 1
          }
          dim {
            dim_value: 128
          }
          dim {
            dim_value: 256
          }
        }
      }
    }
  }
  value_info {
    name: "pkg.transformers.4.34.0.dev0::transformers_models_speech_to_text_2_modeling_speech_to_text_2_Speech2Text2Attention_model_decoder_layers_2_self_attn_1/expand_1"
    type {
      tensor_type {
        elem_type: 1
        shape {
          dim {
            dim_value: 1
          }
          dim {
…
        raw_data: "\200\000\000\000\000\000\000\000\000\010\000\000\000\000\000\000"
      }
      type: TENSOR
    }
  }
  node {
    input: "clone_47"
    input: "_val_1"
    output: "view_134"
    name: "aten_view_3"
    op_type: "aten_view"
    domain: "pkg.onnxscript.torch_lib"
  }
  node {
    input: "model.decoder.layers.5.fc2.weight"
    output: "t_35"
    name: "aten_t_4"
    op_type: "aten_t"
    domain: "pkg.onnxscript.torch_lib"
  }
  node {
    input: "model.decoder.layers.5.fc2.bias"
    input: "view_134"
    input: "t_35"
    output: "addmm_35"
    name: "aten_addmm_5"
    op_type: "aten_addmm"
    attribute {
      name: "alpha"
      f: 1.0
      type: FLOAT
    }
    attribute {
      name: "beta"
      f: 1.0
      type: FLOAT
    }
    domain: "pkg.onnxscript.torch_lib"
  }
  node {
    output: "_val_7"
    name: "Constant_6"
    op_type: "Constant"
    attribute {
      name: "value"
      t {
        dims: 3
        data_type: 7
        raw_data: "\001\000\000\000\000\000\000\000\200\000\000\000\000\000\000\000\000\001\000\000\000\000\000\000"
      }
      type: TENSOR
    }
  }
  node {
    input: "addmm_35"
    input: "_val_7"
    output: "view_135"
    name: "aten_view_7"
    op_type: "aten_view"
    domain: "pkg.onnxscript.torch_lib"
  }
  opset_import {
    domain: ""
    version: 18
  }
  opset_import {
    domain: "pkg.onnxscript.torch_lib"
    version: 1
  }
  domain: "pkg.torch.2.2.0a0+git63d65dd"
}
functions {
  name: "torch_nn_modules_normalization_LayerNorm_model_decoder_layers_5_final_layer_norm_1"
  input: "add_21"
  input: "model.decoder.layers.5.final_layer_norm.weight"
  input: "model.decoder.layers.5.final_layer_norm.bias"
  output: "native_layer_norm_11"
  node {
    input: "add_21"
    input: "model.decoder.layers.5.final_layer_norm.weight"
    input: "model.decoder.layers.5.final_layer_norm.bias"
    output: "native_layer_norm_11"
    output: "native_layer_norm_11_1"
    output: "native_layer_norm_11_2"
    name: "LayerNormalization_0"
    op_type: "LayerNormalization"
    attribute {
      name: "axis"
      i: -1
      type: INT
    }
    attribute {
      name: "epsilon"
      f: 1e-05
      type: FLOAT
    }
    attribute {
      name: "stash_type"
      i: 1
      type: INT
    }
  }
  opset_import {
    domain: ""
    version: 18
  }
  domain: "pkg.torch.2.2.0a0+git63d65dd"
}
functions {
  name: "transformers_models_speech_to_text_2_modeling_speech_to_text_2_Speech2Text2DecoderLayer_model_decoder_layers_5_1"
  input: "getitem_27"
  input: "expand_1"
  input: "model.decoder.layers.5.self_attn.q_proj.weight"
  input: "model.decoder.layers.5.self_attn.q_proj.bias"
  input: "model.decoder.layers.5.self_attn.k_proj.weight"
  input: "model.decoder.layers.5.self_attn.k_proj.bias"
  input: "model.decoder.layers.5.self_attn.v_proj.weight"
  input: "model.decoder.layers.5.self_attn.v_proj.bias"
  input: "model.decoder.layers.5.self_attn.out_proj.weight"
  input: "model.decoder.layers.5.self_attn.out_proj.bias"
  input: "model.decoder.layers.5.self_attn_layer_norm.weight"
  input: "model.decoder.layers.5.self_attn_layer_norm.bias"
  input: "model.decoder.layers.5.fc1.weight"
  input: "model.decoder.layers.5.fc1.bias"
  input: "model.decoder.layers.5.fc2.weight"
  input: "model.decoder.layers.5.fc2.bias"
  input: "model.decoder.layers.5.final_layer_norm.weight"
  input: "model.decoder.layers.5.final_layer_norm.bias"
  output: "model_decoder_layers_5_self_attn_1"
  output: "model_decoder_layers_5_self_attn_1_1"
  output: "model_decoder_layers_5_final_layer_norm_1"
  node {
    input: "getitem_27"
    input: "expand_1"
    input: "model.decoder.layers.5.self_attn.q_proj.weight"
    input: "model.decoder.layers.5.self_attn.q_proj.bias"
    input: "model.decoder.layers.5.self_attn.k_proj.weight"
    input: "model.decoder.layers.5.self_attn.k_proj.bias"
    input: "model.decoder.layers.5.self_attn.v_proj.weight"
    input: "model.decoder.layers.5.self_attn.v_proj.bias"
    input: "model.decoder.layers.5.self_attn.out_proj.weight"
    input: "model.decoder.layers.5.self_attn.out_proj.bias"
    output: "model_decoder_layers_5_self_attn_1"
    output: "model_decoder_layers_5_self_attn_1_1"
    output: "model_decoder_layers_5_self_attn_1_2"
    name: "transformers_models_speech_to_text_2_modeling_speech_to_text_2_Speech2Text2Attention_model_decoder_layers_5_self_attn_1_0"
    op_type: "transformers_models_speech_to_text_2_modeling_speech_to_text_2_Speech2Text2Attention_model_decoder_layers_5_self_attn_1"
    domain: "pkg.transformers.4.34.0.dev0"
  }
  node {
    input: "model_decoder_layers_5_self_attn_1_2"
    output: "clone_46"
    name: "aten_clone_1"
    op_type: "aten_clone"
    attribute {
      name: "memory_format"
      s: ""
      type: STRING
    }
    domain: "pkg.onnxscript.torch_lib"
  }
  node {
    input: "getitem_27"
    input: "clone_46"
    output: "add_20"
    name: "aten_add_2"
    op_type: "aten_add"
    attribute {
      name: "alpha"
      f: 1.0
      type: FLOAT
    }
    domain: "pkg.onnxscript.torch_lib"
  }
  node {
    input: "add_20"
    input: "model.decoder.layers.5.self_attn_layer_norm.weight"
    input: "model.decoder.layers.5.self_attn_layer_norm.bias"
    output: "model_decoder_layers_5_self_attn_layer_norm_1"
    name: "torch_nn_modules_normalization_LayerNorm_model_decoder_layers_5_self_attn_layer_norm_1_3"
    op_type: "torch_nn_modules_normalization_LayerNorm_model_decoder_layers_5_self_attn_layer_norm_1"
    domain: "pkg.torch.2.2.0a0+git63d65dd"
  }
  node {
    input: "model_decoder_layers_5_self_attn_layer_norm_1"
    input: "model.decoder.layers.5.fc1.weight"
    input: "model.decoder.layers.5.fc1.bias"
    output: "model_decoder_layers_5_fc1_1"
    name: "torch_nn_modules_linear_Linear_model_decoder_layers_5_fc1_1_4"
    op_type: "torch_nn_modules_linear_Linear_model_decoder_layers_5_fc1_1"
    domain: "pkg.torch.2.2.0a0+git63d65dd"
  }
  node {
    input: "model_decoder_layers_5_fc1_1"
    output: "model_decoder_layers_5_activation_fn_1"
    name: "torch_nn_modules_activation_ReLU_model_decoder_layers_5_activation_fn_1_5"
    op_type: "torch_nn_modules_activation_ReLU_model_decoder_layers_5_activation_fn_1"
    domain: "pkg.torch.2.2.0a0+git63d65dd"
  }
  node {
    input: "model_decoder_layers_5_activation_fn_1"
    output: "clone_47"
    name: "aten_clone_6"
    op_type: "aten_clone"
    attribute {
      name: "memory_format"
      s: ""
      type: STRING
    }
    domain: "pkg.onnxscript.torch_lib"
  }
  node {
    input: "clone_47"
    input: "model.decoder.layers.5.fc2.weight"
    input: "model.decoder.layers.5.fc2.bias"
    output: "model_decoder_layers_5_fc2_1"
    name: "torch_nn_modules_linear_Linear_model_decoder_layers_5_fc2_1_7"
    op_type: "torch_nn_modules_linear_Linear_model_decoder_layers_5_fc2_1"
    domain: "pkg.torch.2.2.0a0+git63d65dd"
  }
  node {
    input: "model_decoder_layers_5_fc2_1"
    output: "clone_48"
    name: "aten_clone_8"
    op_type: "aten_clone"
    attribute {
      name: "memory_format"
      s: ""
      type: STRING
    }
    domain: "pkg.onnxscript.torch_lib"
  }
  node {
    input: "model_decoder_layers_5_self_attn_layer_norm_1"
    input: "clone_48"
    output: "add_21"
    name: "aten_add_9"
    op_type: "aten_add"
    attribute {
      name: "alpha"
      f: 1.0
      type: FLOAT
    }
    domain: "pkg.onnxscript.torch_lib"
  }
  node {
    input: "add_21"
    input: "model.decoder.layers.5.final_layer_norm.weight"
    input: "model.decoder.layers.5.final_layer_norm.bias"
    output: "model_decoder_layers_5_final_layer_norm_1"
    name: "torch_nn_modules_normalization_LayerNorm_model_decoder_layers_5_final_layer_norm_1_10"
    op_type: "torch_nn_modules_normalization_LayerNorm_model_decoder_layers_5_final_layer_norm_1"
    domain: "pkg.torch.2.2.0a0+git63d65dd"
  }
  opset_import {
    domain: ""
    version: 18
  }
  opset_import {
    domain: "pkg.onnxscript.torch_lib"
    version: 1
  }
  opset_import {
    domain: "pkg.torch.2.2.0a0+git63d65dd"
    version: 1
  }
  opset_import {
    domain: "pkg.transformers.4.34.0.dev0"
    version: 1
  }
  domain: "pkg.transformers.4.34.0.dev0"
}
functions {
  name: "aten_full"
  input: "size"
  input: "fill_value"
  output: "return_val"
  node {
    input: "size"
    output: "size_0"
    name: "n0"
    op_type: "Cast"
    attribute {
      name: "to"
      i: 7
      type: INT
    }
  }
  node {
    input: "fill_value"
    output: "fill_value_1"
    name: "n1"
    op_type: "Cast"
    attribute {
      name: "to"
      type: INT
      ref_attr_name: "dtype"
    }
  }
  node {
    input: "fill_value_1"
    input: "size_0"
    output: "return_val"
    name: "n2"
    op_type: "Expand"
  }
  doc_string: "full(SymInt[] size, Scalar fill_value, *, ScalarType? dtype=None, Layout? layout=None, Device? device=None, bool? pin_memory=None) -> Tensor"
  opset_import {
    domain: ""
    version: 18
  }
  domain: "pkg.onnxscript.torch_lib"
  attribute_proto {
    name: "dtype"
    i: 1
    type: INT
  }
}
functions {
  name: "aten_lt"
  input: "self"
  input: "other"
  output: "return_val"
  node {
    input: "self"
    input: "other"
    output: "return_val"
    name: "n0"
    op_type: "Less"
  }
  doc_string: "lt.Tensor(Tensor self, Tensor other) -> Tensor"
  opset_import {
    domain: ""
    version: 18
  }
  domain: "pkg.onnxscript.torch_lib"
}
functions {
  name: "aten_masked_fill"
  input: "self"
  input: "mask"
  input: "value"
  output: "return_val"
  node {
    input: "value"
    input: "self"
    output: "value_cast"
    name: "n0"
    op_type: "CastLike"
  }
  node {
    input: "mask"
    input: "value_cast"
    input: "self"
    output: "return_val"
    name: "n1"
    op_type: "Where"
  }
  doc_string: "masked_fill.Tensor(Tensor self, Tensor mask, Tensor value) -> Tensor"
  opset_import {
    domain: ""
    version: 18
  }
  domain: "pkg.onnxscript.torch_lib"
}
functions {
  name: "transformers_models_speech_to_text_2_modeling_speech_to_text_2_Speech2Text2Decoder_model_decoder_1"
  input: "l_input_ids_"
  input: "model.decoder.embed_tokens.weight"
  input: "model.decoder.embed_positions.weights"
  input: "model.decoder.layers.0.self_attn.q_proj.weight"
  input: "model.decoder.layers.0.self_attn.q_proj.bias"
  input: "model.decoder.layers.0.self_attn.k_proj.weight"
  input: "model.decoder.layers.0.self_attn.k_proj.bias"
  input: "model.decoder.layers.0.self_attn.v_proj.weight"
  input: "model.decoder.layers.0.self_attn.v_proj.bias"
  input: "model.decoder.layers.0.self_attn.out_proj.weight"
  input: "model.decoder.layers.0.self_attn.out_proj.bias"
  input: "model.decoder.layers.0.self_attn_layer_norm.weight"
  input: "model.decoder.layers.0.self_attn_layer_norm.bias"
  input: "model.decoder.layers.0.fc1.weight"
  input: "model.decoder.layers.0.fc1.bias"
  input: "model.decoder.layers.0.fc2.weight"
  input: "model.decoder.layers.0.fc2.bias"
  input: "model.decoder.layers.0.final_layer_norm.weight"
  input: "model.decoder.layers.0.final_layer_norm.bias"
  input: "model.decoder.layers.1.self_attn.q_proj.weight"
  input: "model.decoder.layers.1.self_attn.q_proj.bias"
  input: "model.decoder.layers.1.self_attn.k_proj.weight"
  input: "model.decoder.layers.1.self_attn.k_proj.bias"
  input: "model.decoder.layers.1.self_attn.v_proj.weight"
  input: "model.decoder.layers.1.self_attn.v_proj.bias"
  input: "model.decoder.layers.1.self_attn.out_proj.weight"
  input: "model.decoder.layers.1.self_attn.out_proj.bias"
  input: "model.decoder.layers.1.self_attn_layer_norm.weight"
  input: "model.decoder.layers.1.self_attn_layer_norm.bias"
  input: "model.decoder.layers.1.fc1.weight"
  input: "model.decoder.layers.1.fc1.bias"
  input: "model.decoder.layers.1.fc2.weight"
  input: "model.decoder.layers.1.fc2.bias"
  input: "model.decoder.layers.1.final_layer_norm.weight"
  input: "model.decoder.layers.1.final_layer_norm.bias"
  input: "model.decoder.layers.2.self_attn.q_proj.weight"
  input: "model.decoder.layers.2.self_attn.q_proj.bias"
  input: "model.decoder.layers.2.self_attn.k_proj.weight"
  input: "model.decoder.layers.2.self_attn.k_proj.bias"
  input: "model.decoder.layers.2.self_attn.v_proj.weight"
  input: "model.decoder.layers.2.self_attn.v_proj.bias"
  input: "model.decoder.layers.2.self_attn.out_proj.weight"
  input: "model.decoder.layers.2.self_attn.out_proj.bias"
  input: "model.decoder.layers.2.self_attn_layer_norm.weight"
  input: "model.decoder.layers.2.self_attn_layer_norm.bias"
  input: "model.decoder.layers.2.fc1.weight"
  input: "model.decoder.layers.2.fc1.bias"
  input: "model.decoder.layers.2.fc2.weight"
  input: "model.decoder.layers.2.fc2.bias"
  input: "model.decoder.layers.2.final_layer_norm.weight"
  input: "model.decoder.layers.2.final_layer_norm.bias"
  input: "model.decoder.layers.3.self_attn.q_proj.weight"
  input: "model.decoder.layers.3.self_attn.q_proj.bias"
  input: "model.decoder.layers.3.self_attn.k_proj.weight"
  input: "model.decoder.layers.3.self_attn.k_proj.bias"
  input: "model.decoder.layers.3.self_attn.v_proj.weight"
  input: "model.decoder.layers.3.self_attn.v_proj.bias"
  input: "model.decoder.layers.3.self_attn.out_proj.weight"
  input: "model.decoder.layers.3.self_attn.out_proj.bias"
  input: "model.decoder.layers.3.self_attn_layer_norm.weight"
  input: "model.decoder.layers.3.self_attn_layer_norm.bias"
  input: "model.decoder.layers.3.fc1.weight"
  input: "model.decoder.layers.3.fc1.bias"
  input: "model.decoder.layers.3.fc2.weight"
  input: "model.decoder.layers.3.fc2.bias"
  input: "model.decoder.layers.3.final_layer_norm.weight"
  input: "model.decoder.layers.3.final_layer_norm.bias"
  input: "model.decoder.layers.4.self_attn.q_proj.weight"
  input: "model.decoder.layers.4.self_attn.q_proj.bias"
  input: "model.decoder.layers.4.self_attn.k_proj.weight"
  input: "model.decoder.layers.4.self_attn.k_proj.bias"
  input: "model.decoder.layers.4.self_attn.v_proj.weight"
  input: "model.decoder.layers.4.self_attn.v_proj.bias"
  input: "model.decoder.layers.4.self_attn.out_proj.weight"
  input: "model.decoder.layers.4.self_attn.out_proj.bias"
  input: "model.decoder.layers.4.self_attn_layer_norm.weight"
  input: "model.decoder.layers.4.self_attn_layer_norm.bias"
  input: "model.decoder.layers.4.fc1.weight"
  input: "model.decoder.layers.4.fc1.bias"
  input: "model.decoder.layers.4.fc2.weight"
  input: "model.decoder.layers.4.fc2.bias"
  input: "model.decoder.layers.4.final_layer_norm.weight"
  input: "model.decoder.layers.4.final_layer_norm.bias"
  input: "model.decoder.layers.5.self_attn.q_proj.weight"
  input: "model.decoder.layers.5.self_attn.q_proj.bias"
  input: "model.decoder.layers.5.self_attn.k_proj.weight"
  input: "model.decoder.layers.5.self_attn.k_proj.bias"
  input: "model.decoder.layers.5.self_attn.v_proj.weight"
  input: "model.decoder.layers.5.self_attn.v_proj.bias"
  input: "model.decoder.layers.5.self_attn.out_proj.weight"
  input: "model.decoder.layers.5.self_attn.out_proj.bias"
  input: "model.decoder.layers.5.self_attn_layer_norm.weight"
  input: "model.decoder.layers.5.self_attn_layer_norm.bias"
  input: "model.decoder.layers.5.fc1.weight"
  input: "model.decoder.layers.5.fc1.bias"
  input: "model.decoder.layers.5.fc2.weight"
  input: "model.decoder.layers.5.fc2.bias"
  input: "model.decoder.layers.5.final_layer_norm.weight"
  input: "model.decoder.layers.5.final_layer_norm.bias"
  output: "model_decoder_layers_0_1"
  output: "model_decoder_layers_0_1_1"
  output: "model_decoder_layers_1_1"
  output: "model_decoder_layers_1_1_1"
  output: "model_decoder_layers_2_1"
  output: "model_decoder_layers_2_1_1"
  output: "model_decoder_layers_3_1"
  output: "model_decoder_layers_3_1_1"
  output: "model_decoder_layers_4_1"
  output: "model_decoder_layers_4_1_1"
  output: "model_decoder_layers_5_1"
  output: "model_decoder_layers_5_1_1"
  output: "model_decoder_layers_5_1_2"
  node {
    output: "_val_1"
    name: "Constant_12"
    op_type: "Constant"
    attribute {
      name: "value"
      t {
        dims: 2
        data_type: 7
        raw_data: "\377\377\377\377\377\377\377\377\200\000\000\000\000\000\000\000"
      }
      type: TENSOR
    }
  }
  node {
    input: "l_input_ids_"
    input: "_val_1"
    output: "view"
    name: "aten_view_13"
    op_type: "aten_view"
    domain: "pkg.onnxscript.torch_lib"
  }
  node {
    input: "view"
    input: "model.decoder.embed_tokens.weight"
    output: "model_decoder_embed_tokens_1"
    name: "torch_nn_modules_sparse_Embedding_model_decoder_embed_tokens_1_14"
    op_type: "torch_nn_modules_sparse_Embedding_model_decoder_embed_tokens_1"
    domain: "pkg.torch.2.2.0a0+git63d65dd"
  }
  node {
    output: "_val_5"
    name: "Constant_15"
    op_type: "Constant"
    attribute {
      name: "value"
      t {
        data_type: 1
        raw_data: "\000\000\200A"
      }
      type: TENSOR
    }
  }
  node {
    input: "model_decoder_embed_tokens_1"
    input: "_val_5"
    output: "mul"
    name: "aten_mul_16"
    op_type: "aten_mul"
    domain: "pkg.onnxscript.torch_lib"
  }
  node {
    output: "_val_7"
    name: "Constant_17"
    op_type: "Constant"
    attribute {
      name: "value"
      t {
        dims: 2
        data_type: 7
        raw_data: "\200\000\000\000\000\000\000\000\200\000\000\000\000\000\000\000"
      }
      type: TENSOR
    }
  }
  node {
    output: "_val_8"
    name: "Constant_18"
    op_type: "Constant"
    attribute {
      name: "value"
      t {
        data_type: 1
        raw_data: "\377\377\177\377"
      }
      type: TENSOR
    }
  }
  node {
    input: "_val_7"
    input: "_val_8"
    output: "full"
    name: "aten_full_19"
    op_type: "aten_full"
    attribute {
      name: "dtype"
      i: 1
      type: INT
    }
    domain: "pkg.onnxscript.torch_lib"
  }
  node {
    output: "_val_10"
    name: "Constant_20"
    op_type: "Constant"
    attribute {
      name: "value"
      t {
        data_type: 1
        raw_data: "\000\000\000\000"
      }
      type: TENSOR
    }
  }
  node {
    output: "_val_11"
    name: "Constant_21"
    op_type: "Constant"
    attribute {
      name: "value"
      t {
        data_type: 7
        raw_data: "\200\000\000\000\000\000\000\000"
      }
      type: TENSOR
    }
  }
  node {
    input: "_val_10"
    input: "_val_11"
    output: "_val_12"
    name: "CastLike_22"
    op_type: "CastLike"
  }
  node {
    output: "_val_13"
    name: "Constant_23"
    op_type: "Constant"
    attribute {
      name: "value"
      t {
        data_type: 1
        raw_data: "\000\000\200?"
      }
      type: TENSOR
    }
  }
  node {
    output: "_val_14"
    name: "Constant_24"
    op_type: "Constant"
    attribute {
      name: "value"
      t {
        data_type: 7
        raw_data: "\200\000\000\000\000\000\000\000"
      }
      type: TENSOR
    }
  }
  node {
    input: "_val_13"
    input: "_val_14"
    output: "_val_15"
    name: "CastLike_25"
    op_type: "CastLike"
  }
  node {
    output: "_val_16"
    name: "Constant_26"
    op_type: "Constant"
    attribute {
      name: "value"
      t {
        data_type: 7
        raw_data: "\200\000\000\000\000\000\000\000"
      }
      type: TENSOR
    }
  }
  node {
    input: "_val_12"
    input: "_val_16"
    input: "_val_15"
    output: "arange"
    name: "Range_27"
    op_type: "Range"
  }
  node {
    output: "_val_18"
    name: "Constant_28"
    op_type: "Constant"
    attribute {
      name: "value"
      t {
        data_type: 7
        raw_data: "\001\000\000\000\000\000\000\000"
      }
      type: TENSOR
    }
  }
  node {
    input: "arange"
    input: "_val_18"
    output: "add"
    name: "aten_add_29"
    op_type: "aten_add"
    attribute {
      name: "alpha"
      f: 1.0
      type: FLOAT
    }
    domain: "pkg.onnxscript.torch_lib"
  }
  node {
    output: "_val_20"
    name: "Constant_30"
    op_type: "Constant"
    attribute {
      name: "value"
      t {
        dims: 2
        data_type: 7
        raw_data: "\200\000\000\000\000\000\000\000\001\000\000\000\000\000\000\000"
      }
      type: TENSOR
    }
  }
  node {
    input: "add"
    input: "_val_20"
    output: "view_1"
    name: "aten_view_31"
    op_type: "aten_view"
    domain: "pkg.onnxscript.torch_lib"
  }
  node {
    input: "arange"
    input: "view_1"
    output: "lt"
    name: "aten_lt_32"
    op_type: "aten_lt"
    domain: "pkg.onnxscript.torch_lib"
  }
  node {
    output: "_val_23"
    name: "Constant_33"
    op_type: "Constant"
    attribute {
      name: "value"
      t {
        data_type: 7
        raw_data: "\000\000\000\000\000\000\000\000"
      }
      type: TENSOR
    }
  }
  node {
    input: "full"
    input: "lt"
    input: "_val_23"
    output: "masked_fill"
    name: "aten_masked_fill_34"
    op_type: "aten_masked_fill"
    domain: "pkg.onnxscript.torch_lib"
  }
  node {
    input: "view"
    input: "model.decoder.embed_positions.weights"
    output: "model_decoder_embed_positions_1"
    name: "transformers_models_speech_to_text_2_modeling_speech_to_text_2_Speech2Text2SinusoidalPositionalEmbedding_model_decoder_embed_positions_1_35"
    op_type: "transformers_models_speech_to_text_2_modeling_speech_to_text_2_Speech2Text2SinusoidalPositionalEmbedding_model_decoder_embed_positions_1"
    domain: "pkg.transformers.4.34.0.dev0"
  }
  node {
    input: "mul"
    input: "model_decoder_embed_positions_1"
    output: "add_3"
    name: "aten_add_36"
    op_type: "aten_add"
    attribute {
      name: "alpha"
      f: 1.0
      type: FLOAT
    }
    domain: "pkg.onnxscript.torch_lib"
  }
  node {
    input: "add_3"
    output: "clone"
    name: "aten_clone_37"
    op_type: "aten_clone"
    attribute {
      name: "memory_format"
      s: ""
      type: STRING
    }
    domain: "pkg.onnxscript.torch_lib"
  }
  node {
    input: "clone"
    input: "masked_fill"
    input: "model.decoder.layers.0.self_attn.q_proj.weight"
    input: "model.decoder.layers.0.self_attn.q_proj.bias"
    input: "model.decoder.layers.0.self_attn.k_proj.weight"
    input: "model.decoder.layers.0.self_attn.k_proj.bias"
    input: "model.decoder.layers.0.self_attn.v_proj.weight"
    input: "model.decoder.layers.0.self_attn.v_proj.bias"
    input: "model.decoder.layers.0.self_attn.out_proj.weight"
    input: "model.decoder.layers.0.self_attn.out_proj.bias"
    input: "model.decoder.layers.0.self_attn_layer_norm.weight"
    input: "model.decoder.layers.0.self_attn_layer_norm.bias"
    input: "model.decoder.layers.0.fc1.weight"
    input: "model.decoder.layers.0.fc1.bias"
    input: "model.decoder.layers.0.fc2.weight"
    input: "model.decoder.layers.0.fc2.bias"
    input: "model.decoder.layers.0.final_layer_norm.weight"
    input: "model.decoder.layers.0.final_layer_norm.bias"
    output: "model_decoder_layers_0_1"
    output: "model_decoder_layers_0_1_1"
    output: "model_decoder_layers_0_1_2"
    output: "model_decoder_layers_0_1_3"
    name: "transformers_models_speech_to_text_2_modeling_speech_to_text_2_Speech2Text2DecoderLayer_model_decoder_layers_0_1_38"
    op_type: "transformers_models_speech_to_text_2_modeling_speech_to_text_2_Speech2Text2DecoderLayer_model_decoder_layers_0_1"
    domain: "pkg.transformers.4.34.0.dev0"
  }
  node {
    input: "model_decoder_layers_0_1_3"
    input: "model_decoder_layers_0_1_2"
    input: "model.decoder.layers.1.self_attn.q_proj.weight"
    input: "model.decoder.layers.1.self_attn.q_proj.bias"
    input: "model.decoder.layers.1.self_attn.k_proj.weight"
    input: "model.decoder.layers.1.self_attn.k_proj.bias"
    input: "model.decoder.layers.1.self_attn.v_proj.weight"
    input: "model.decoder.layers.1.self_attn.v_proj.bias"
    input: "model.decoder.layers.1.self_attn.out_proj.weight"
    input: "model.decoder.layers.1.self_attn.out_proj.bias"
    input: "model.decoder.layers.1.self_attn_layer_norm.weight"
    input: "model.decoder.layers.1.self_attn_layer_norm.bias"
    input: "model.decoder.layers.1.fc1.weight"
    input: "model.decoder.layers.1.fc1.bias"
    input: "model.decoder.layers.1.fc2.weight"
    input: "model.decoder.layers.1.fc2.bias"
    input: "model.decoder.layers.1.final_layer_norm.weight"
    input: "model.decoder.layers.1.final_layer_norm.bias"
    output: "model_decoder_layers_1_1"
    output: "model_decoder_layers_1_1_1"
    output: "model_decoder_layers_1_1_2"
    name: "transformers_models_speech_to_text_2_modeling_speech_to_text_2_Speech2Text2DecoderLayer_model_decoder_layers_1_1_39"
    op_type: "transformers_models_speech_to_text_2_modeling_speech_to_text_2_Speech2Text2DecoderLayer_model_decoder_layers_1_1"
    domain: "pkg.transformers.4.34.0.dev0"
  }
  node {
    input: "model_decoder_layers_1_1_2"
    input: "model_decoder_layers_0_1_2"
    input: "model.decoder.layers.2.self_attn.q_proj.weight"
    input: "model.decoder.layers.2.self_attn.q_proj.bias"
    input: "model.decoder.layers.2.self_attn.k_proj.weight"
    input: "model.decoder.layers.2.self_attn.k_proj.bias"
    input: "model.decoder.layers.2.self_attn.v_proj.weight"
    input: "model.decoder.layers.2.self_attn.v_proj.bias"
    input: "model.decoder.layers.2.self_attn.out_proj.weight"
    input: "model.decoder.layers.2.self_attn.out_proj.bias"
    input: "model.decoder.layers.2.self_attn_layer_norm.weight"
    input: "model.decoder.layers.2.self_attn_layer_norm.bias"
    input: "model.decoder.layers.2.fc1.weight"
    input: "model.decoder.layers.2.fc1.bias"
    input: "model.decoder.layers.2.fc2.weight"
    input: "model.decoder.layers.2.fc2.bias"
    input: "model.decoder.layers.2.final_layer_norm.weight"
    input: "model.decoder.layers.2.final_layer_norm.bias"
    output: "model_decoder_layers_2_1"
    output: "model_decoder_layers_2_1_1"
    output: "model_decoder_layers_2_1_2"
    name: "transformers_models_speech_to_text_2_modeling_speech_to_text_2_Speech2Text2DecoderLayer_model_decoder_layers_2_1_40"
    op_type: "transformers_models_speech_to_text_2_modeling_speech_to_text_2_Speech2Text2DecoderLayer_model_decoder_layers_2_1"
    domain: "pkg.transformers.4.34.0.dev0"
  }
  node {
    input: "model_decoder_layers_2_1_2"
    input: "model_decoder_layers_0_1_2"
    input: "model.decoder.layers.3.self_attn.q_proj.weight"
    input: "model.decoder.layers.3.self_attn.q_proj.bias"
    input: "model.decoder.layers.3.self_attn.k_proj.weight"
    input: "model.decoder.layers.3.self_attn.k_proj.bias"
    input: "model.decoder.layers.3.self_attn.v_proj.weight"
    input: "model.decoder.layers.3.self_attn.v_proj.bias"
    input: "model.decoder.layers.3.self_attn.out_proj.weight"
    input: "model.decoder.layers.3.self_attn.out_proj.bias"
    input: "model.decoder.layers.3.self_attn_layer_norm.weight"
    input: "model.decoder.layers.3.self_attn_layer_norm.bias"
    input: "model.decoder.layers.3.fc1.weight"
    input: "model.decoder.layers.3.fc1.bias"
    input: "model.decoder.layers.3.fc2.weight"
    input: "model.decoder.layers.3.fc2.bias"
    input: "model.decoder.layers.3.final_layer_norm.weight"
    input: "model.decoder.layers.3.final_layer_norm.bias"
    output: "model_decoder_layers_3_1"
    output: "model_decoder_layers_3_1_1"
    output: "model_decoder_layers_3_1_2"
    name: "transformers_models_speech_to_text_2_modeling_speech_to_text_2_Speech2Text2DecoderLayer_model_decoder_layers_3_1_41"
    op_type: "transformers_models_speech_to_text_2_modeling_speech_to_text_2_Speech2Text2DecoderLayer_model_decoder_layers_3_1"
    domain: "pkg.transformers.4.34.0.dev0"
  }
  node {
    input: "model_decoder_layers_3_1_2"
    input: "model_decoder_layers_0_1_2"
    input: "model.decoder.layers.4.self_attn.q_proj.weight"
    input: "model.decoder.layers.4.self_attn.q_proj.bias"
    input: "model.decoder.layers.4.self_attn.k_proj.weight"
    input: "model.decoder.layers.4.self_attn.k_proj.bias"
    input: "model.decoder.layers.4.self_attn.v_proj.weight"
    input: "model.decoder.layers.4.self_attn.v_proj.bias"
    input: "model.decoder.layers.4.self_attn.out_proj.weight"
    input: "model.decoder.layers.4.self_attn.out_proj.bias"
    input: "model.decoder.layers.4.self_attn_layer_norm.weight"
    input: "model.decoder.layers.4.self_attn_layer_norm.bias"
    input: "model.decoder.layers.4.fc1.weight"
    input: "model.decoder.layers.4.fc1.bias"
    input: "model.decoder.layers.4.fc2.weight"
    input: "model.decoder.layers.4.fc2.bias"
    input: "model.decoder.layers.4.final_layer_norm.weight"
    input: "model.decoder.layers.4.final_layer_norm.bias"
    output: "model_decoder_layers_4_1"
    output: "model_decoder_layers_4_1_1"
    output: "model_decoder_layers_4_1_2"
    name: "transformers_models_speech_to_text_2_modeling_speech_to_text_2_Speech2Text2DecoderLayer_model_decoder_layers_4_1_42"
    op_type: "transformers_models_speech_to_text_2_modeling_speech_to_text_2_Speech2Text2DecoderLayer_model_decoder_layers_4_1"
    domain: "pkg.transformers.4.34.0.dev0"
  }
  node {
    input: "model_decoder_layers_4_1_2"
    input: "model_decoder_layers_0_1_2"
    input: "model.decoder.layers.5.self_attn.q_proj.weight"
    input: "model.decoder.layers.5.self_attn.q_proj.bias"
    input: "model.decoder.layers.5.self_attn.k_proj.weight"
    input: "model.decoder.layers.5.self_attn.k_proj.bias"
    input: "model.decoder.layers.5.self_attn.v_proj.weight"
    input: "model.decoder.layers.5.self_attn.v_proj.bias"
    input: "model.decoder.layers.5.self_attn.out_proj.weight"
    input: "model.decoder.layers.5.self_attn.out_proj.bias"
    input: "model.decoder.layers.5.self_attn_layer_norm.weight"
    input: "model.decoder.layers.5.self_attn_layer_norm.bias"
    input: "model.decoder.layers.5.fc1.weight"
    input: "model.decoder.layers.5.fc1.bias"
    input: "model.decoder.layers.5.fc2.weight"
    input: "model.decoder.layers.5.fc2.bias"
    input: "model.decoder.layers.5.final_layer_norm.weight"
    input: "model.decoder.layers.5.final_layer_norm.bias"
    output: "model_decoder_layers_5_1"
    output: "model_decoder_layers_5_1_1"
    output: "model_decoder_layers_5_1_2"
    name: "transformers_models_speech_to_text_2_modeling_speech_to_text_2_Speech2Text2DecoderLayer_model_decoder_layers_5_1_43"
    op_type: "transformers_models_speech_to_text_2_modeling_speech_to_text_2_Speech2Text2DecoderLayer_model_decoder_layers_5_1"
    domain: "pkg.transformers.4.34.0.dev0"
  }
  opset_import {
    domain: ""
    version: 18
  }
  opset_import {
    domain: "pkg.onnxscript.torch_lib"
    version: 1
  }
  opset_import {
    domain: "pkg.torch.2.2.0a0+git63d65dd"
    version: 1
  }
  opset_import {
    domain: "pkg.transformers.4.34.0.dev0"
    version: 1
  }
  domain: "pkg.transformers.4.34.0.dev0"
}
functions {
  name: "aten_mm"
  input: "self"
  input: "mat2"
  output: "return_val"
  node {
    input: "self"
    input: "mat2"
    output: "return_val"
    name: "n0"
    op_type: "MatMul"
  }
  doc_string: "mm(Tensor self, Tensor mat2) -> Tensor"
  opset_import {
    domain: ""
    version: 18
  }
  domain: "pkg.onnxscript.torch_lib"
}
functions {
  name: "torch_nn_modules_linear_Linear_lm_head_1"
  input: "getitem_33"
  input: "model.decoder.embed_tokens.weight"
  output: "view_137"
  node {
    input: "model.decoder.embed_tokens.weight"
    output: "t_36"
    name: "aten_t_2"
    op_type: "aten_t"
    domain: "pkg.onnxscript.torch_lib"
  }
  node {
    output: "_val_3"
    name: "Constant_3"
    op_type: "Constant"
    attribute {
      name: "value"
      t {
        dims: 2
        data_type: 7
        raw_data: "\200\000\000\000\000\000\000\000\000\001\000\000\000\000\000\000"
      }
      type: TENSOR
    }
  }
  node {
    input: "getitem_33"
    input: "_val_3"
    output: "view_136"
    name: "aten_view_4"
    op_type: "aten_view"
    domain: "pkg.onnxscript.torch_lib"
  }
  node {
    input: "view_136"
    input: "t_36"
    output: "mm"
    name: "aten_mm_5"
    op_type: "aten_mm"
    domain: "pkg.onnxscript.torch_lib"
  }
  node {
    output: "_val_6"
    name: "Constant_6"
    op_type: "Constant"
    attribute {
      name: "value"
      t {
        dims: 3
        data_type: 7
        raw_data: "\001\000\000\000\000\000\000\000\200\000\000\000\000\000\000\000\020\'\000\000\000\000\000\000"
      }
      type: TENSOR
    }
  }
  node {
    input: "mm"
    input: "_val_6"
    output: "view_137"
    name: "aten_view_7"
    op_type: "aten_view"
    domain: "pkg.onnxscript.torch_lib"
  }
  opset_import {
    domain: ""
    version: 18
  }
  opset_import {
    domain: "pkg.onnxscript.torch_lib"
    version: 1
  }
  domain: "pkg.torch.2.2.0a0+git63d65dd"
}
functions {
  name: "aten__log_softmax"
  input: "self"
  output: "result_7"
  attribute: "dim"
  attribute: "half_to_float"
  node {
    input: "self"
    output: "tmp"
    name: "n0"
    op_type: "Shape"
  }
  node {
    input: "tmp"
    output: "tmp_0"
    name: "n1"
    op_type: "Size"
  }
  node {
    output: "int64_0"
    name: "n2"
    op_type: "Constant"
    attribute {
      name: "value"
      t {
        data_type: 7
        int64_data: 0
        name: "int64_0"
      }
      type: TENSOR
    }
  }
  node {
    input: "int64_0"
    input: "tmp_0"
    output: "int64_0_cast"
    name: "n3"
    op_type: "CastLike"
  }
  node {
    input: "tmp_0"
    input: "int64_0_cast"
    output: "self_is_scalar"
    name: "n4"
    op_type: "Equal"
  }
  node {
    input: "self_is_scalar"
    output: "self_4"
    name: "n5"
    op_type: "If"
    attribute {
      name: "then_branch"
      g {
        node {
          output: "tmp_1"
          name: "n0"
          op_type: "Constant"
          attribute {
            name: "value_ints"
            ints: 0
            type: INTS
          }
        }
        node {
          input: "self"
          input: "tmp_1"
          output: "self_2"
          name: "n1"
          op_type: "Unsqueeze"
        }
        name: "thenGraph_8"
        output {
          name: "self_2"
        }
      }
      type: GRAPH
    }
    attribute {
      name: "else_branch"
      g {
        node {
          input: "self"
          output: "self_3"
          name: "n0"
          op_type: "Identity"
        }
        name: "elseGraph_8"
        output {
          name: "self_3"
        }
      }
      type: GRAPH
    }
  }
  node {
    input: "self_4"
    output: "result"
    name: "n6"
    op_type: "LogSoftmax"
    attribute {
      name: "axis"
      type: INT
      ref_attr_name: "dim"
    }
  }
  node {
    input: "self_is_scalar"
    output: "result_7"
    name: "n7"
    op_type: "If"
    attribute {
      name: "then_branch"
      g {
        node {
          input: "result"
          output: "result_5"
          name: "n0"
          op_type: "Squeeze"
        }
        name: "thenGraph_11"
        output {
          name: "result_5"
        }
      }
      type: GRAPH
    }
    attribute {
      name: "else_branch"
      g {
        node {
          input: "result"
          output: "result_6"
          name: "n0"
          op_type: "Identity"
        }
        name: "elseGraph_11"
        output {
          name: "result_6"
        }
      }
      type: GRAPH
    }
  }
  doc_string: "_log_softmax(Tensor self, int dim, bool half_to_float) -> Tensor"
  opset_import {
    domain: ""
    version: 18
  }
  domain: "pkg.onnxscript.torch_lib"
}
functions {
  name: "aten_where"
  input: "condition"
  input: "self"
  input: "other"
  output: "return_val"
  node {
    input: "condition"
    input: "self"
    input: "other"
    output: "return_val"
    name: "n0"
    op_type: "Where"
  }
  doc_string: "where.self(Tensor condition, Tensor self, Tensor other) -> Tensor"
  opset_import {
    domain: ""
    version: 18
  }
  domain: "pkg.onnxscript.torch_lib"
}
functions {
  name: "aten_gather"
  input: "self"
  input: "index"
  output: "result_16"
  attribute: "dim"
  node {
    input: "index"
    output: "tmp"
    name: "n0"
    op_type: "Shape"
  }
  node {
    input: "tmp"
    output: "tmp_0"
    name: "n1"
    op_type: "Size"
  }
  node {
    output: "int64_0"
    name: "n2"
    op_type: "Constant"
    attribute {
      name: "value"
      t {
        data_type: 7
        int64_data: 0
        name: "int64_0"
      }
      type: TENSOR
    }
  }
  node {
    input: "int64_0"
    input: "tmp_0"
    output: "int64_0_cast"
    name: "n3"
    op_type: "CastLike"
  }
  node {
    input: "tmp_0"
    input: "int64_0_cast"
    output: "cond"
    name: "n4"
    op_type: "Equal"
  }
  node {
    input: "cond"
    output: "result_16"
    name: "n5"
    op_type: "If"
    attribute {
      name: "then_branch"
      g {
        node {
          input: "self"
          output: "result"
          name: "n0"
          op_type: "Identity"
        }
        name: "thenGraph_10"
        output {
          name: "result"
        }
      }
      type: GRAPH
    }
    attribute {
      name: "else_branch"
      g {
        node {
          input: "self"
          output: "tmp_1"
          name: "n0"
          op_type: "Shape"
        }
        node {
          input: "tmp_1"
          output: "tmp_2"
          name: "n1"
          op_type: "Size"
        }
        node {
          output: "int64_0_3"
          name: "n2"
          op_type: "Constant"
          attribute {
            name: "value"
            t {
              data_type: 7
              int64_data: 0
              name: "int64_0_3"
            }
            type: TENSOR
          }
        }
        node {
          input: "int64_0_3"
          input: "tmp_2"
          output: "int64_0_3_cast"
          name: "n3"
          op_type: "CastLike"
        }
        node {
          input: "tmp_2"
          input: "int64_0_3_cast"
          output: "cond_4"
          name: "n4"
          op_type: "Equal"
        }
        node {
          input: "cond_4"
          output: "self_8"
          name: "n5"
          op_type: "If"
          attribute {
            name: "then_branch"
            g {
              node {
                output: "tmp_5"
                name: "n0"
                op_type: "Constant"
                attribute {
                  name: "value_ints"
                  ints: -1
                  type: INTS
                }
              }
              node {
                input: "self"
                input: "tmp_5"
                output: "self_6"
                name: "n1"
                op_type: "Reshape"
              }
              name: "thenGraph_13"
              output {
                name: "self_6"
              }
            }
            type: GRAPH
          }
          attribute {
            name: "else_branch"
            g {
              node {
                input: "self"
                output: "self_7"
                name: "n0"
                op_type: "Identity"
              }
              name: "elseGraph_13"
              output {
                name: "self_7"
              }
            }
            type: GRAPH
          }
        }
        node {
          input: "index"
          output: "tmp_9"
          name: "n6"
          op_type: "Size"
        }
        node {
          output: "int64_0_10"
          name: "n7"
          op_type: "Constant"
          attribute {
            name: "value"
            t {
              data_type: 7
              int64_data: 0
              name: "int64_0_10"
            }
            type: TENSOR
          }
        }
        node {
          input: "int64_0_10"
          input: "tmp_9"
          output: "int64_0_10_cast"
          name: "n8"
          op_type: "CastLike"
        }
        node {
          input: "tmp_9"
          input: "int64_0_10_cast"
          output: "cond_11"
          name: "n9"
          op_type: "Equal"
        }
        node {
          input: "cond_11"
          output: "result_15"
          name: "n10"
          op_type: "If"
          attribute {
            name: "then_branch"
            g {
              node {
                input: "index"
                input: "self_8"
                output: "result_12"
                name: "n0"
                op_type: "CastLike"
              }
              name: "thenGraph_15"
              output {
                name: "result_12"
              }
            }
            type: GRAPH
          }
          attribute {
            name: "else_branch"
            g {
              node {
                input: "index"
                output: "index_13"
                name: "n0"
                op_type: "Cast"
                attribute {
                  name: "to"
                  i: 7
                  type: INT
                }
              }
              node {
                input: "self_8"
                input: "index_13"
                output: "result_14"
                name: "n1"
                op_type: "GatherElements"
                attribute {
                  name: "axis"
                  type: INT
                  ref_attr_name: "dim"
                }
              }
              name: "elseGraph_15"
              output {
                name: "result_14"
              }
            }
            type: GRAPH
          }
        }
        name: "elseGraph_10"
        output {
          name: "result_15"
        }
      }
      type: GRAPH
    }
  }
  doc_string: "gather(Tensor self, int dim, Tensor index, *, bool sparse_grad=False) -> Tensor"
  opset_import {
    domain: ""
    version: 18
  }
  domain: "pkg.onnxscript.torch_lib"
  attribute_proto {
    name: "sparse_grad"
    i: 0
    type: INT
  }
}
functions {
  name: "aten_squeeze_dim"
  input: "self"
  output: "result_7"
  attribute: "dim"
  node {
    input: "self"
    output: "tmp"
    name: "n0"
    op_type: "Shape"
  }
  node {
    input: "tmp"
    output: "tmp_0"
    name: "n1"
    op_type: "Size"
  }
  node {
    output: "int64_0"
    name: "n2"
    op_type: "Constant"
    attribute {
      name: "value"
      t {
        data_type: 7
        int64_data: 0
        name: "int64_0"
      }
      type: TENSOR
    }
  }
  node {
    input: "int64_0"
    input: "tmp_0"
    output: "int64_0_cast"
    name: "n3"
    op_type: "CastLike"
  }
  node {
    input: "tmp_0"
    input: "int64_0_cast"
    output: "cond"
    name: "n4"
    op_type: "Greater"
  }
  node {
    input: "cond"
    output: "result_7"
    name: "n5"
    op_type: "If"
    attribute {
      name: "then_branch"
      g {
        node {
          input: "self"
          output: "shape"
          name: "n0"
          op_type: "Shape"
        }
        node {
          output: "dim"
          name: "n1"
          op_type: "Constant"
          attribute {
            name: "value_int"
            type: INT
            ref_attr_name: "dim"
          }
        }
        node {
          input: "shape"
          input: "dim"
          output: "dim_size"
          name: "n2"
          op_type: "Gather"
          attribute {
            name: "axis"
            i: 0
            type: INT
          }
        }
        node {
          output: "int64_1"
          name: "n3"
          op_type: "Constant"
          attribute {
            name: "value"
            t {
              data_type: 7
              int64_data: 1
              name: "int64_1"
            }
            type: TENSOR
          }
        }
        node {
          input: "int64_1"
          input: "dim_size"
          output: "int64_1_cast"
          name: "n4"
          op_type: "CastLike"
        }
        node {
          input: "dim_size"
          input: "int64_1_cast"
          output: "cond_1"
          name: "n5"
          op_type: "Equal"
        }
        node {
          input: "cond_1"
          output: "result_5"
          name: "n6"
          op_type: "If"
          attribute {
            name: "then_branch"
            g {
              node {
                output: "dim_2"
                name: "n0"
                op_type: "Constant"
                attribute {
                  name: "value_int"
                  type: INT
                  ref_attr_name: "dim"
                }
              }
              node {
                output: "tmp_3"
                name: "n1"
                op_type: "Constant"
                attribute {
                  name: "value_ints"
                  ints: -1
                  type: INTS
                }
              }
              node {
                input: "dim_2"
                input: "tmp_3"
                output: "dims"
                name: "n2"
                op_type: "Reshape"
              }
              node {
                input: "self"
                input: "dims"
                output: "result"
                name: "n3"
                op_type: "Squeeze"
              }
              name: "thenGraph_8"
              output {
                name: "result"
              }
            }
            type: GRAPH
          }
          attribute {
            name: "else_branch"
            g {
              node {
                input: "self"
                output: "result_4"
                name: "n0"
                op_type: "Identity"
              }
              name: "elseGraph_8"
              output {
                name: "result_4"
              }
            }
            type: GRAPH
          }
        }
        name: "thenGraph_4"
        output {
          name: "result_5"
        }
      }
      type: GRAPH
    }
    attribute {
      name: "else_branch"
      g {
        node {
          input: "self"
          output: "result_6"
          name: "n0"
          op_type: "Identity"
        }
        name: "elseGraph_4"
        output {
          name: "result_6"
        }
      }
      type: GRAPH
    }
  }
  opset_import {
    domain: ""
    version: 18
  }
  domain: "pkg.onnxscript.torch_lib"
}
functions {
  name: "aten_neg"
  input: "self"
  output: "return_val"
  node {
    input: "self"
    output: "return_val"
    name: "n0"
    op_type: "Neg"
  }
  doc_string: "neg(Tensor self) -> Tensor"
  opset_import {
    domain: ""
    version: 18
  }
  domain: "pkg.onnxscript.torch_lib"
}
functions {
  name: "_aten_sum_dim_none"
  input: "self"
  output: "result_7"
  node {
    input: "self"
    output: "tmp"
    name: "n0"
    op_type: "Shape"
  }
  node {
    input: "tmp"
    output: "tmp_0"
    name: "n1"
    op_type: "Size"
  }
  node {
    output: "int64_0"
    name: "n2"
    op_type: "Constant"
    attribute {
      name: "value"
      t {
        data_type: 7
        int64_data: 0
        name: "int64_0"
      }
      type: TENSOR
    }
  }
  node {
    input: "int64_0"
    input: "tmp_0"
    output: "int64_0_cast"
    name: "n3"
    op_type: "CastLike"
  }
  node {
    input: "tmp_0"
    input: "int64_0_cast"
    output: "self_is_scalar"
    name: "n4"
    op_type: "Equal"
  }
  node {
    input: "self_is_scalar"
    output: "self_4"
    name: "n5"
    op_type: "If"
    attribute {
      name: "then_branch"
      g {
        node {
          output: "tmp_1"
          name: "n0"
          op_type: "Constant"
          attribute {
            name: "value_ints"
            ints: -1
            type: INTS
          }
        }
        node {
          input: "self"
          input: "tmp_1"
          output: "self_2"
          name: "n1"
          op_type: "Reshape"
        }
        name: "thenGraph_4"
        output {
          name: "self_2"
        }
      }
      type: GRAPH
    }
    attribute {
      name: "else_branch"
      g {
        node {
          input: "self"
          output: "self_3"
          name: "n0"
          op_type: "Identity"
        }
        name: "elseGraph_4"
        output {
          name: "self_3"
        }
      }
      type: GRAPH
    }
  }
  node {
    input: "self_4"
    output: "result"
    name: "n6"
    op_type: "ReduceSum"
    attribute {
      name: "keepdims"
      type: INT
      ref_attr_name: "keepdim"
    }
  }
  node {
    input: "self_is_scalar"
    output: "result_7"
    name: "n7"
    op_type: "If"
    attribute {
      name: "then_branch"
      g {
        node {
          input: "result"
          output: "result_5"
          name: "n0"
          op_type: "Squeeze"
        }
        name: "thenGraph_9"
        output {
          name: "result_5"
        }
      }
      type: GRAPH
    }
    attribute {
      name: "else_branch"
      g {
        node {
          input: "result"
          output: "result_6"
          name: "n0"
          op_type: "Identity"
        }
        name: "elseGraph_9"
        output {
          name: "result_6"
        }
      }
      type: GRAPH
    }
  }
  opset_import {
    domain: ""
    version: 18
  }
  domain: "pkg.onnxscript.torch_lib"
  attribute_proto {
    name: "keepdim"
    i: 0
    type: INT
  }
}
functions {
  name: "aten_div"
  input: "self"
  input: "other"
  output: "return_val"
  node {
    input: "self"
    input: "other"
    output: "return_val"
    name: "n0"
    op_type: "Div"
  }
  doc_string: "div.Tensor(Tensor self, Tensor other) -> Tensor"
  opset_import {
    domain: ""
    version: 18
  }
  domain: "pkg.onnxscript.torch_lib"
}
functions {
  name: "Rank"
  input: "input"
  output: "return_val"
  node {
    input: "input"
    output: "tmp"
    name: "n0"
    op_type: "Shape"
  }
  node {
    input: "tmp"
    output: "return_val"
    name: "n1"
    op_type: "Size"
  }
  doc_string: "Take the rank of the input tensor."
  opset_import {
    domain: ""
    version: 18
  }
  domain: "pkg.onnxscript.torch_lib.common"
}
functions {
  name: "IsScalar"
  input: "input"
  output: "return_val"
  node {
    input: "input"
    output: "tmp"
    name: "n0"
    op_type: "Shape"
  }
  node {
    input: "tmp"
    output: "tmp_0"
    name: "n1"
    op_type: "Size"
  }
  node {
    output: "tmp_1"
    name: "n2"
    op_type: "Constant"
    attribute {
      name: "value_int"
      i: 0
      type: INT
    }
  }
  node {
    input: "tmp_0"
    input: "tmp_1"
    output: "return_val"
    name: "n3"
    op_type: "Equal"
  }
  doc_string: "Return whether the input has rank 0, or is a scalar."
  opset_import {
    domain: ""
    version: 18
  }
  domain: "pkg.onnxscript.torch_lib.common"
}
