ir_version: 8
producer_name: "pytorch"
producer_version: "2.2.0"
graph {
  node {
    input: "l_x_"
    input: "conv1.weight"
    output: "conv1_1"
    name: "torch_nn_modules_conv_Conv2d_conv1_1_1"
    op_type: "torch_nn_modules_conv_Conv2d_conv1_1"
    domain: "pkg.torch.2.2.0a0+git4ab5507"
  }
  node {
    input: "conv1_1"
    input: "bn1.weight"
    input: "bn1.bias"
    input: "bn1.running_mean"
    input: "bn1.running_var"
    output: "bn1_1"
    name: "torch_nn_modules_batchnorm_BatchNorm2d_bn1_1_2"
    op_type: "torch_nn_modules_batchnorm_BatchNorm2d_bn1_1"
    domain: "pkg.torch.2.2.0a0+git4ab5507"
  }
  node {
    input: "bn1_1"
    output: "relu_1"
    name: "torch_nn_modules_activation_ReLU_relu_1_3"
    op_type: "torch_nn_modules_activation_ReLU_relu_1"
    domain: "pkg.torch.2.2.0a0+git4ab5507"
  }
  node {
    input: "relu_1"
    output: "maxpool_1"
    name: "torch_nn_modules_pooling_MaxPool2d_maxpool_1_4"
    op_type: "torch_nn_modules_pooling_MaxPool2d_maxpool_1"
    domain: "pkg.torch.2.2.0a0+git4ab5507"
  }
  node {
    input: "maxpool_1"
    input: "layer1.0.conv1.weight"
    input: "layer1.0.bn1.weight"
    input: "layer1.0.bn1.bias"
    input: "layer1.0.bn1.running_mean"
    input: "layer1.0.bn1.running_var"
    input: "layer1.0.conv2.weight"
    input: "layer1.0.bn2.weight"
    input: "layer1.0.bn2.bias"
    input: "layer1.0.bn2.running_mean"
    input: "layer1.0.bn2.running_var"
    input: "layer1.1.conv1.weight"
    input: "layer1.1.bn1.weight"
    input: "layer1.1.bn1.bias"
    input: "layer1.1.bn1.running_mean"
    input: "layer1.1.bn1.running_var"
    input: "layer1.1.conv2.weight"
    input: "layer1.1.bn2.weight"
    input: "layer1.1.bn2.bias"
    input: "layer1.1.bn2.running_mean"
    input: "layer1.1.bn2.running_var"
    output: "layer1_1"
    name: "torch_nn_modules_container_Sequential_layer1_1_5"
    op_type: "torch_nn_modules_container_Sequential_layer1_1"
    domain: "pkg.torch.2.2.0a0+git4ab5507"
  }
  node {
    input: "layer1_1"
    input: "layer2.0.conv1.weight"
    input: "layer2.0.bn1.weight"
    input: "layer2.0.bn1.bias"
    input: "layer2.0.bn1.running_mean"
    input: "layer2.0.bn1.running_var"
    input: "layer2.0.conv2.weight"
    input: "layer2.0.bn2.weight"
    input: "layer2.0.bn2.bias"
    input: "layer2.0.bn2.running_mean"
    input: "layer2.0.bn2.running_var"
    input: "layer2.0.downsample.0.weight"
    input: "layer2.0.downsample.1.weight"
    input: "layer2.0.downsample.1.bias"
    input: "layer2.0.downsample.1.running_mean"
    input: "layer2.0.downsample.1.running_var"
    input: "layer2.1.conv1.weight"
    input: "layer2.1.bn1.weight"
    input: "layer2.1.bn1.bias"
    input: "layer2.1.bn1.running_mean"
    input: "layer2.1.bn1.running_var"
    input: "layer2.1.conv2.weight"
    input: "layer2.1.bn2.weight"
    input: "layer2.1.bn2.bias"
    input: "layer2.1.bn2.running_mean"
    input: "layer2.1.bn2.running_var"
    output: "layer2_1"
    name: "torch_nn_modules_container_Sequential_layer2_1_6"
    op_type: "torch_nn_modules_container_Sequential_layer2_1"
    domain: "pkg.torch.2.2.0a0+git4ab5507"
  }
  node {
    input: "layer2_1"
    input: "layer3.0.conv1.weight"
    input: "layer3.0.bn1.weight"
    input: "layer3.0.bn1.bias"
    input: "layer3.0.bn1.running_mean"
    input: "layer3.0.bn1.running_var"
    input: "layer3.0.conv2.weight"
    input: "layer3.0.bn2.weight"
    input: "layer3.0.bn2.bias"
    input: "layer3.0.bn2.running_mean"
    input: "layer3.0.bn2.running_var"
    input: "layer3.0.downsample.0.weight"
    input: "layer3.0.downsample.1.weight"
    input: "layer3.0.downsample.1.bias"
    input: "layer3.0.downsample.1.running_mean"
    input: "layer3.0.downsample.1.running_var"
    input: "layer3.1.conv1.weight"
    input: "layer3.1.bn1.weight"
    input: "layer3.1.bn1.bias"
    input: "layer3.1.bn1.running_mean"
    input: "layer3.1.bn1.running_var"
    input: "layer3.1.conv2.weight"
    input: "layer3.1.bn2.weight"
    input: "layer3.1.bn2.bias"
    input: "layer3.1.bn2.running_mean"
    input: "layer3.1.bn2.running_var"
    output: "layer3_1"
    name: "torch_nn_modules_container_Sequential_layer3_1_7"
    op_type: "torch_nn_modules_container_Sequential_layer3_1"
    domain: "pkg.torch.2.2.0a0+git4ab5507"
  }
  node {
    input: "layer3_1"
    input: "layer4.0.conv1.weight"
    input: "layer4.0.bn1.weight"
    input: "layer4.0.bn1.bias"
    input: "layer4.0.bn1.running_mean"
    input: "layer4.0.bn1.running_var"
    input: "layer4.0.conv2.weight"
    input: "layer4.0.bn2.weight"
    input: "layer4.0.bn2.bias"
    input: "layer4.0.bn2.running_mean"
    input: "layer4.0.bn2.running_var"
    input: "layer4.0.downsample.0.weight"
    input: "layer4.0.downsample.1.weight"
    input: "layer4.0.downsample.1.bias"
    input: "layer4.0.downsample.1.running_mean"
    input: "layer4.0.downsample.1.running_var"
    input: "layer4.1.conv1.weight"
    input: "layer4.1.bn1.weight"
    input: "layer4.1.bn1.bias"
    input: "layer4.1.bn1.running_mean"
    input: "layer4.1.bn1.running_var"
    input: "layer4.1.conv2.weight"
    input: "layer4.1.bn2.weight"
    input: "layer4.1.bn2.bias"
    input: "layer4.1.bn2.running_mean"
    input: "layer4.1.bn2.running_var"
    output: "layer4_1"
    name: "torch_nn_modules_container_Sequential_layer4_1_8"
    op_type: "torch_nn_modules_container_Sequential_layer4_1"
    domain: "pkg.torch.2.2.0a0+git4ab5507"
  }
  node {
    input: "layer4_1"
    output: "avgpool_1"
    name: "torch_nn_modules_pooling_AdaptiveAvgPool2d_avgpool_1_9"
    op_type: "torch_nn_modules_pooling_AdaptiveAvgPool2d_avgpool_1"
    domain: "pkg.torch.2.2.0a0+git4ab5507"
  }
  node {
    output: "_val_110"
    name: "Constant_10"
    op_type: "Constant"
    attribute {
      name: "value"
      t {
        dims: 2
        data_type: 7
        raw_data: "\001\000\000\000\000\000\000\000\000\002\000\000\000\000\000\000"
      }
      type: TENSOR
    }
  }
  node {
    input: "avgpool_1"
    input: "_val_110"
    output: "view"
    name: "aten_view_11"
    op_type: "aten_view"
    domain: "pkg.onnxscript.torch_lib"
  }
  node {
    input: "view"
    input: "fc.weight"
    input: "fc.bias"
    output: "fc_1"
    name: "torch_nn_modules_linear_Linear_fc_1_12"
    op_type: "torch_nn_modules_linear_Linear_fc_1"
    domain: "pkg.torch.2.2.0a0+git4ab5507"
  }
  name: "main_graph"
  initializer {
    dims: 64
    dims: 3
    dims: 7
    dims: 7
    data_type: 1
    name: "conv1.weight"
    raw_data: ""
  }
  initializer {
    dims: 64
    data_type: 1
    name: "bn1.weight"
    raw_data: ""
  }
  initializer {
    dims: 64
    data_type: 1
    name: "bn1.bias"
    raw_data: ""
  }
  initializer {
    dims: 64
    data_type: 1
    name: "bn1.running_mean"
    raw_data: ""
  }
  initializer {
    dims: 64
    data_type: 1
    name: "bn1.running_var"
    raw_data: ""
  }
  initializer {
    dims: 64
    dims: 64
    dims: 3
    dims: 3
    data_type: 1
    name: "layer1.0.conv1.weight"
    raw_data: ""
  }
  initializer {
    dims: 64
    data_type: 1
    name: "layer1.0.bn1.weight"
    raw_data: ""
  }
  initializer {
    dims: 64
    data_type: 1
    name: "layer1.0.bn1.bias"
    raw_data: ""
  }
  initializer {
    dims: 64
    data_type: 1
    name: "layer1.0.bn1.running_mean"
    raw_data: ""
  }
  initializer {
    dims: 64
    data_type: 1
    name: "layer1.0.bn1.running_var"
    raw_data: ""
  }
  initializer {
    dims: 64
    dims: 64
    dims: 3
    dims: 3
    data_type: 1
    name: "layer1.0.conv2.weight"
    raw_data: ""
  }
  initializer {
    dims: 64
    data_type: 1
    name: "layer1.0.bn2.weight"
    raw_data: ""
  }
  initializer {
    dims: 64
    data_type: 1
    name: "layer1.0.bn2.bias"
    raw_data: ""
  }
  initializer {
    dims: 64
    data_type: 1
    name: "layer1.0.bn2.running_mean"
    raw_data: ""
  }
  initializer {
    dims: 64
    data_type: 1
    name: "layer1.0.bn2.running_var"
    raw_data: ""
  }
  initializer {
    dims: 64
    dims: 64
    dims: 3
    dims: 3
    data_type: 1
    name: "layer1.1.conv1.weight"
    raw_data: ""
  }
  initializer {
    dims: 64
    data_type: 1
    name: "layer1.1.bn1.weight"
    raw_data: ""
  }
  initializer {
    dims: 64
    data_type: 1
    name: "layer1.1.bn1.bias"
    raw_data: ""
  }
  initializer {
    dims: 64
    data_type: 1
    name: "layer1.1.bn1.running_mean"
    raw_data: ""
  }
  initializer {
    dims: 64
    data_type: 1
    name: "layer1.1.bn1.running_var"
    raw_data: ""
  }
  initializer {
    dims: 64
    dims: 64
    dims: 3
    dims: 3
    data_type: 1
    name: "layer1.1.conv2.weight"
    raw_data: ""
  }
  initializer {
    dims: 64
    data_type: 1
    name: "layer1.1.bn2.weight"
    raw_data: ""
  }
  initializer {
    dims: 64
    data_type: 1
    name: "layer1.1.bn2.bias"
    raw_data: ""
  }
  initializer {
    dims: 64
    data_type: 1
    name: "layer1.1.bn2.running_mean"
    raw_data: ""
  }
  initializer {
    dims: 64
    data_type: 1
    name: "layer1.1.bn2.running_var"
    raw_data: ""
  }
  initializer {
    dims: 128
    dims: 64
    dims: 3
    dims: 3
    data_type: 1
    name: "layer2.0.conv1.weight"
    raw_data: ""
  }
  initializer {
    dims: 128
    data_type: 1
    name: "layer2.0.bn1.weight"
    raw_data: ""
  }
  initializer {
    dims: 128
    data_type: 1
    name: "layer2.0.bn1.bias"
    raw_data: ""
  }
  initializer {
    dims: 128
    data_type: 1
    name: "layer2.0.bn1.running_mean"
    raw_data: ""
  }
  initializer {
    dims: 128
    data_type: 1
    name: "layer2.0.bn1.running_var"
    raw_data: ""
  }
  initializer {
    dims: 128
    dims: 128
    dims: 3
    dims: 3
    data_type: 1
    name: "layer2.0.conv2.weight"
    raw_data: ""
  }
  initializer {
    dims: 128
    data_type: 1
    name: "layer2.0.bn2.weight"
    raw_data: ""
  }
  initializer {
    dims: 128
    data_type: 1
    name: "layer2.0.bn2.bias"
    raw_data: ""
  }
  initializer {
    dims: 128
    data_type: 1
    name: "layer2.0.bn2.running_mean"
    raw_data: ""
  }
  initializer {
    dims: 128
    data_type: 1
    name: "layer2.0.bn2.running_var"
    raw_data: ""
  }
  initializer {
    dims: 128
    dims: 64
    dims: 1
    dims: 1
    data_type: 1
    name: "layer2.0.downsample.0.weight"
    raw_data: ""
  }
  initializer {
    dims: 128
    data_type: 1
    name: "layer2.0.downsample.1.weight"
    raw_data: ""
  }
  initializer {
    dims: 128
    data_type: 1
    name: "layer2.0.downsample.1.bias"
    raw_data: ""
  }
  initializer {
    dims: 128
    data_type: 1
    name: "layer2.0.downsample.1.running_mean"
    raw_data: ""
  }
  initializer {
    dims: 128
    data_type: 1
    name: "layer2.0.downsample.1.running_var"
    raw_data: ""
  }
  initializer {
    dims: 128
    dims: 128
    dims: 3
    dims: 3
    data_type: 1
    name: "layer2.1.conv1.weight"
    raw_data: ""
  }
  initializer {
    dims: 128
    data_type: 1
    name: "layer2.1.bn1.weight"
    raw_data: ""
  }
  initializer {
    dims: 128
    data_type: 1
    name: "layer2.1.bn1.bias"
    raw_data: ""
  }
  initializer {
    dims: 128
    data_type: 1
    name: "layer2.1.bn1.running_mean"
    raw_data: ""
  }
  initializer {
    dims: 128
    data_type: 1
    name: "layer2.1.bn1.running_var"
    raw_data: ""
  }
  initializer {
    dims: 128
    dims: 128
    dims: 3
    dims: 3
    data_type: 1
    name: "layer2.1.conv2.weight"
    raw_data: ""
  }
  initializer {
    dims: 128
    data_type: 1
    name: "layer2.1.bn2.weight"
    raw_data: ""
  }
  initializer {
    dims: 128
    data_type: 1
    name: "layer2.1.bn2.bias"
    raw_data: ""
  }
  initializer {
    dims: 128
    data_type: 1
    name: "layer2.1.bn2.running_mean"
    raw_data: ""
  }
  initializer {
    dims: 128
    data_type: 1
    name: "layer2.1.bn2.running_var"
    raw_data: ""
  }
  initializer {
    dims: 256
    dims: 128
    dims: 3
    dims: 3
    data_type: 1
    name: "layer3.0.conv1.weight"
    raw_data: ""
  }
  initializer {
    dims: 256
    data_type: 1
    name: "layer3.0.bn1.weight"
    raw_data: ""
  }
  initializer {
    dims: 256
    data_type: 1
    name: "layer3.0.bn1.bias"
    raw_data: ""
  }
  initializer {
    dims: 256
    data_type: 1
    name: "layer3.0.bn1.running_mean"
    raw_data: ""
  }
  initializer {
    dims: 256
    data_type: 1
    name: "layer3.0.bn1.running_var"
    raw_data: ""
  }
  initializer {
    dims: 256
    dims: 256
    dims: 3
    dims: 3
    data_type: 1
    name: "layer3.0.conv2.weight"
    raw_data: ""
  }
  initializer {
    dims: 256
    data_type: 1
    name: "layer3.0.bn2.weight"
    raw_data: ""
  }
  initializer {
    dims: 256
    data_type: 1
    name: "layer3.0.bn2.bias"
    raw_data: ""
  }
  initializer {
    dims: 256
    data_type: 1
    name: "layer3.0.bn2.running_mean"
    raw_data: ""
  }
  initializer {
    dims: 256
    data_type: 1
    name: "layer3.0.bn2.running_var"
    raw_data: ""
  }
  initializer {
    dims: 256
    dims: 128
    dims: 1
    dims: 1
    data_type: 1
    name: "layer3.0.downsample.0.weight"
    raw_data: ""
  }
  initializer {
    dims: 256
    data_type: 1
    name: "layer3.0.downsample.1.weight"
    raw_data: ""
  }
  initializer {
    dims: 256
    data_type: 1
    name: "layer3.0.downsample.1.bias"
    raw_data: ""
  }
  initializer {
    dims: 256
    data_type: 1
    name: "layer3.0.downsample.1.running_mean"
    raw_data: ""
  }
  initializer {
    dims: 256
    data_type: 1
    name: "layer3.0.downsample.1.running_var"
    raw_data: ""
  }
  initializer {
    dims: 256
    dims: 256
    dims: 3
    dims: 3
    data_type: 1
    name: "layer3.1.conv1.weight"
    raw_data: ""
  }
  initializer {
    dims: 256
    data_type: 1
    name: "layer3.1.bn1.weight"
    raw_data: ""
  }
  initializer {
    dims: 256
    data_type: 1
    name: "layer3.1.bn1.bias"
    raw_data: ""
  }
  initializer {
    dims: 256
    data_type: 1
    name: "layer3.1.bn1.running_mean"
    raw_data: ""
  }
  initializer {
    dims: 256
    data_type: 1
    name: "layer3.1.bn1.running_var"
    raw_data: ""
  }
  initializer {
    dims: 256
    dims: 256
    dims: 3
    dims: 3
    data_type: 1
    name: "layer3.1.conv2.weight"
    raw_data: ""
  }
  initializer {
    dims: 256
    data_type: 1
    name: "layer3.1.bn2.weight"
    raw_data: ""
  }
  initializer {
    dims: 256
    data_type: 1
    name: "layer3.1.bn2.bias"
    raw_data: ""
  }
  initializer {
    dims: 256
    data_type: 1
    name: "layer3.1.bn2.running_mean"
    raw_data: ""
  }
  initializer {
    dims: 256
    data_type: 1
    name: "layer3.1.bn2.running_var"
    raw_data: ""
  }
  initializer {
    dims: 512
    dims: 256
    dims: 3
    dims: 3
    data_type: 1
    name: "layer4.0.conv1.weight"
    raw_data: ""
  }
  initializer {
    dims: 512
    data_type: 1
    name: "layer4.0.bn1.weight"
    raw_data: ""
  }
  initializer {
    dims: 512
    data_type: 1
    name: "layer4.0.bn1.bias"
    raw_data: ""
  }
  initializer {
    dims: 512
    data_type: 1
    name: "layer4.0.bn1.running_mean"
    raw_data: ""
  }
  initializer {
    dims: 512
    data_type: 1
    name: "layer4.0.bn1.running_var"
    raw_data: ""
  }
  initializer {
    dims: 512
    dims: 512
    dims: 3
    dims: 3
    data_type: 1
    name: "layer4.0.conv2.weight"
    raw_data: ""
  }
  initializer {
    dims: 512
    data_type: 1
    name: "layer4.0.bn2.weight"
    raw_data: ""
  }
  initializer {
    dims: 512
    data_type: 1
    name: "layer4.0.bn2.bias"
    raw_data: ""
  }
  initializer {
    dims: 512
    data_type: 1
    name: "layer4.0.bn2.running_mean"
    raw_data: ""
  }
  initializer {
    dims: 512
    data_type: 1
    name: "layer4.0.bn2.running_var"
    raw_data: ""
  }
  initializer {
    dims: 512
    dims: 256
    dims: 1
    dims: 1
    data_type: 1
    name: "layer4.0.downsample.0.weight"
    raw_data: ""
  }
  initializer {
    dims: 512
    data_type: 1
    name: "layer4.0.downsample.1.weight"
    raw_data: ""
  }
  initializer {
    dims: 512
    data_type: 1
    name: "layer4.0.downsample.1.bias"
    raw_data: ""
  }
  initializer {
    dims: 512
    data_type: 1
    name: "layer4.0.downsample.1.running_mean"
    raw_data: ""
  }
  initializer {
    dims: 512
    data_type: 1
    name: "layer4.0.downsample.1.running_var"
    raw_data: ""
  }
  initializer {
    dims: 512
    dims: 512
    dims: 3
    dims: 3
    data_type: 1
    name: "layer4.1.conv1.weight"
    raw_data: ""
  }
  initializer {
    dims: 512
    data_type: 1
    name: "layer4.1.bn1.weight"
    raw_data: ""
  }
  initializer {
    dims: 512
    data_type: 1
    name: "layer4.1.bn1.bias"
    raw_data: ""
  }
  initializer {
    dims: 512
    data_type: 1
    name: "layer4.1.bn1.running_mean"
    raw_data: ""
  }
  initializer {
    dims: 512
    data_type: 1
    name: "layer4.1.bn1.running_var"
    raw_data: ""
  }
  initializer {
    dims: 512
    dims: 512
    dims: 3
    dims: 3
    data_type: 1
    name: "layer4.1.conv2.weight"
    raw_data: ""
  }
  initializer {
    dims: 512
    data_type: 1
    name: "layer4.1.bn2.weight"
    raw_data: ""
  }
  initializer {
    dims: 512
    data_type: 1
    name: "layer4.1.bn2.bias"
    raw_data: ""
  }
  initializer {
    dims: 512
    data_type: 1
    name: "layer4.1.bn2.running_mean"
    raw_data: ""
  }
  initializer {
    dims: 512
    data_type: 1
    name: "layer4.1.bn2.running_var"
    raw_data: ""
  }
  initializer {
    dims: 1000
    dims: 512
    data_type: 1
    name: "fc.weight"
    raw_data: ""
  }
  initializer {
    dims: 1000
    data_type: 1
    name: "fc.bias"
    raw_data: ""
  }
  input {
    name: "l_x_"
    type {
      tensor_type {
        elem_type: 1
        shape {
          dim {
            dim_value: 1
          }
          dim {
            dim_value: 3
          }
          dim {
            dim_value: 224
          }
          dim {
            dim_value: 224
          }
        }
      }
    }
  }
  output {
    name: "fc_1"
    type {
      tensor_type {
        elem_type: 1
        shape {
          dim {
            dim_value: 1
          }
          dim {
            dim_value: 1000
          }
        }
      }
    }
  }
  value_info {
    name: "conv1.weight"
    type {
      tensor_type {
        elem_type: 1
        shape {
          dim {
            dim_value: 64
          }
          dim {
            dim_value: 3
          }
          dim {
            dim_value: 7
          }
          dim {
            dim_value: 7
          }
        }
      }
    }
  }
  value_info {
    name: "bn1.weight"
    type {
      tensor_type {
        elem_type: 1
        shape {
          dim {
            dim_value: 64
          }
        }
      }
    }
  }
  value_info {
    name: "bn1.bias"
    type {
      tensor_type {
        elem_type: 1
        shape {
          dim {
            dim_value: 64
          }
        }
      }
    }
  }
  value_info {
    name: "bn1.running_mean"
    type {
      tensor_type {
        elem_type: 1
        shape {
          dim {
            dim_value: 64
          }
        }
      }
    }
  }
  value_info {
    name: "bn1.running_var"
    type {
      tensor_type {
        elem_type: 1
        shape {
          dim {
            dim_value: 64
          }
        }
      }
    }
  }
  value_info {
    name: "layer1.0.conv1.weight"
    type {
      tensor_type {
        elem_type: 1
        shape {
          dim {
            dim_value: 64
          }
          dim {
            dim_value: 64
          }
          dim {
            dim_value: 3
          }
          dim {
            dim_value: 3
          }
        }
      }
    }
  }
  value_info {
    name: "layer1.0.bn1.weight"
    type {
      tensor_type {
        elem_type: 1
        shape {
          dim {
            dim_value: 64
          }
        }
      }
    }
  }
  value_info {
    name: "layer1.0.bn1.bias"
    type {
      tensor_type {
        elem_type: 1
        shape {
          dim {
            dim_value: 64
          }
        }
      }
    }
  }
  value_info {
    name: "layer1.0.bn1.running_mean"
    type {
      tensor_type {
        elem_type: 1
        shape {
          dim {
            dim_value: 64
          }
        }
      }
    }
  }
  value_info {
    name: "layer1.0.bn1.running_var"
    type {
      tensor_type {
        elem_type: 1
        shape {
          dim {
            dim_value: 64
          }
        }
      }
    }
  }
  value_info {
    name: "layer1.0.conv2.weight"
    type {
      tensor_type {
        elem_type: 1
        shape {
          dim {
            dim_value: 64
          }
          dim {
            dim_value: 64
          }
          dim {
            dim_value: 3
          }
          dim {
            dim_value: 3
          }
        }
      }
    }
  }
  value_info {
    name: "layer1.0.bn2.weight"
    type {
      tensor_type {
        elem_type: 1
        shape {
          dim {
            dim_value: 64
          }
        }
      }
    }
  }
  value_info {
    name: "layer1.0.bn2.bias"
    type {
      tensor_type {
        elem_type: 1
        shape {
          dim {
            dim_value: 64
          }
        }
      }
    }
  }
  value_info {
    name: "layer1.0.bn2.running_mean"
    type {
      tensor_type {
        elem_type: 1
        shape {
          dim {
            dim_value: 64
          }
        }
      }
    }
  }
  value_info {
    name: "layer1.0.bn2.running_var"
    type {
      tensor_type {
        elem_type: 1
        shape {
          dim {
            dim_value: 64
          }
        }
      }
    }
  }
  value_info {
    name: "layer1.1.conv1.weight"
    type {
      tensor_type {
        elem_type: 1
        shape {
          dim {
            dim_value: 64
          }
          dim {
            dim_value: 64
          }
          dim {
            dim_value: 3
          }
          dim {
            dim_value: 3
          }
        }
      }
    }
  }
  value_info {
    name: "layer1.1.bn1.weight"
    type {
      tensor_type {
        elem_type: 1
        shape {
          dim {
            dim_value: 64
          }
        }
      }
    }
  }
  value_info {
    name: "layer1.1.bn1.bias"
    type {
      tensor_type {
        elem_type: 1
        shape {
          dim {
            dim_value: 64
          }
        }
      }
    }
  }
  value_info {
    name: "layer1.1.bn1.running_mean"
    type {
      tensor_type {
        elem_type: 1
        shape {
          dim {
            dim_value: 64
          }
        }
      }
    }
  }
  value_info {
    name: "layer1.1.bn1.running_var"
    type {
      tensor_type {
        elem_type: 1
        shape {
          dim {
            dim_value: 64
          }
        }
      }
    }
  }
  value_info {
    name: "layer1.1.conv2.weight"
    type {
      tensor_type {
        elem_type: 1
        shape {
          dim {
            dim_value: 64
          }
          dim {
            dim_value: 64
          }
          dim {
            dim_value: 3
          }
          dim {
            dim_value: 3
          }
        }
      }
    }
  }
  value_info {
    name: "layer1.1.bn2.weight"
    type {
      tensor_type {
        elem_type: 1
        shape {
          dim {
            dim_value: 64
          }
        }
      }
    }
  }
  value_info {
    name: "layer1.1.bn2.bias"
    type {
      tensor_type {
        elem_type: 1
        shape {
          dim {
            dim_value: 64
          }
        }
      }
    }
  }
  value_info {
    name: "layer1.1.bn2.running_mean"
    type {
      tensor_type {
        elem_type: 1
        shape {
          dim {
            dim_value: 64
          }
        }
      }
    }
  }
  value_info {
    name: "layer1.1.bn2.running_var"
    type {
      tensor_type {
        elem_type: 1
        shape {
          dim {
            dim_value: 64
          }
        }
      }
    }
  }
  value_info {
    name: "layer2.0.conv1.weight"
    type {
      tensor_type {
        elem_type: 1
        shape {
          dim {
            dim_value: 128
          }
          dim {
            dim_value: 64
          }
          dim {
            dim_value: 3
          }
          dim {
            dim_value: 3
          }
        }
      }
    }
  }
  value_info {
    name: "layer2.0.bn1.weight"
    type {
      tensor_type {
        elem_type: 1
        shape {
          dim {
            dim_value: 128
          }
        }
      }
    }
  }
  value_info {
    name: "layer2.0.bn1.bias"
    type {
      tensor_type {
        elem_type: 1
        shape {
          dim {
            dim_value: 128
          }
        }
      }
    }
  }
  value_info {
    name: "layer2.0.bn1.running_mean"
    type {
      tensor_type {
        elem_type: 1
        shape {
          dim {
            dim_value: 128
          }
        }
      }
    }
  }
  value_info {
    name: "layer2.0.bn1.running_var"
    type {
      tensor_type {
        elem_type: 1
        shape {
          dim {
            dim_value: 128
          }
        }
      }
    }
  }
  value_info {
    name: "layer2.0.conv2.weight"
    type {
      tensor_type {
        elem_type: 1
        shape {
          dim {
            dim_value: 128
          }
          dim {
            dim_value: 128
          }
          dim {
            dim_value: 3
          }
          dim {
            dim_value: 3
          }
        }
      }
    }
  }
  value_info {
    name: "layer2.0.bn2.weight"
    type {
      tensor_type {
        elem_type: 1
        shape {
          dim {
            dim_value: 128
          }
        }
      }
    }
  }
  value_info {
    name: "layer2.0.bn2.bias"
    type {
      tensor_type {
        elem_type: 1
        shape {
          dim {
            dim_value: 128
          }
        }
      }
    }
  }
  value_info {
    name: "layer2.0.bn2.running_mean"
    type {
      tensor_type {
        elem_type: 1
        shape {
          dim {
            dim_value: 128
          }
        }
      }
    }
  }
  value_info {
    name: "layer2.0.bn2.running_var"
    type {
      tensor_type {
        elem_type: 1
        shape {
          dim {
            dim_value: 128
          }
        }
      }
    }
  }
  value_info {
    name: "layer2.0.downsample.0.weight"
    type {
      tensor_type {
        elem_type: 1
        shape {
          dim {
            dim_value: 128
          }
          dim {
            dim_value: 64
          }
          dim {
            dim_value: 1
          }
          dim {
            dim_value: 1
          }
        }
      }
    }
  }
  value_info {
    name: "layer2.0.downsample.1.weight"
    type {
      tensor_type {
        elem_type: 1
        shape {
          dim {
            dim_value: 128
          }
        }
      }
    }
  }
  value_info {
    name: "layer2.0.downsample.1.bias"
    type {
      tensor_type {
        elem_type: 1
        shape {
          dim {
            dim_value: 128
          }
        }
      }
    }
  }
  value_info {
    name: "layer2.0.downsample.1.running_mean"
    type {
      tensor_type {
        elem_type: 1
        shape {
          dim {
            dim_value: 128
          }
        }
      }
    }
  }
  value_info {
    name: "layer2.0.downsample.1.running_var"
    type {
      tensor_type {
        elem_type: 1
        shape {
          dim {
            dim_value: 128
          }
        }
      }
    }
  }
  value_info {
    name: "layer2.1.conv1.weight"
    type {
      tensor_type {
        elem_type: 1
        shape {
          dim {
            dim_value: 128
          }
          dim {
            dim_value: 128
          }
          dim {
            dim_value: 3
          }
          dim {
            dim_value: 3
          }
        }
      }
    }
  }
  value_info {
    name: "layer2.1.bn1.weight"
    type {
      tensor_type {
        elem_type: 1
        shape {
          dim {
            dim_value: 128
          }
        }
      }
    }
  }
  value_info {
    name: "layer2.1.bn1.bias"
    type {
      tensor_type {
        elem_type: 1
        shape {
          dim {
            dim_value: 128
          }
        }
      }
    }
  }
  value_info {
    name: "layer2.1.bn1.running_mean"
    type {
      tensor_type {
        elem_type: 1
        shape {
          dim {
            dim_value: 128
          }
        }
      }
    }
  }
  value_info {
    name: "layer2.1.bn1.running_var"
    type {
      tensor_type {
        elem_type: 1
        shape {
          dim {
            dim_value: 128
          }
        }
      }
    }
  }
  value_info {
    name: "layer2.1.conv2.weight"
    type {
      tensor_type {
        elem_type: 1
        shape {
          dim {
            dim_value: 128
          }
          dim {
            dim_value: 128
          }
          dim {
            dim_value: 3
          }
          dim {
            dim_value: 3
          }
        }
      }
    }
  }
  value_info {
    name: "layer2.1.bn2.weight"
    type {
      tensor_type {
        elem_type: 1
        shape {
          dim {
            dim_value: 128
          }
        }
      }
    }
  }
  value_info {
    name: "layer2.1.bn2.bias"
    type {
      tensor_type {
        elem_type: 1
        shape {
          dim {
            dim_value: 128
          }
        }
      }
    }
  }
  value_info {
    name: "layer2.1.bn2.running_mean"
    type {
      tensor_type {
        elem_type: 1
        shape {
          dim {
            dim_value: 128
          }
        }
      }
    }
  }
  value_info {
    name: "layer2.1.bn2.running_var"
    type {
      tensor_type {
        elem_type: 1
        shape {
          dim {
            dim_value: 128
          }
        }
      }
    }
  }
  value_info {
    name: "layer3.0.conv1.weight"
    type {
      tensor_type {
        elem_type: 1
        shape {
          dim {
            dim_value: 256
          }
          dim {
            dim_value: 128
          }
          dim {
            dim_value: 3
          }
          dim {
            dim_value: 3
          }
        }
      }
    }
  }
  value_info {
    name: "layer3.0.bn1.weight"
    type {
      tensor_type {
        elem_type: 1
        shape {
          dim {
            dim_value: 256
          }
        }
      }
    }
  }
  value_info {
    name: "layer3.0.bn1.bias"
    type {
      tensor_type {
        elem_type: 1
        shape {
          dim {
            dim_value: 256
          }
        }
      }
    }
  }
  value_info {
    name: "layer3.0.bn1.running_mean"
    type {
      tensor_type {
        elem_type: 1
        shape {
          dim {
            dim_value: 256
          }
        }
      }
    }
  }
  value_info {
    name: "layer3.0.bn1.running_var"
    type {
      tensor_type {
        elem_type: 1
        shape {
          dim {
            dim_value: 256
          }
        }
      }
    }
  }
  value_info {
    name: "layer3.0.conv2.weight"
    type {
      tensor_type {
        elem_type: 1
        shape {
          dim {
            dim_value: 256
          }
          dim {
            dim_value: 256
          }
          dim {
            dim_value: 3
          }
          dim {
            dim_value: 3
          }
        }
      }
    }
  }
  value_info {
    name: "layer3.0.bn2.weight"
    type {
      tensor_type {
        elem_type: 1
        shape {
          dim {
            dim_value: 256
          }
        }
      }
    }
  }
  value_info {
    name: "layer3.0.bn2.bias"
    type {
      tensor_type {
        elem_type: 1
        shape {
          dim {
            dim_value: 256
          }
        }
      }
    }
  }
  value_info {
    name: "layer3.0.bn2.running_mean"
    type {
      tensor_type {
        elem_type: 1
        shape {
          dim {
            dim_value: 256
          }
        }
      }
    }
  }
  value_info {
    name: "layer3.0.bn2.running_var"
    type {
      tensor_type {
        elem_type: 1
        shape {
          dim {
            dim_value: 256
          }
        }
      }
    }
  }
  value_info {
    name: "layer3.0.downsample.0.weight"
    type {
      tensor_type {
        elem_type: 1
        shape {
          dim {
            dim_value: 256
          }
          dim {
            dim_value: 128
          }
          dim {
            dim_value: 1
          }
          dim {
            dim_value: 1
          }
        }
      }
    }
  }
  value_info {
    name: "layer3.0.downsample.1.weight"
    type {
      tensor_type {
        elem_type: 1
        shape {
          dim {
            dim_value: 256
          }
        }
      }
    }
  }
  value_info {
    name: "layer3.0.downsample.1.bias"
    type {
      tensor_type {
        elem_type: 1
        shape {
          dim {
            dim_value: 256
          }
        }
      }
    }
  }
  value_info {
    name: "layer3.0.downsample.1.running_mean"
    type {
      tensor_type {
        elem_type: 1
        shape {
          dim {
            dim_value: 256
          }
        }
      }
    }
  }
  value_info {
    name: "layer3.0.downsample.1.running_var"
    type {
      tensor_type {
        elem_type: 1
        shape {
          dim {
            dim_value: 256
          }
        }
      }
    }
  }
  value_info {
    name: "layer3.1.conv1.weight"
    type {
      tensor_type {
        elem_type: 1
        shape {
          dim {
            dim_value: 256
          }
          dim {
            dim_value: 256
          }
          dim {
            dim_value: 3
          }
          dim {
            dim_value: 3
          }
        }
      }
    }
  }
  value_info {
    name: "layer3.1.bn1.weight"
    type {
      tensor_type {
        elem_type: 1
        shape {
          dim {
            dim_value: 256
          }
        }
      }
    }
  }
  value_info {
    name: "layer3.1.bn1.bias"
    type {
      tensor_type {
        elem_type: 1
        shape {
          dim {
            dim_value: 256
          }
        }
      }
    }
  }
  value_info {
    name: "layer3.1.bn1.running_mean"
    type {
      tensor_type {
        elem_type: 1
        shape {
          dim {
            dim_value: 256
          }
        }
      }
    }
  }
  value_info {
    name: "layer3.1.bn1.running_var"
    type {
      tensor_type {
        elem_type: 1
        shape {
          dim {
            dim_value: 256
          }
        }
      }
    }
  }
  value_info {
    name: "layer3.1.conv2.weight"
    type {
      tensor_type {
        elem_type: 1
        shape {
          dim {
            dim_value: 256
          }
          dim {
            dim_value: 256
          }
          dim {
            dim_value: 3
          }
          dim {
            dim_value: 3
          }
        }
      }
    }
  }
  value_info {
    name: "layer3.1.bn2.weight"
    type {
      tensor_type {
        elem_type: 1
        shape {
          dim {
            dim_value: 256
          }
        }
      }
    }
  }
  value_info {
    name: "layer3.1.bn2.bias"
    type {
      tensor_type {
        elem_type: 1
        shape {
          dim {
            dim_value: 256
          }
        }
      }
    }
  }
  value_info {
    name: "layer3.1.bn2.running_mean"
    type {
      tensor_type {
        elem_type: 1
        shape {
          dim {
            dim_value: 256
          }
        }
      }
    }
  }
  value_info {
    name: "layer3.1.bn2.running_var"
    type {
      tensor_type {
        elem_type: 1
        shape {
          dim {
            dim_value: 256
          }
        }
      }
    }
  }
  value_info {
    name: "layer4.0.conv1.weight"
    type {
      tensor_type {
        elem_type: 1
        shape {
          dim {
            dim_value: 512
          }
          dim {
            dim_value: 256
          }
          dim {
            dim_value: 3
          }
          dim {
            dim_value: 3
          }
        }
      }
    }
  }
  value_info {
    name: "layer4.0.bn1.weight"
    type {
      tensor_type {
        elem_type: 1
        shape {
          dim {
            dim_value: 512
          }
        }
      }
    }
  }
  value_info {
    name: "layer4.0.bn1.bias"
    type {
      tensor_type {
        elem_type: 1
        shape {
          dim {
            dim_value: 512
          }
        }
      }
    }
  }
  value_info {
    name: "layer4.0.bn1.running_mean"
    type {
      tensor_type {
        elem_type: 1
        shape {
          dim {
            dim_value: 512
          }
        }
      }
    }
  }
  value_info {
    name: "layer4.0.bn1.running_var"
    type {
      tensor_type {
        elem_type: 1
        shape {
          dim {
            dim_value: 512
          }
        }
      }
    }
  }
  value_info {
    name: "layer4.0.conv2.weight"
    type {
      tensor_type {
        elem_type: 1
        shape {
          dim {
            dim_value: 512
          }
          dim {
            dim_value: 512
          }
          dim {
            dim_value: 3
          }
          dim {
            dim_value: 3
          }
        }
      }
    }
  }
  value_info {
    name: "layer4.0.bn2.weight"
    type {
      tensor_type {
        elem_type: 1
        shape {
          dim {
            dim_value: 512
          }
        }
      }
    }
  }
  value_info {
    name: "layer4.0.bn2.bias"
    type {
      tensor_type {
        elem_type: 1
        shape {
          dim {
            dim_value: 512
          }
        }
      }
    }
  }
  value_info {
    name: "layer4.0.bn2.running_mean"
    type {
      tensor_type {
        elem_type: 1
        shape {
          dim {
            dim_value: 512
          }
        }
      }
    }
  }
  value_info {
    name: "layer4.0.bn2.running_var"
    type {
      tensor_type {
        elem_type: 1
        shape {
          dim {
            dim_value: 512
          }
        }
      }
    }
  }
  value_info {
    name: "layer4.0.downsample.0.weight"
    type {
      tensor_type {
        elem_type: 1
        shape {
          dim {
            dim_value: 512
          }
          dim {
            dim_value: 256
          }
          dim {
            dim_value: 1
          }
          dim {
            dim_value: 1
          }
        }
      }
    }
  }
  value_info {
    name: "layer4.0.downsample.1.weight"
    type {
      tensor_type {
        elem_type: 1
        shape {
          dim {
            dim_value: 512
          }
        }
      }
    }
  }
  value_info {
    name: "layer4.0.downsample.1.bias"
    type {
      tensor_type {
        elem_type: 1
        shape {
          dim {
            dim_value: 512
          }
        }
      }
    }
  }
  value_info {
    name: "layer4.0.downsample.1.running_mean"
    type {
      tensor_type {
        elem_type: 1
        shape {
          dim {
            dim_value: 512
          }
        }
      }
    }
  }
  value_info {
    name: "layer4.0.downsample.1.running_var"
    type {
      tensor_type {
        elem_type: 1
        shape {
          dim {
            dim_value: 512
          }
        }
      }
    }
  }
  value_info {
    name: "layer4.1.conv1.weight"
    type {
      tensor_type {
        elem_type: 1
        shape {
          dim {
            dim_value: 512
          }
          dim {
            dim_value: 512
          }
          dim {
            dim_value: 3
          }
          dim {
            dim_value: 3
          }
        }
      }
    }
  }
  value_info {
    name: "layer4.1.bn1.weight"
    type {
      tensor_type {
        elem_type: 1
        shape {
          dim {
            dim_value: 512
          }
        }
      }
    }
  }
  value_info {
    name: "layer4.1.bn1.bias"
    type {
      tensor_type {
        elem_type: 1
        shape {
          dim {
            dim_value: 512
          }
        }
      }
    }
  }
  value_info {
    name: "layer4.1.bn1.running_mean"
    type {
      tensor_type {
        elem_type: 1
        shape {
          dim {
            dim_value: 512
          }
        }
      }
    }
  }
  value_info {
    name: "layer4.1.bn1.running_var"
    type {
      tensor_type {
        elem_type: 1
        shape {
          dim {
            dim_value: 512
          }
        }
      }
    }
  }
  value_info {
    name: "layer4.1.conv2.weight"
    type {
      tensor_type {
        elem_type: 1
        shape {
          dim {
            dim_value: 512
          }
          dim {
            dim_value: 512
          }
          dim {
            dim_value: 3
          }
          dim {
            dim_value: 3
          }
        }
      }
    }
  }
  value_info {
    name: "layer4.1.bn2.weight"
    type {
      tensor_type {
        elem_type: 1
        shape {
          dim {
            dim_value: 512
          }
        }
      }
    }
  }
  value_info {
    name: "layer4.1.bn2.bias"
    type {
      tensor_type {
        elem_type: 1
        shape {
          dim {
            dim_value: 512
          }
        }
      }
    }
  }
  value_info {
    name: "layer4.1.bn2.running_mean"
    type {
      tensor_type {
        elem_type: 1
        shape {
          dim {
            dim_value: 512
          }
        }
      }
    }
  }
  value_info {
    name: "layer4.1.bn2.running_var"
    type {
      tensor_type {
        elem_type: 1
        shape {
          dim {
            dim_value: 512
          }
        }
      }
    }
  }
  value_info {
    name: "fc.weight"
    type {
      tensor_type {
        elem_type: 1
        shape {
          dim {
            dim_value: 1000
          }
          dim {
            dim_value: 512
          }
        }
      }
    }
  }
  value_info {
    name: "fc.bias"
    type {
      tensor_type {
        elem_type: 1
        shape {
          dim {
            dim_value: 1000
          }
        }
      }
    }
  }
  value_info {
    name: "conv1_1"
    type {
      tensor_type {
        elem_type: 1
        shape {
          dim {
            dim_value: 1
          }
          dim {
            dim_value: 64
          }
          dim {
            dim_value: 112
          }
          dim {
            dim_value: 112
          }
        }
      }
    }
  }
  value_info {
    name: "bn1_1"
    type {
      tensor_type {
        elem_type: 1
        shape {
          dim {
            dim_value: 1
          }
          dim {
            dim_value: 64
          }
          dim {
            dim_value: 112
          }
          dim {
            dim_value: 112
          }
        }
      }
    }
  }
  value_info {
    name: "relu_1"
    type {
      tensor_type {
        elem_type: 1
        shape {
          dim {
            dim_value: 1
          }
          dim {
            dim_value: 64
          }
          dim {
            dim_value: 112
          }
          dim {
            dim_value: 112
          }
        }
      }
    }
  }
  value_info {
    name: "maxpool_1"
    type {
      tensor_type {
        elem_type: 1
        shape {
          dim {
            dim_value: 1
          }
          dim {
            dim_value: 64
          }
          dim {
            dim_value: 56
          }
          dim {
            dim_value: 56
          }
        }
      }
    }
  }
  value_info {
    name: "layer1_1"
    type {
      tensor_type {
        elem_type: 1
        shape {
          dim {
            dim_value: 1
          }
          dim {
            dim_value: 64
          }
          dim {
            dim_value: 56
          }
          dim {
            dim_value: 56
          }
        }
      }
    }
  }
  value_info {
    name: "layer2_1"
    type {
      tensor_type {
        elem_type: 1
        shape {
          dim {
            dim_value: 1
          }
          dim {
            dim_value: 128
          }
          dim {
            dim_value: 28
          }
          dim {
            dim_value: 28
          }
        }
      }
    }
  }
  value_info {
    name: "layer3_1"
    type {
      tensor_type {
        elem_type: 1
        shape {
          dim {
            dim_value: 1
          }
          dim {
            dim_value: 256
          }
          dim {
            dim_value: 14
          }
          dim {
            dim_value: 14
          }
        }
      }
    }
  }
  value_info {
    name: "layer4_1"
    type {
      tensor_type {
        elem_type: 1
        shape {
          dim {
            dim_value: 1
          }
          dim {
            dim_value: 512
          }
          dim {
            dim_value: 7
          }
          dim {
            dim_value: 7
          }
        }
      }
    }
  }
  value_info {
    name: "avgpool_1"
    type {
      tensor_type {
        elem_type: 1
        shape {
          dim {
            dim_value: 1
          }
          dim {
            dim_value: 512
          }
          dim {
            dim_value: 1
          }
          dim {
            dim_value: 1
          }
        }
      }
    }
  }
  value_info {
    name: "_val_110"
    type {
      tensor_type {
        elem_type: 7
        shape {
          dim {
            dim_value: 2
          }
        }
      }
    }
  }
  value_info {
    name: "view"
    type {
      tensor_type {
        elem_type: 1
        shape {
          dim {
            dim_value: 1
          }
          dim {
            dim_value: 512
          }
        }
      }
    }
  }
  value_info {
    name: "pkg.torch.2.2.0a0+git4ab5507::torch_nn_modules_conv_Conv2d_conv1_1/l_x_"
    type {
      tensor_type {
        elem_type: 1
        shape {
          dim {
            dim_value: 1
          }
          dim {
            dim_value: 3
          }
          dim {
            dim_value: 224
          }
          dim {
            dim_value: 224
          }
        }
      }
    }
  }
  value_info {
    name: "pkg.torch.2.2.0a0+git4ab5507::torch_nn_modules_conv_Conv2d_conv1_1/convolution"
    type {
      tensor_type {
        elem_type: 1
        shape {
          dim {
            dim_value: 1
          }
          dim {
            dim_value: 64
          }
          dim {
            dim_value: 112
          }
          dim {
            dim_value: 112
          }
        }
      }
    }
  }
  value_info {
    name: "pkg.torch.2.2.0a0+git4ab5507::torch_nn_modules_batchnorm_BatchNorm2d_bn1_1/convolution"
    type {
      tensor_type {
        elem_type: 1
        shape {
          dim {
            dim_value: 1
          }
          dim {
            dim_value: 64
          }
          dim {
            dim_value: 112
          }
          dim {
            dim_value: 112
          }
        }
      }
    }
  }
  value_info {
    name: "pkg.torch.2.2.0a0+git4ab5507::torch_nn_modules_batchnorm_BatchNorm2d_bn1_1/_native_batch_norm_legit_no_training"
    type {
      tensor_type {
        elem_type: 1
        shape {
          dim {
            dim_value: 1
          }
          dim {
            dim_value: 64
          }
          dim {
            dim_value: 112
          }
          dim {
            dim_value: 112
          }
        }
      }
    }
  }
  value_info {
    name: "pkg.torch.2.2.0a0+git4ab5507::torch_nn_modules_batchnorm_BatchNorm2d_bn1_1/_native_batch_norm_legit_no_training_1"
    type {
      tensor_type {
        elem_type: 1
        shape {
          dim {
            dim_value: 0
          }
        }
      }
    }
  }
  value_info {
    name: "pkg.torch.2.2.0a0+git4ab5507::torch_nn_modules_batchnorm_BatchNorm2d_bn1_1/_native_batch_norm_legit_no_training_2"
    type {
      tensor_type {
        elem_type: 1
        shape {
          dim {
            dim_value: 0
          }
        }
      }
    }
  }
  value_info {
    name: "pkg.torch.2.2.0a0+git4ab5507::torch_nn_modules_activation_ReLU_relu_1/getitem"
    type {
      tensor_type {
        elem_type: 1
        shape {
          dim {
            dim_value: 1
          }
          dim {
            dim_value: 64
          }
          dim {
            dim_value: 112
          }
          dim {
            dim_value: 112
          }
        }
      }
    }
  }
  value_info {
    name: "pkg.torch.2.2.0a0+git4ab5507::torch_nn_modules_activation_ReLU_relu_1/relu"
    type {
      tensor_type {
        elem_type: 1
        shape {
          dim {
            dim_value: 1
          }
          dim {
            dim_value: 64
          }
          dim {
            dim_value: 112
          }
          dim {
            dim_value: 112
          }
        }
      }
    }
  }
  value_info {
    name: "pkg.torch.2.2.0a0+git4ab5507::torch_nn_modules_activation_ReLU_relu_1/copy"
    type {
      tensor_type {
        elem_type: 1
        shape {
          dim {
            dim_value: 1
          }
          dim {
            dim_value: 64
          }
          dim {
            dim_value: 112
          }
          dim {
            dim_value: 112
          }
        }
      }
    }
  }
  value_info {
    name: "pkg.torch.2.2.0a0+git4ab5507::torch_nn_modules_pooling_MaxPool2d_maxpool_1/copy"
    type {
      tensor_type {
        elem_type: 1
        shape {
          dim {
            dim_value: 1
          }
          dim {
            dim_value: 64
          }
          dim {
            dim_value: 112
          }
          dim {
            dim_value: 112
          }
        }
      }
    }
  }
  value_info {
    name: "pkg.torch.2.2.0a0+git4ab5507::torch_nn_modules_pooling_MaxPool2d_maxpool_1/max_pool2d_with_indices"
    type {
      tensor_type {
        elem_type: 1
        shape {
          dim {
            dim_value: 1
          }
          dim {
            dim_value: 64
          }
          dim {
            dim_value: 56
          }
          dim {
            dim_value: 56
          }
        }
      }
    }
  }
  value_info {
    name: "pkg.torch.2.2.0a0+git4ab5507::torch_nn_modules_pooling_MaxPool2d_maxpool_1/max_pool2d_with_indices_1"
    type {
      tensor_type {
        elem_type: 7
        shape {
          dim {
            dim_value: 1
          }
          dim {
            dim_value: 64
          }
          dim {
            dim_value: 56
          }
          dim {
            dim_value: 56
          }
        }
      }
    }
  }
  value_info {
    name: "pkg.torch.2.2.0a0+git4ab5507::torch_nn_modules_conv_Conv2d_getattr_L__self___layer1___0___conv1_1/getitem_3"
    type {
      tensor_type {
        elem_type: 1
        shape {
          dim {
            dim_value: 1
          }
          dim {
            dim_value: 64
          }
          dim {
            dim_value: 56
          }
          dim {
            dim_value: 56
          }
        }
      }
    }
  }
  value_info {
    name: "pkg.torch.2.2.0a0+git4ab5507::torch_nn_modules_conv_Conv2d_getattr_L__self___layer1___0___conv1_1/convolution_1"
    type {
      tensor_type {
        elem_type: 1
        shape {
          dim {
            dim_value: 1
          }
          dim {
            dim_value: 64
          }
          dim {
            dim_value: 56
          }
          dim {
            dim_value: 56
          }
        }
      }
    }
  }
  value_info {
    name: "pkg.torch.2.2.0a0+git4ab5507::torch_nn_modules_batchnorm_BatchNorm2d_getattr_L__self___layer1___0___bn1_1/convolution_1"
    type {
      tensor_type {
        elem_type: 1
        shape {
          dim {
            dim_value: 1
          }
          dim {
            dim_value: 64
          }
          dim {
            dim_value: 56
          }
          dim {
            dim_value: 56
          }
        }
      }
    }
  }
  value_info {
    name: "pkg.torch.2.2.0a0+git4ab5507::torch_nn_modules_batchnorm_BatchNorm2d_getattr_L__self___layer1___0___bn1_1/_native_batch_norm_legit_no_training_1"
    type {
      tensor_type {
        elem_type: 1
        shape {
          dim {
            dim_value: 1
          }
          dim {
            dim_value: 64
          }
          dim {
            dim_value: 56
          }
          dim {
            dim_value: 56
          }
        }
      }
    }
  }
  value_info {
    name: "pkg.torch.2.2.0a0+git4ab5507::torch_nn_modules_batchnorm_BatchNorm2d_getattr_L__self___layer1___0___bn1_1/_native_batch_norm_legit_no_training_1_1"
    type {
      tensor_type {
        elem_type: 1
        shape {
          dim {
            dim_value: 0
          }
        }
      }
    }
  }
  value_info {
    name: "pkg.torch.2.2.0a0+git4ab5507::torch_nn_modules_batchnorm_BatchNorm2d_getattr_L__self___layer1___0___bn1_1/_native_batch_norm_legit_no_training_1_2"
    type {
      tensor_type {
        elem_type: 1
        shape {
          dim {
            dim_value: 0
          }
        }
      }
    }
  }
  value_info {
    name: "pkg.torch.2.2.0a0+git4ab5507::torch_nn_modules_activation_ReLU_getattr_L__self___layer1___0___relu_1/getitem_5"
    type {
      tensor_type {
        elem_type: 1
        shape {
          dim {
            dim_value: 1
          }
          dim {
            dim_value: 64
          }
          dim {
            dim_value: 56
          }
          dim {
            dim_value: 56
          }
        }
      }
    }
  }
  value_info {
    name: "pkg.torch.2.2.0a0+git4ab5507::torch_nn_modules_activation_ReLU_getattr_L__self___layer1___0___relu_1/relu_1"
    type {
      tensor_type {
        elem_type: 1
        shape {
          dim {
            dim_value: 1
          }
          dim {
            dim_value: 64
          }
          dim {
            dim_value: 56
          }
          dim {
            dim_value: 56
          }
        }
      }
    }
  }
  value_info {
    name: "pkg.torch.2.2.0a0+git4ab5507::torch_nn_modules_activation_ReLU_getattr_L__self___layer1___0___relu_1/copy_1"
    type {
      tensor_type {
        elem_type: 1
        shape {
          dim {
            dim_value: 1
          }
          dim {
            dim_value: 64
          }
          dim {
            dim_value: 56
          }
          dim {
            dim_value: 56
          }
        }
      }
    }
  }
  value_info {
    name: "pkg.torch.2.2.0a0+git4ab5507::torch_nn_modules_conv_Conv2d_getattr_L__self___layer1___0___conv2_1/copy_1"
    type {
      tensor_type {
        elem_type: 1
        shape {
          dim {
            dim_value: 1
          }
          dim {
            dim_value: 64
          }
          dim {
            dim_value: 56
          }
          dim {
            dim_value: 56
          }
        }
      }
    }
  }
  value_info {
    name: "pkg.torch.2.2.0a0+git4ab5507::torch_nn_modules_conv_Conv2d_getattr_L__self___layer1___0___conv2_1/convolution_2"
    type {
      tensor_type {
        elem_type: 1
        shape {
          dim {
            dim_value: 1
          }
          dim {
            dim_value: 64
          }
          dim {
            dim_value: 56
          }
          dim {
            dim_value: 56
          }
        }
      }
    }
  }
  value_info {
    name: "pkg.torch.2.2.0a0+git4ab5507::torch_nn_modules_batchnorm_BatchNorm2d_getattr_L__self___layer1___0___bn2_1/convolution_2"
    type {
      tensor_type {
        elem_type: 1
        shape {
          dim {
            dim_value: 1
          }
          dim {
            dim_value: 64
          }
          dim {
            dim_value: 56
          }
          dim {
            dim_value: 56
          }
        }
      }
    }
  }
  value_info {
    name: "pkg.torch.2.2.0a0+git4ab5507::torch_nn_modules_batchnorm_BatchNorm2d_getattr_L__self___layer1___0___bn2_1/_native_batch_norm_legit_no_training_2"
    type {
      tensor_type {
        elem_type: 1
        shape {
          dim {
            dim_value: 1
          }
          dim {
            dim_value: 64
          }
          dim {
            dim_value: 56
          }
          dim {
            dim_value: 56
          }
        }
      }
    }
  }
  value_info {
    name: "pkg.torch.2.2.0a0+git4ab5507::torch_nn_modules_batchnorm_BatchNorm2d_getattr_L__self___layer1___0___bn2_1/_native_batch_norm_legit_no_training_2_1"
    type {
      tensor_type {
        elem_type: 1
        shape {
          dim {
            dim_value: 0
          }
        }
      }
    }
  }
  value_info {
    name: "pkg.torch.2.2.0a0+git4ab5507::torch_nn_modules_batchnorm_BatchNorm2d_getattr_L__self___layer1___0___bn2_1/_native_batch_norm_legit_no_training_2_2"
    type {
      tensor_type {
        elem_type: 1
        shape {
          dim {
            dim_value: 0
          }
        }
      }
    }
  }
  value_info {
    name: "pkg.torch.2.2.0a0+git4ab5507::torch_nn_modules_activation_ReLU_getattr_L__self___layer1___0___relu_2/add"
    type {
      tensor_type {
        elem_type: 1
        shape {
          dim {
            dim_value: 1
          }
          dim {
            dim_value: 64
          }
          dim {
            dim_value: 56
          }
          dim {
            dim_value: 56
          }
        }
      }
    }
  }
  value_info {
    name: "pkg.torch.2.2.0a0+git4ab5507::torch_nn_modules_activation_ReLU_getattr_L__self___layer1___0___relu_2/relu_2"
    type {
      tensor_type {
        elem_type: 1
        shape {
          dim {
            dim_value: 1
          }
          dim {
            dim_value: 64
          }
          dim {
            dim_value: 56
          }
          dim {
            dim_value: 56
          }
        }
      }
    }
  }
  value_info {
    name: "pkg.torch.2.2.0a0+git4ab5507::torch_nn_modules_activation_ReLU_getattr_L__self___layer1___0___relu_2/copy_2"
    type {
      tensor_type {
        elem_type: 1
        shape {
          dim {
            dim_value: 1
          }
          dim {
            dim_value: 64
          }
          dim {
            dim_value: 56
          }
          dim {
            dim_value: 56
          }
        }
      }
    }
  }
  value_info {
    name: "pkg.torchvision.0.16.0a0+0370134::torchvision_models_resnet_BasicBlock_layer1_0_1/getitem_3"
    type {
      tensor_type {
        elem_type: 1
        shape {
          dim {
            dim_value: 1
          }
          dim {
            dim_value: 64
          }
          dim {
            dim_value: 56
          }
          dim {
            dim_value: 56
          }
        }
      }
    }
  }
  value_info {
    name: "pkg.torchvision.0.16.0a0+0370134::torchvision_models_resnet_BasicBlock_layer1_0_1/getattr_l__self___layer1___0___conv1_1"
    type {
      tensor_type {
        elem_type: 1
        shape {
          dim {
            dim_value: 1
          }
          dim {
            dim_value: 64
          }
          dim {
            dim_value: 56
          }
          dim {
            dim_value: 56
          }
        }
      }
    }
  }
  value_info {
    name: "pkg.torchvision.0.16.0a0+0370134::torchvision_models_resnet_BasicBlock_layer1_0_1/getattr_l__self___layer1___0___bn1_1"
    type {
      tensor_type {
        elem_type: 1
        shape {
          dim {
            dim_value: 1
          }
          dim {
            dim_value: 64
          }
          dim {
            dim_value: 56
          }
          dim {
            dim_value: 56
          }
        }
      }
    }
  }
  value_info {
    name: "pkg.torchvision.0.16.0a0+0370134::torchvision_models_resnet_BasicBlock_layer1_0_1/getattr_l__self___layer1___0___relu_1"
    type {
      tensor_type {
        elem_type: 1
        shape {
          dim {
            dim_value: 1
          }
          dim {
            dim_value: 64
          }
          dim {
            dim_value: 56
          }
          dim {
            dim_value: 56
          }
        }
      }
    }
  }
  value_info {
    name: "pkg.torchvision.0.16.0a0+0370134::torchvision_models_resnet_BasicBlock_layer1_0_1/getattr_l__self___layer1___0___conv2_1"
    type {
      tensor_type {
        elem_type: 1
        shape {
          dim {
            dim_value: 1
          }
          dim {
            dim_value: 64
          }
          dim {
            dim_value: 56
          }
          dim {
            dim_value: 56
          }
        }
      }
    }
  }
  value_info {
    name: "pkg.torchvision.0.16.0a0+0370134::torchvision_models_resnet_BasicBlock_layer1_0_1/getattr_l__self___layer1___0___bn2_1"
    type {
      tensor_type {
        elem_type: 1
        shape {
          dim {
            dim_value: 1
          }
          dim {
            dim_value: 64
          }
          dim {
            dim_value: 56
          }
          dim {
            dim_value: 56
          }
        }
      }
    }
  }
  value_info {
    name: "pkg.torchvision.0.16.0a0+0370134::torchvision_models_resnet_BasicBlock_layer1_0_1/add"
    type {
      tensor_type {
        elem_type: 1
        shape {
          dim {
            dim_value: 1
          }
          dim {
            dim_value: 64
          }
          dim {
            dim_value: 56
          }
          dim {
            dim_value: 56
          }
        }
      }
    }
  }
  value_info {
    name: "pkg.torchvision.0.16.0a0+0370134::torchvision_models_resnet_BasicBlock_layer1_0_1/getattr_l__self___layer1___0___relu_2"
    type {
      tensor_type {
        elem_type: 1
        shape {
          dim {
            dim_value: 1
          }
          dim {
            dim_value: 64
          }
          dim {
            dim_value: 56
          }
          dim {
            dim_value: 56
          }
        }
      }
    }
  }
  value_info {
    name: "pkg.torch.2.2.0a0+git4ab5507::torch_nn_modules_conv_Conv2d_getattr_L__self___layer1___1___conv1_1/copy_2"
    type {
      tensor_type {
        elem_type: 1
        shape {
          dim {
            dim_value: 1
          }
          dim {
            dim_value: 64
          }
          dim {
            dim_value: 56
          }
          dim {
            dim_value: 56
          }
        }
      }
    }
  }
  value_info {
    name: "pkg.torch.2.2.0a0+git4ab5507::torch_nn_modules_conv_Conv2d_getattr_L__self___layer1___1___conv1_1/convolution_3"
    type {
      tensor_type {
        elem_type: 1
        shape {
          dim {
            dim_value: 1
          }
          dim {
            dim_value: 64
          }
          dim {
            dim_value: 56
          }
          dim {
            dim_value: 56
          }
        }
      }
    }
  }
  value_info {
    name: "pkg.torch.2.2.0a0+git4ab5507::torch_nn_modules_batchnorm_BatchNorm2d_getattr_L__self___layer1___1___bn1_1/convolution_3"
    type {
      tensor_type {
        elem_type: 1
        shape {
          dim {
            dim_value: 1
          }
          dim {
            dim_value: 64
          }
          dim {
            dim_value: 56
          }
          dim {
            dim_value: 56
          }
        }
      }
    }
  }
  value_info {
    name: "pkg.torch.2.2.0a0+git4ab5507::torch_nn_modules_batchnorm_BatchNorm2d_getattr_L__self___layer1___1___bn1_1/_native_batch_norm_legit_no_training_3"
    type {
      tensor_type {
        elem_type: 1
        shape {
          dim {
            dim_value: 1
          }
          dim {
            dim_value: 64
          }
          dim {
            dim_value: 56
          }
          dim {
            dim_value: 56
          }
        }
      }
    }
  }
  value_info {
    name: "pkg.torch.2.2.0a0+git4ab5507::torch_nn_modules_batchnorm_BatchNorm2d_getattr_L__self___layer1___1___bn1_1/_native_batch_norm_legit_no_training_3_1"
    type {
      tensor_type {
        elem_type: 1
        shape {
          dim {
            dim_value: 0
          }
        }
      }
    }
  }
  value_info {
    name: "pkg.torch.2.2.0a0+git4ab5507::torch_nn_modules_batchnorm_BatchNorm2d_getattr_L__self___layer1___1___bn1_1/_native_batch_norm_legit_no_training_3_2"
    type {
      tensor_type {
        elem_type: 1
        shape {
          dim {
            dim_value: 0
          }
        }
      }
    }
  }
  value_info {
    name: "pkg.torch.2.2.0a0+git4ab5507::torch_nn_modules_activation_ReLU_getattr_L__self___layer1___1___relu_1/getitem_11"
    type {
      tensor_type {
        elem_type: 1
        shape {
          dim {
            dim_value: 1
          }
          dim {
            dim_value: 64
          }
          dim {
            dim_value: 56
          }
          dim {
            dim_value: 56
          }
        }
      }
    }
  }
  value_info {
    name: "pkg.torch.2.2.0a0+git4ab5507::torch_nn_modules_activation_ReLU_getattr_L__self___layer1___1___relu_1/relu_3"
    type {
      tensor_type {
        elem_type: 1
        shape {
          dim {
            dim_value: 1
          }
          dim {
            dim_value: 64
          }
          dim {
            dim_value: 56
          }
          dim {
            dim_value: 56
          }
        }
      }
    }
  }
  value_info {
    name: "pkg.torch.2.2.0a0+git4ab5507::torch_nn_modules_activation_ReLU_getattr_L__self___layer1___1___relu_1/copy_3"
    type {
      tensor_type {
        elem_type: 1
        shape {
          dim {
            dim_value: 1
          }
          dim {
            dim_value: 64
          }
          dim {
            dim_value: 56
          }
          dim {
            dim_value: 56
          }
        }
      }
    }
  }
  value_info {
    name: "pkg.torch.2.2.0a0+git4ab5507::torch_nn_modules_conv_Conv2d_getattr_L__self___layer1___1___conv2_1/copy_3"
    type {
      tensor_type {
        elem_type: 1
        shape {
          dim {
            dim_value: 1
          }
          dim {
            dim_value: 64
          }
          dim {
            dim_value: 56
          }
          dim {
            dim_value: 56
          }
        }
      }
    }
  }
  value_info {
    name: "pkg.torch.2.2.0a0+git4ab5507::torch_nn_modules_conv_Conv2d_getattr_L__self___layer1___1___conv2_1/convolution_4"
    type {
      tensor_type {
        elem_type: 1
        shape {
          dim {
            dim_value: 1
          }
          dim {
            dim_value: 64
          }
          dim {
            dim_value: 56
          }
          dim {
            dim_value: 56
          }
        }
      }
    }
  }
  value_info {
    name: "pkg.torch.2.2.0a0+git4ab5507::torch_nn_modules_batchnorm_BatchNorm2d_getattr_L__self___layer1___1___bn2_1/convolution_4"
    type {
      tensor_type {
        elem_type: 1
        shape {
          dim {
            dim_value: 1
          }
          dim {
            dim_value: 64
          }
          dim {
            dim_value: 56
          }
          dim {
            dim_value: 56
          }
        }
      }
    }
  }
  value_info {
    name: "pkg.torch.2.2.0a0+git4ab5507::torch_nn_modules_batchnorm_BatchNorm2d_getattr_L__self___layer1___1___bn2_1/_native_batch_norm_legit_no_training_4"
    type {
      tensor_type {
        elem_type: 1
        shape {
          dim {
            dim_value: 1
          }
          dim {
            dim_value: 64
          }
          dim {
            dim_value: 56
          }
          dim {
            dim_value: 56
          }
        }
      }
    }
  }
  value_info {
    name: "pkg.torch.2.2.0a0+git4ab5507::torch_nn_modules_batchnorm_BatchNorm2d_getattr_L__self___layer1___1___bn2_1/_native_batch_norm_legit_no_training_4_1"
    type {
      tensor_type {
        elem_type: 1
        shape {
          dim {
            dim_value: 0
          }
        }
      }
    }
  }
  value_info {
    name: "pkg.torch.2.2.0a0+git4ab5507::torch_nn_modules_batchnorm_BatchNorm2d_getattr_L__self___layer1___1___bn2_1/_native_batch_norm_legit_no_training_4_2"
    type {
      tensor_type {
        elem_type: 1
        shape {
          dim {
            dim_value: 0
          }
        }
      }
    }
  }
  value_info {
    name: "pkg.torch.2.2.0a0+git4ab5507::torch_nn_modules_activation_ReLU_getattr_L__self___layer1___1___relu_2/add_1"
    type {
      tensor_type {
        elem_type: 1
        shape {
          dim {
            dim_value: 1
          }
          dim {
            dim_value: 64
          }
          dim {
            dim_value: 56
          }
          dim {
            dim_value: 56
          }
        }
      }
    }
  }
  value_info {
    name: "pkg.torch.2.2.0a0+git4ab5507::torch_nn_modules_activation_ReLU_getattr_L__self___layer1___1___relu_2/relu_4"
    type {
      tensor_type {
        elem_type: 1
        shape {
          dim {
            dim_value: 1
          }
          dim {
            dim_value: 64
          }
          dim {
            dim_value: 56
          }
          dim {
            dim_value: 56
          }
        }
      }
    }
  }
  value_info {
    name: "pkg.torch.2.2.0a0+git4ab5507::torch_nn_modules_activation_ReLU_getattr_L__self___layer1___1___relu_2/copy_4"
    type {
      tensor_type {
        elem_type: 1
        shape {
          dim {
            dim_value: 1
          }
          dim {
            dim_value: 64
          }
          dim {
            dim_value: 56
          }
          dim {
            dim_value: 56
          }
        }
      }
    }
  }
  value_info {
    name: "pkg.torchvision.0.16.0a0+0370134::torchvision_models_resnet_BasicBlock_layer1_1_1/copy_2"
    type {
      tensor_type {
        elem_type: 1
        shape {
          dim {
            dim_value: 1
          }
          dim {
            dim_value: 64
          }
          dim {
            dim_value: 56
          }
          dim {
            dim_value: 56
          }
        }
      }
    }
  }
  value_info {
    name: "pkg.torchvision.0.16.0a0+0370134::torchvision_models_resnet_BasicBlock_layer1_1_1/getattr_l__self___layer1___1___conv1_1"
    type {
      tensor_type {
        elem_type: 1
        shape {
          dim {
            dim_value: 1
          }
          dim {
            dim_value: 64
          }
          dim {
            dim_value: 56
          }
          dim {
            dim_value: 56
          }
        }
      }
    }
  }
  value_info {
    name: "pkg.torchvision.0.16.0a0+0370134::torchvision_models_resnet_BasicBlock_layer1_1_1/getattr_l__self___layer1___1___bn1_1"
    type {
      tensor_type {
        elem_type: 1
        shape {
          dim {
            dim_value: 1
          }
          dim {
            dim_value: 64
          }
          dim {
            dim_value: 56
          }
          dim {
            dim_value: 56
          }
        }
      }
    }
  }
  value_info {
    name: "pkg.torchvision.0.16.0a0+0370134::torchvision_models_resnet_BasicBlock_layer1_1_1/getattr_l__self___layer1___1___relu_1"
    type {
      tensor_type {
        elem_type: 1
        shape {
          dim {
            dim_value: 1
          }
          dim {
            dim_value: 64
          }
          dim {
            dim_value: 56
          }
          dim {
            dim_value: 56
          }
        }
      }
    }
  }
  value_info {
    name: "pkg.torchvision.0.16.0a0+0370134::torchvision_models_resnet_BasicBlock_layer1_1_1/getattr_l__self___layer1___1___conv2_1"
    type {
      tensor_type {
        elem_type: 1
        shape {
          dim {
            dim_value: 1
          }
          dim {
            dim_value: 64
          }
          dim {
            dim_value: 56
          }
          dim {
            dim_value: 56
          }
        }
      }
    }
  }
  value_info {
    name: "pkg.torchvision.0.16.0a0+0370134::torchvision_models_resnet_BasicBlock_layer1_1_1/getattr_l__self___layer1___1___bn2_1"
    type {
      tensor_type {
        elem_type: 1
        shape {
          dim {
            dim_value: 1
          }
          dim {
            dim_value: 64
          }
          dim {
            dim_value: 56
          }
          dim {
            dim_value: 56
          }
        }
      }
    }
  }
  value_info {
    name: "pkg.torchvision.0.16.0a0+0370134::torchvision_models_resnet_BasicBlock_layer1_1_1/add_1"
    type {
      tensor_type {
        elem_type: 1
        shape {
          dim {
            dim_value: 1
          }
          dim {
            dim_value: 64
          }
          dim {
            dim_value: 56
          }
          dim {
            dim_value: 56
          }
        }
      }
    }
  }
  value_info {
    name: "pkg.torchvision.0.16.0a0+0370134::torchvision_models_resnet_BasicBlock_layer1_1_1/getattr_l__self___layer1___1___relu_2"
    type {
      tensor_type {
        elem_type: 1
        shape {
          dim {
            dim_value: 1
          }
          dim {
            dim_value: 64
          }
          dim {
            dim_value: 56
          }
          dim {
            dim_value: 56
          }
        }
      }
    }
  }
  value_info {
    name: "pkg.torch.2.2.0a0+git4ab5507::torch_nn_modules_container_Sequential_layer1_1/getitem_3"
    type {
      tensor_type {
        elem_type: 1
        shape {
          dim {
            dim_value: 1
          }
          dim {
            dim_value: 64
          }
          dim {
            dim_value: 56
          }
          dim {
            dim_value: 56
          }
        }
      }
    }
  }
  value_info {
    name: "pkg.torch.2.2.0a0+git4ab5507::torch_nn_modules_container_Sequential_layer1_1/layer1_0_1"
    type {
      tensor_type {
        elem_type: 1
        shape {
          dim {
            dim_value: 1
          }
          dim {
            dim_value: 64
          }
          dim {
            dim_value: 56
          }
          dim {
            dim_value: 56
          }
        }
      }
    }
  }
  value_info {
    name: "pkg.torch.2.2.0a0+git4ab5507::torch_nn_modules_container_Sequential_layer1_1/layer1_1_1"
    type {
      tensor_type {
        elem_type: 1
        shape {
          dim {
            dim_value: 1
          }
          dim {
            dim_value: 64
          }
          dim {
            dim_value: 56
          }
          dim {
            dim_value: 56
          }
        }
      }
    }
  }
  value_info {
    name: "pkg.torch.2.2.0a0+git4ab5507::torch_nn_modules_conv_Conv2d_getattr_L__self___layer2___0___conv1_1/copy_4"
    type {
      tensor_type {
        elem_type: 1
        shape {
          dim {
            dim_value: 1
          }
          dim {
            dim_value: 64
          }
          dim {
            dim_value: 56
          }
          dim {
            dim_value: 56
          }
        }
      }
    }
  }
  value_info {
    name: "pkg.torch.2.2.0a0+git4ab5507::torch_nn_modules_conv_Conv2d_getattr_L__self___layer2___0___conv1_1/convolution_5"
    type {
      tensor_type {
        elem_type: 1
        shape {
          dim {
            dim_value: 1
          }
          dim {
            dim_value: 128
          }
          dim {
            dim_value: 28
          }
          dim {
            dim_value: 28
          }
        }
      }
    }
  }
  value_info {
    name: "pkg.torch.2.2.0a0+git4ab5507::torch_nn_modules_batchnorm_BatchNorm2d_getattr_L__self___layer2___0___bn1_1/convolution_5"
    type {
      tensor_type {
        elem_type: 1
        shape {
          dim {
            dim_value: 1
          }
          dim {
            dim_value: 128
          }
          dim {
            dim_value: 28
          }
          dim {
            dim_value: 28
          }
        }
      }
    }
  }
  value_info {
    name: "pkg.torch.2.2.0a0+git4ab5507::torch_nn_modules_batchnorm_BatchNorm2d_getattr_L__self___layer2___0___bn1_1/_native_batch_norm_legit_no_training_5"
    type {
      tensor_type {
        elem_type: 1
        shape {
          dim {
            dim_value: 1
          }
          dim {
            dim_value: 128
          }
          dim {
            dim_value: 28
          }
          dim {
            dim_value: 28
          }
        }
      }
    }
  }
  value_info {
    name: "pkg.torch.2.2.0a0+git4ab5507::torch_nn_modules_batchnorm_BatchNorm2d_getattr_L__self___layer2___0___bn1_1/_native_batch_norm_legit_no_training_5_1"
    type {
      tensor_type {
        elem_type: 1
        shape {
          dim {
            dim_value: 0
          }
        }
      }
    }
  }
  value_info {
    name: "pkg.torch.2.2.0a0+git4ab5507::torch_nn_modules_batchnorm_BatchNorm2d_getattr_L__self___layer2___0___bn1_1/_native_batch_norm_legit_no_training_5_2"
    type {
      tensor_type {
        elem_type: 1
        shape {
          dim {
            dim_value: 0
          }
        }
      }
    }
  }
  value_info {
    name: "pkg.torch.2.2.0a0+git4ab5507::torch_nn_modules_activation_ReLU_getattr_L__self___layer2___0___relu_1/getitem_17"
    type {
      tensor_type {
        elem_type: 1
        shape {
          dim {
            dim_value: 1
          }
          dim {
            dim_value: 128
          }
          dim {
            dim_value: 28
          }
          dim {
            dim_value: 28
          }
        }
      }
    }
  }
  value_info {
    name: "pkg.torch.2.2.0a0+git4ab5507::torch_nn_modules_activation_ReLU_getattr_L__self___layer2___0___relu_1/relu_5"
    type {
      tensor_type {
        elem_type: 1
        shape {
          dim {
            dim_value: 1
          }
          dim {
            dim_value: 128
          }
          dim {
            dim_value: 28
          }
          dim {
            dim_value: 28
          }
        }
      }
    }
  }
  value_info {
    name: "pkg.torch.2.2.0a0+git4ab5507::torch_nn_modules_activation_ReLU_getattr_L__self___layer2___0___relu_1/copy_5"
    type {
      tensor_type {
        elem_type: 1
        shape {
          dim {
            dim_value: 1
          }
          dim {
            dim_value: 128
          }
          dim {
            dim_value: 28
          }
          dim {
            dim_value: 28
          }
        }
      }
    }
  }
  value_info {
    name: "pkg.torch.2.2.0a0+git4ab5507::torch_nn_modules_conv_Conv2d_getattr_L__self___layer2___0___conv2_1/copy_5"
    type {
      tensor_type {
        elem_type: 1
        shape {
          dim {
            dim_value: 1
          }
          dim {
            dim_value: 128
          }
          dim {
            dim_value: 28
          }
          dim {
            dim_value: 28
          }
        }
      }
    }
  }
  value_info {
    name: "pkg.torch.2.2.0a0+git4ab5507::torch_nn_modules_conv_Conv2d_getattr_L__self___layer2___0___conv2_1/convolution_6"
    type {
      tensor_type {
        elem_type: 1
        shape {
          dim {
            dim_value: 1
          }
          dim {
            dim_value: 128
          }
          dim {
            dim_value: 28
          }
          dim {
            dim_value: 28
          }
        }
      }
    }
  }
  value_info {
    name: "pkg.torch.2.2.0a0+git4ab5507::torch_nn_modules_batchnorm_BatchNorm2d_getattr_L__self___layer2___0___bn2_1/convolution_6"
    type {
      tensor_type {
        elem_type: 1
        shape {
          dim {
            dim_value: 1
          }
          dim {
            dim_value: 128
          }
          dim {
            dim_value: 28
          }
          dim {
            dim_value: 28
          }
        }
      }
    }
  }
  value_info {
    name: "pkg.torch.2.2.0a0+git4ab5507::torch_nn_modules_batchnorm_BatchNorm2d_getattr_L__self___layer2___0___bn2_1/_native_batch_norm_legit_no_training_6"
    type {
      tensor_type {
        elem_type: 1
        shape {
          dim {
            dim_value: 1
          }
          dim {
            dim_value: 128
          }
          dim {
            dim_value: 28
          }
          dim {
            dim_value: 28
          }
        }
      }
    }
  }
  value_info {
    name: "pkg.torch.2.2.0a0+git4ab5507::torch_nn_modules_batchnorm_BatchNorm2d_getattr_L__self___layer2___0___bn2_1/_native_batch_norm_legit_no_training_6_1"
    type {
      tensor_type {
        elem_type: 1
        shape {
          dim {
            dim_value: 0
          }
        }
      }
    }
  }
  value_info {
    name: "pkg.torch.2.2.0a0+git4ab5507::torch_nn_modules_batchnorm_BatchNorm2d_getattr_L__self___layer2___0___bn2_1/_native_batch_norm_legit_no_training_6_2"
    type {
      tensor_type {
        elem_type: 1
        shape {
          dim {
            dim_value: 0
          }
        }
      }
    }
  }
  value_info {
    name: "pkg.torch.2.2.0a0+git4ab5507::torch_nn_modules_conv_Conv2d_getattr_L__self___layer2___0___downsample_0_1/copy_4"
    type {
      tensor_type {
        elem_type: 1
        shape {
          dim {
            dim_value: 1
          }
          dim {
            dim_value: 64
          }
          dim {
            dim_value: 56
          }
          dim {
            dim_value: 56
          }
        }
      }
    }
  }
  value_info {
    name: "pkg.torch.2.2.0a0+git4ab5507::torch_nn_modules_conv_Conv2d_getattr_L__self___layer2___0___downsample_0_1/convolution_7"
    type {
      tensor_type {
        elem_type: 1
        shape {
          dim {
            dim_value: 1
          }
          dim {
            dim_value: 128
          }
          dim {
            dim_value: 28
          }
          dim {
            dim_value: 28
          }
        }
      }
    }
  }
  value_info {
    name: "pkg.torch.2.2.0a0+git4ab5507::torch_nn_modules_batchnorm_BatchNorm2d_getattr_L__self___layer2___0___downsample_1_1/convolution_7"
    type {
      tensor_type {
        elem_type: 1
        shape {
          dim {
            dim_value: 1
          }
          dim {
            dim_value: 128
          }
          dim {
            dim_value: 28
          }
          dim {
            dim_value: 28
          }
        }
      }
    }
  }
  value_info {
    name: "pkg.torch.2.2.0a0+git4ab5507::torch_nn_modules_batchnorm_BatchNorm2d_getattr_L__self___layer2___0___downsample_1_1/_native_batch_norm_legit_no_training_7"
    type {
      tensor_type {
        elem_type: 1
        shape {
          dim {
            dim_value: 1
          }
          dim {
            dim_value: 128
          }
          dim {
            dim_value: 28
          }
          dim {
            dim_value: 28
          }
        }
      }
    }
  }
  value_info {
    name: "pkg.torch.2.2.0a0+git4ab5507::torch_nn_modules_batchnorm_BatchNorm2d_getattr_L__self___layer2___0___downsample_1_1/_native_batch_norm_legit_no_training_7_1"
    type {
      tensor_type {
        elem_type: 1
        shape {
          dim {
            dim_value: 0
          }
        }
      }
    }
  }
  value_info {
    name: "pkg.torch.2.2.0a0+git4ab5507::torch_nn_modules_batchnorm_BatchNorm2d_getattr_L__self___layer2___0___downsample_1_1/_native_batch_norm_legit_no_training_7_2"
    type {
      tensor_type {
        elem_type: 1
        shape {
          dim {
            dim_value: 0
          }
        }
      }
    }
  }
  value_info {
    name: "pkg.torch.2.2.0a0+git4ab5507::torch_nn_modules_container_Sequential_getattr_L__self___layer2___0___downsample_1/copy_4"
    type {
      tensor_type {
        elem_type: 1
        shape {
          dim {
            dim_value: 1
          }
          dim {
            dim_value: 64
          }
          dim {
            dim_value: 56
          }
          dim {
            dim_value: 56
          }
        }
      }
    }
  }
  value_info {
    name: "pkg.torch.2.2.0a0+git4ab5507::torch_nn_modules_container_Sequential_getattr_L__self___layer2___0___downsample_1/getattr_l__self___layer2___0___downsample_0_1"
    type {
      tensor_type {
        elem_type: 1
        shape {
          dim {
            dim_value: 1
          }
          dim {
            dim_value: 128
          }
          dim {
            dim_value: 28
          }
          dim {
            dim_value: 28
          }
        }
      }
    }
  }
  value_info {
    name: "pkg.torch.2.2.0a0+git4ab5507::torch_nn_modules_container_Sequential_getattr_L__self___layer2___0___downsample_1/getattr_l__self___layer2___0___downsample_1_1"
    type {
      tensor_type {
        elem_type: 1
        shape {
          dim {
            dim_value: 1
          }
          dim {
            dim_value: 128
          }
          dim {
            dim_value: 28
          }
          dim {
            dim_value: 28
          }
        }
      }
    }
  }
  value_info {
    name: "pkg.torch.2.2.0a0+git4ab5507::torch_nn_modules_activation_ReLU_getattr_L__self___layer2___0___relu_2/add_2"
    type {
      tensor_type {
        elem_type: 1
        shape {
          dim {
            dim_value: 1
          }
          dim {
            dim_value: 128
          }
          dim {
            dim_value: 28
          }
          dim {
            dim_value: 28
          }
        }
      }
    }
  }
  value_info {
    name: "pkg.torch.2.2.0a0+git4ab5507::torch_nn_modules_activation_ReLU_getattr_L__self___layer2___0___relu_2/relu_6"
    type {
      tensor_type {
        elem_type: 1
        shape {
          dim {
            dim_value: 1
          }
          dim {
            dim_value: 128
          }
          dim {
            dim_value: 28
          }
          dim {
            dim_value: 28
          }
        }
      }
    }
  }
  value_info {
    name: "pkg.torch.2.2.0a0+git4ab5507::torch_nn_modules_activation_ReLU_getattr_L__self___layer2___0___relu_2/copy_6"
    type {
      tensor_type {
        elem_type: 1
        shape {
          dim {
            dim_value: 1
          }
          dim {
            dim_value: 128
          }
          dim {
            dim_value: 28
          }
          dim {
            dim_value: 28
          }
        }
      }
    }
  }
  value_info {
    name: "pkg.torchvision.0.16.0a0+0370134::torchvision_models_resnet_BasicBlock_layer2_0_1/copy_4"
    type {
      tensor_type {
        elem_type: 1
        shape {
          dim {
            dim_value: 1
          }
          dim {
            dim_value: 64
          }
          dim {
            dim_value: 56
          }
          dim {
            dim_value: 56
          }
        }
      }
    }
  }
  value_info {
    name: "pkg.torchvision.0.16.0a0+0370134::torchvision_models_resnet_BasicBlock_layer2_0_1/getattr_l__self___layer2___0___conv1_1"
    type {
      tensor_type {
        elem_type: 1
        shape {
          dim {
            dim_value: 1
          }
          dim {
            dim_value: 128
          }
          dim {
            dim_value: 28
          }
          dim {
            dim_value: 28
          }
        }
      }
    }
  }
  value_info {
    name: "pkg.torchvision.0.16.0a0+0370134::torchvision_models_resnet_BasicBlock_layer2_0_1/getattr_l__self___layer2___0___bn1_1"
    type {
      tensor_type {
        elem_type: 1
        shape {
          dim {
            dim_value: 1
          }
          dim {
            dim_value: 128
          }
          dim {
            dim_value: 28
          }
          dim {
            dim_value: 28
          }
        }
      }
    }
  }
  value_info {
    name: "pkg.torchvision.0.16.0a0+0370134::torchvision_models_resnet_BasicBlock_layer2_0_1/getattr_l__self___layer2___0___relu_1"
    type {
      tensor_type {
        elem_type: 1
        shape {
          dim {
            dim_value: 1
          }
          dim {
            dim_value: 128
          }
          dim {
            dim_value: 28
          }
          dim {
            dim_value: 28
          }
        }
      }
    }
  }
  value_info {
    name: "pkg.torchvision.0.16.0a0+0370134::torchvision_models_resnet_BasicBlock_layer2_0_1/getattr_l__self___layer2___0___conv2_1"
    type {
      tensor_type {
        elem_type: 1
        shape {
          dim {
            dim_value: 1
          }
          dim {
            dim_value: 128
          }
          dim {
            dim_value: 28
          }
          dim {
            dim_value: 28
          }
        }
      }
    }
  }
  value_info {
    name: "pkg.torchvision.0.16.0a0+0370134::torchvision_models_resnet_BasicBlock_layer2_0_1/getattr_l__self___layer2___0___bn2_1"
    type {
      tensor_type {
        elem_type: 1
        shape {
          dim {
            dim_value: 1
          }
          dim {
            dim_value: 128
          }
          dim {
            dim_value: 28
          }
          dim {
            dim_value: 28
          }
        }
      }
    }
  }
  value_info {
    name: "pkg.torchvision.0.16.0a0+0370134::torchvision_models_resnet_BasicBlock_layer2_0_1/getattr_l__self___layer2___0___downsample_1"
    type {
      tensor_type {
        elem_type: 1
        shape {
          dim {
            dim_value: 1
          }
          dim {
            dim_value: 128
          }
          dim {
            dim_value: 28
          }
          dim {
            dim_value: 28
          }
        }
      }
    }
  }
  value_info {
    name: "pkg.torchvision.0.16.0a0+0370134::torchvision_models_resnet_BasicBlock_layer2_0_1/add_2"
    type {
      tensor_type {
        elem_type: 1
        shape {
          dim {
            dim_value: 1
          }
          dim {
            dim_value: 128
          }
          dim {
            dim_value: 28
          }
          dim {
            dim_value: 28
          }
        }
      }
    }
  }
  value_info {
    name: "pkg.torchvision.0.16.0a0+0370134::torchvision_models_resnet_BasicBlock_layer2_0_1/getattr_l__self___layer2___0___relu_2"
    type {
      tensor_type {
        elem_type: 1
        shape {
          dim {
            dim_value: 1
          }
          dim {
            dim_value: 128
          }
          dim {
            dim_value: 28
          }
          dim {
            dim_value: 28
          }
        }
      }
    }
  }
  value_info {
    name: "pkg.torch.2.2.0a0+git4ab5507::torch_nn_modules_conv_Conv2d_getattr_L__self___layer2___1___conv1_1/copy_6"
    type {
      tensor_type {
        elem_type: 1
        shape {
          dim {
            dim_value: 1
          }
          dim {
            dim_value: 128
          }
          dim {
            dim_value: 28
          }
          dim {
            dim_value: 28
          }
        }
      }
    }
  }
  value_info {
    name: "pkg.torch.2.2.0a0+git4ab5507::torch_nn_modules_conv_Conv2d_getattr_L__self___layer2___1___conv1_1/convolution_8"
    type {
      tensor_type {
        elem_type: 1
        shape {
          dim {
            dim_value: 1
          }
          dim {
            dim_value: 128
          }
          dim {
            dim_value: 28
          }
          dim {
            dim_value: 28
          }
        }
      }
    }
  }
  value_info {
    name: "pkg.torch.2.2.0a0+git4ab5507::torch_nn_modules_batchnorm_BatchNorm2d_getattr_L__self___layer2___1___bn1_1/convolution_8"
    type {
      tensor_type {
        elem_type: 1
        shape {
          dim {
            dim_value: 1
          }
          dim {
            dim_value: 128
          }
          dim {
            dim_value: 28
          }
          dim {
            dim_value: 28
          }
        }
      }
    }
  }
  value_info {
    name: "pkg.torch.2.2.0a0+git4ab5507::torch_nn_modules_batchnorm_BatchNorm2d_getattr_L__self___layer2___1___bn1_1/_native_batch_norm_legit_no_training_8"
    type {
      tensor_type {
        elem_type: 1
        shape {
          dim {
            dim_value: 1
          }
          dim {
            dim_value: 128
          }
          dim {
            dim_value: 28
          }
          dim {
            dim_value: 28
          }
        }
      }
    }
  }
  value_info {
    name: "pkg.torch.2.2.0a0+git4ab5507::torch_nn_modules_batchnorm_BatchNorm2d_getattr_L__self___layer2___1___bn1_1/_native_batch_norm_legit_no_training_8_1"
    type {
      tensor_type {
        elem_type: 1
        shape {
          dim {
            dim_value: 0
          }
        }
      }
    }
  }
  value_info {
    name: "pkg.torch.2.2.0a0+git4ab5507::torch_nn_modules_batchnorm_BatchNorm2d_getattr_L__self___layer2___1___bn1_1/_native_batch_norm_legit_no_training_8_2"
    type {
      tensor_type {
        elem_type: 1
        shape {
          dim {
            dim_value: 0
          }
        }
      }
    }
  }
  value_info {
    name: "pkg.torch.2.2.0a0+git4ab5507::torch_nn_modules_activation_ReLU_getattr_L__self___layer2___1___relu_1/getitem_26"
    type {
      tensor_type {
        elem_type: 1
        shape {
          dim {
            dim_value: 1
          }
          dim {
            dim_value: 128
          }
          dim {
            dim_value: 28
          }
          dim {
            dim_value: 28
          }
        }
      }
    }
  }
  value_info {
    name: "pkg.torch.2.2.0a0+git4ab5507::torch_nn_modules_activation_ReLU_getattr_L__self___layer2___1___relu_1/relu_7"
    type {
      tensor_type {
        elem_type: 1
        shape {
          dim {
            dim_value: 1
          }
          dim {
            dim_value: 128
          }
          dim {
            dim_value: 28
          }
          dim {
            dim_value: 28
          }
        }
      }
    }
  }
  value_info {
    name: "pkg.torch.2.2.0a0+git4ab5507::torch_nn_modules_activation_ReLU_getattr_L__self___layer2___1___relu_1/copy_7"
    type {
      tensor_type {
        elem_type: 1
        shape {
          dim {
            dim_value: 1
          }
          dim {
            dim_value: 128
          }
          dim {
            dim_value: 28
          }
          dim {
            dim_value: 28
          }
        }
      }
    }
  }
  value_info {
    name: "pkg.torch.2.2.0a0+git4ab5507::torch_nn_modules_conv_Conv2d_getattr_L__self___layer2___1___conv2_1/copy_7"
    type {
      tensor_type {
        elem_type: 1
        shape {
          dim {
            dim_value: 1
          }
          dim {
            dim_value: 128
          }
          dim {
            dim_value: 28
          }
          dim {
            dim_value: 28
          }
        }
      }
    }
  }
  value_info {
    name: "pkg.torch.2.2.0a0+git4ab5507::torch_nn_modules_conv_Conv2d_getattr_L__self___layer2___1___conv2_1/convolution_9"
    type {
      tensor_type {
        elem_type: 1
        shape {
          dim {
            dim_value: 1
          }
          dim {
            dim_value: 128
          }
          dim {
            dim_value: 28
          }
          dim {
            dim_value: 28
          }
        }
      }
    }
  }
  value_info {
    name: "pkg.torch.2.2.0a0+git4ab5507::torch_nn_modules_batchnorm_BatchNorm2d_getattr_L__self___layer2___1___bn2_1/convolution_9"
    type {
      tensor_type {
        elem_type: 1
        shape {
          dim {
            dim_value: 1
          }
          dim {
            dim_value: 128
          }
          dim {
            dim_value: 28
          }
          dim {
            dim_value: 28
          }
        }
      }
    }
  }
  value_info {
    name: "pkg.torch.2.2.0a0+git4ab5507::torch_nn_modules_batchnorm_BatchNorm2d_getattr_L__self___layer2___1___bn2_1/_native_batch_norm_legit_no_training_9"
    type {
      tensor_type {
        elem_type: 1
        shape {
          dim {
            dim_value: 1
          }
          dim {
            dim_value: 128
          }
          dim {
            dim_value: 28
          }
          dim {
            dim_value: 28
          }
        }
      }
    }
  }
  value_info {
    name: "pkg.torch.2.2.0a0+git4ab5507::torch_nn_modules_batchnorm_BatchNorm2d_getattr_L__self___layer2___1___bn2_1/_native_batch_norm_legit_no_training_9_1"
    type {
      tensor_type {
        elem_type: 1
        shape {
          dim {
            dim_value: 0
          }
        }
      }
    }
  }
  value_info {
    name: "pkg.torch.2.2.0a0+git4ab5507::torch_nn_modules_batchnorm_BatchNorm2d_getattr_L__self___layer2___1___bn2_1/_native_batch_norm_legit_no_training_9_2"
    type {
      tensor_type {
        elem_type: 1
        shape {
          dim {
            dim_value: 0
          }
        }
      }
    }
  }
  value_info {
    name: "pkg.torch.2.2.0a0+git4ab5507::torch_nn_modules_activation_ReLU_getattr_L__self___layer2___1___relu_2/add_3"
    type {
      tensor_type {
        elem_type: 1
        shape {
          dim {
            dim_value: 1
          }
          dim {
            dim_value: 128
          }
          dim {
            dim_value: 28
          }
          dim {
            dim_value: 28
          }
        }
      }
    }
  }
  value_info {
    name: "pkg.torch.2.2.0a0+git4ab5507::torch_nn_modules_activation_ReLU_getattr_L__self___layer2___1___relu_2/relu_8"
    type {
      tensor_type {
        elem_type: 1
        shape {
          dim {
            dim_value: 1
          }
          dim {
            dim_value: 128
          }
          dim {
            dim_value: 28
          }
          dim {
            dim_value: 28
          }
        }
      }
    }
  }
  value_info {
    name: "pkg.torch.2.2.0a0+git4ab5507::torch_nn_modules_activation_ReLU_getattr_L__self___layer2___1___relu_2/copy_8"
    type {
      tensor_type {
        elem_type: 1
        shape {
          dim {
            dim_value: 1
          }
          dim {
            dim_value: 128
          }
          dim {
            dim_value: 28
          }
          dim {
            dim_value: 28
          }
        }
      }
    }
  }
  value_info {
    name: "pkg.torchvision.0.16.0a0+0370134::torchvision_models_resnet_BasicBlock_layer2_1_1/copy_6"
    type {
      tensor_type {
        elem_type: 1
        shape {
          dim {
            dim_value: 1
          }
          dim {
            dim_value: 128
          }
          dim {
            dim_value: 28
          }
          dim {
            dim_value: 28
          }
        }
      }
    }
  }
  value_info {
    name: "pkg.torchvision.0.16.0a0+0370134::torchvision_models_resnet_BasicBlock_layer2_1_1/getattr_l__self___layer2___1___conv1_1"
    type {
      tensor_type {
        elem_type: 1
        shape {
          dim {
            dim_value: 1
          }
          dim {
            dim_value: 128
          }
          dim {
            dim_value: 28
          }
          dim {
            dim_value: 28
          }
        }
      }
    }
  }
  value_info {
    name: "pkg.torchvision.0.16.0a0+0370134::torchvision_models_resnet_BasicBlock_layer2_1_1/getattr_l__self___layer2___1___bn1_1"
    type {
      tensor_type {
        elem_type: 1
        shape {
          dim {
            dim_value: 1
          }
          dim {
            dim_value: 128
          }
          dim {
            dim_value: 28
          }
          dim {
            dim_value: 28
          }
        }
      }
    }
  }
  value_info {
    name: "pkg.torchvision.0.16.0a0+0370134::torchvision_models_resnet_BasicBlock_layer2_1_1/getattr_l__self___layer2___1___relu_1"
    type {
      tensor_type {
        elem_type: 1
        shape {
          dim {
            dim_value: 1
          }
          dim {
            dim_value: 128
          }
          dim {
            dim_value: 28
          }
          dim {
            dim_value: 28
          }
        }
      }
    }
  }
  value_info {
    name: "pkg.torchvision.0.16.0a0+0370134::torchvision_models_resnet_BasicBlock_layer2_1_1/getattr_l__self___layer2___1___conv2_1"
    type {
      tensor_type {
        elem_type: 1
        shape {
          dim {
            dim_value: 1
          }
          dim {
            dim_value: 128
          }
          dim {
            dim_value: 28
          }
          dim {
            dim_value: 28
          }
        }
      }
    }
  }
  value_info {
    name: "pkg.torchvision.0.16.0a0+0370134::torchvision_models_resnet_BasicBlock_layer2_1_1/getattr_l__self___layer2___1___bn2_1"
    type {
      tensor_type {
        elem_type: 1
        shape {
          dim {
            dim_value: 1
          }
          dim {
            dim_value: 128
          }
          dim {
            dim_value: 28
          }
          dim {
            dim_value: 28
          }
        }
      }
    }
  }
  value_info {
    name: "pkg.torchvision.0.16.0a0+0370134::torchvision_models_resnet_BasicBlock_layer2_1_1/add_3"
    type {
      tensor_type {
        elem_type: 1
        shape {
          dim {
            dim_value: 1
          }
          dim {
            dim_value: 128
          }
          dim {
            dim_value: 28
          }
          dim {
            dim_value: 28
          }
        }
      }
    }
  }
  value_info {
    name: "pkg.torchvision.0.16.0a0+0370134::torchvision_models_resnet_BasicBlock_layer2_1_1/getattr_l__self___layer2___1___relu_2"
    type {
      tensor_type {
        elem_type: 1
        shape {
          dim {
            dim_value: 1
          }
          dim {
            dim_value: 128
          }
          dim {
            dim_value: 28
          }
          dim {
            dim_value: 28
          }
        }
      }
    }
  }
  value_info {
    name: "pkg.torch.2.2.0a0+git4ab5507::torch_nn_modules_container_Sequential_layer2_1/copy_4"
    type {
      tensor_type {
        elem_type: 1
        shape {
          dim {
            dim_value: 1
          }
          dim {
            dim_value: 64
          }
          dim {
            dim_value: 56
          }
          dim {
            dim_value: 56
          }
        }
      }
    }
  }
  value_info {
    name: "pkg.torch.2.2.0a0+git4ab5507::torch_nn_modules_container_Sequential_layer2_1/layer2_0_1"
    type {
      tensor_type {
        elem_type: 1
        shape {
          dim {
            dim_value: 1
          }
          dim {
            dim_value: 128
          }
          dim {
            dim_value: 28
          }
          dim {
            dim_value: 28
          }
        }
      }
    }
  }
  value_info {
    name: "pkg.torch.2.2.0a0+git4ab5507::torch_nn_modules_container_Sequential_layer2_1/layer2_1_1"
    type {
      tensor_type {
        elem_type: 1
        shape {
          dim {
            dim_value: 1
          }
          dim {
            dim_value: 128
          }
          dim {
            dim_value: 28
          }
          dim {
            dim_value: 28
          }
        }
      }
    }
  }
  value_info {
    name: "pkg.torch.2.2.0a0+git4ab5507::torch_nn_modules_conv_Conv2d_getattr_L__self___layer3___0___conv1_1/copy_8"
    type {
      tensor_type {
        elem_type: 1
        shape {
          dim {
            dim_value: 1
          }
          dim {
            dim_value: 128
          }
          dim {
            dim_value: 28
          }
          dim {
            dim_value: 28
          }
        }
      }
    }
  }
  value_info {
    name: "pkg.torch.2.2.0a0+git4ab5507::torch_nn_modules_conv_Conv2d_getattr_L__self___layer3___0___conv1_1/convolution_10"
    type {
      tensor_type {
        elem_type: 1
        shape {
          dim {
            dim_value: 1
          }
          dim {
            dim_value: 256
          }
          dim {
            dim_value: 14
          }
          dim {
            dim_value: 14
          }
        }
      }
    }
  }
  value_info {
    name: "pkg.torch.2.2.0a0+git4ab5507::torch_nn_modules_batchnorm_BatchNorm2d_getattr_L__self___layer3___0___bn1_1/convolution_10"
    type {
      tensor_type {
        elem_type: 1
        shape {
          dim {
            dim_value: 1
          }
          dim {
            dim_value: 256
          }
          dim {
            dim_value: 14
          }
          dim {
            dim_value: 14
          }
        }
      }
    }
  }
  value_info {
    name: "pkg.torch.2.2.0a0+git4ab5507::torch_nn_modules_batchnorm_BatchNorm2d_getattr_L__self___layer3___0___bn1_1/_native_batch_norm_legit_no_training_10"
    type {
      tensor_type {
        elem_type: 1
        shape {
          dim {
            dim_value: 1
          }
          dim {
            dim_value: 256
          }
          dim {
            dim_value: 14
          }
          dim {
            dim_value: 14
          }
        }
      }
    }
  }
  value_info {
    name: "pkg.torch.2.2.0a0+git4ab5507::torch_nn_modules_batchnorm_BatchNorm2d_getattr_L__self___layer3___0___bn1_1/_native_batch_norm_legit_no_training_10_1"
    type {
      tensor_type {
        elem_type: 1
        shape {
          dim {
            dim_value: 0
          }
        }
      }
    }
  }
  value_info {
    name: "pkg.torch.2.2.0a0+git4ab5507::torch_nn_modules_batchnorm_BatchNorm2d_getattr_L__self___layer3___0___bn1_1/_native_batch_norm_legit_no_training_10_2"
    type {
      tensor_type {
        elem_type: 1
        shape {
          dim {
            dim_value: 0
          }
        }
      }
    }
  }
  value_info {
    name: "pkg.torch.2.2.0a0+git4ab5507::torch_nn_modules_activation_ReLU_getattr_L__self___layer3___0___relu_1/getitem_32"
    type {
      tensor_type {
        elem_type: 1
        shape {
          dim {
            dim_value: 1
          }
          dim {
            dim_value: 256
          }
          dim {
            dim_value: 14
          }
          dim {
            dim_value: 14
          }
        }
      }
    }
  }
  value_info {
    name: "pkg.torch.2.2.0a0+git4ab5507::torch_nn_modules_activation_ReLU_getattr_L__self___layer3___0___relu_1/relu_9"
    type {
      tensor_type {
        elem_type: 1
        shape {
          dim {
            dim_value: 1
          }
          dim {
            dim_value: 256
          }
          dim {
            dim_value: 14
          }
          dim {
            dim_value: 14
          }
        }
      }
    }
  }
  value_info {
    name: "pkg.torch.2.2.0a0+git4ab5507::torch_nn_modules_activation_ReLU_getattr_L__self___layer3___0___relu_1/copy_9"
    type {
      tensor_type {
        elem_type: 1
        shape {
          dim {
            dim_value: 1
          }
          dim {
            dim_value: 256
          }
          dim {
            dim_value: 14
          }
          dim {
            dim_value: 14
          }
        }
      }
    }
  }
  value_info {
    name: "pkg.torch.2.2.0a0+git4ab5507::torch_nn_modules_conv_Conv2d_getattr_L__self___layer3___0___conv2_1/copy_9"
    type {
      tensor_type {
        elem_type: 1
        shape {
          dim {
            dim_value: 1
          }
          dim {
            dim_value: 256
          }
          dim {
            dim_value: 14
          }
          dim {
            dim_value: 14
          }
        }
      }
    }
  }
  value_info {
    name: "pkg.torch.2.2.0a0+git4ab5507::torch_nn_modules_conv_Conv2d_getattr_L__self___layer3___0___conv2_1/convolution_11"
    type {
      tensor_type {
        elem_type: 1
        shape {
          dim {
            dim_value: 1
          }
          dim {
            dim_value: 256
          }
          dim {
            dim_value: 14
          }
          dim {
            dim_value: 14
          }
        }
      }
    }
  }
  value_info {
    name: "pkg.torch.2.2.0a0+git4ab5507::torch_nn_modules_batchnorm_BatchNorm2d_getattr_L__self___layer3___0___bn2_1/convolution_11"
    type {
      tensor_type {
        elem_type: 1
        shape {
          dim {
            dim_value: 1
          }
          dim {
            dim_value: 256
          }
          dim {
            dim_value: 14
          }
          dim {
            dim_value: 14
          }
        }
      }
    }
  }
  value_info {
    name: "pkg.torch.2.2.0a0+git4ab5507::torch_nn_modules_batchnorm_BatchNorm2d_getattr_L__self___layer3___0___bn2_1/_native_batch_norm_legit_no_training_11"
    type {
      tensor_type {
        elem_type: 1
        shape {
          dim {
            dim_value: 1
          }
          dim {
            dim_value: 256
          }
          dim {
            dim_value: 14
          }
          dim {
            dim_value: 14
          }
        }
      }
    }
  }
  value_info {
    name: "pkg.torch.2.2.0a0+git4ab5507::torch_nn_modules_batchnorm_BatchNorm2d_getattr_L__self___layer3___0___bn2_1/_native_batch_norm_legit_no_training_11_1"
    type {
      tensor_type {
        elem_type: 1
        shape {
          dim {
            dim_value: 0
          }
        }
      }
    }
  }
  value_info {
    name: "pkg.torch.2.2.0a0+git4ab5507::torch_nn_modules_batchnorm_BatchNorm2d_getattr_L__self___layer3___0___bn2_1/_native_batch_norm_legit_no_training_11_2"
    type {
      tensor_type {
        elem_type: 1
        shape {
          dim {
            dim_value: 0
          }
        }
      }
    }
  }
  value_info {
    name: "pkg.torch.2.2.0a0+git4ab5507::torch_nn_modules_conv_Conv2d_getattr_L__self___layer3___0___downsample_0_1/copy_8"
    type {
      tensor_type {
        elem_type: 1
        shape {
          dim {
            dim_value: 1
          }
          dim {
            dim_value: 128
          }
          dim {
            dim_value: 28
          }
          dim {
            dim_value: 28
          }
        }
      }
    }
  }
  value_info {
    name: "pkg.torch.2.2.0a0+git4ab5507::torch_nn_modules_conv_Conv2d_getattr_L__self___layer3___0___downsample_0_1/convolution_12"
    type {
      tensor_type {
        elem_type: 1
        shape {
          dim {
            dim_value: 1
          }
          dim {
            dim_value: 256
          }
          dim {
            dim_value: 14
          }
          dim {
            dim_value: 14
          }
        }
      }
    }
  }
  value_info {
    name: "pkg.torch.2.2.0a0+git4ab5507::torch_nn_modules_batchnorm_BatchNorm2d_getattr_L__self___layer3___0___downsample_1_1/convolution_12"
    type {
      tensor_type {
        elem_type: 1
        shape {
          dim {
            dim_value: 1
          }
          dim {
            dim_value: 256
          }
          dim {
            dim_value: 14
          }
          dim {
            dim_value: 14
          }
        }
      }
    }
  }
  value_info {
    name: "pkg.torch.2.2.0a0+git4ab5507::torch_nn_modules_batchnorm_BatchNorm2d_getattr_L__self___layer3___0___downsample_1_1/_native_batch_norm_legit_no_training_12"
    type {
      tensor_type {
        elem_type: 1
        shape {
          dim {
            dim_value: 1
          }
          dim {
            dim_value: 256
          }
          dim {
            dim_value: 14
          }
          dim {
            dim_value: 14
          }
        }
      }
    }
  }
  value_info {
    name: "pkg.torch.2.2.0a0+git4ab5507::torch_nn_modules_batchnorm_BatchNorm2d_getattr_L__self___layer3___0___downsample_1_1/_native_batch_norm_legit_no_training_12_1"
    type {
      tensor_type {
        elem_type: 1
        shape {
          dim {
            dim_value: 0
          }
        }
      }
    }
  }
  value_info {
    name: "pkg.torch.2.2.0a0+git4ab5507::torch_nn_modules_batchnorm_BatchNorm2d_getattr_L__self___layer3___0___downsample_1_1/_native_batch_norm_legit_no_training_12_2"
    type {
      tensor_type {
        elem_type: 1
        shape {
          dim {
            dim_value: 0
          }
        }
      }
    }
  }
  value_info {
    name: "pkg.torch.2.2.0a0+git4ab5507::torch_nn_modules_container_Sequential_getattr_L__self___layer3___0___downsample_1/copy_8"
    type {
      tensor_type {
        elem_type: 1
        shape {
          dim {
            dim_value: 1
          }
          dim {
            dim_value: 128
          }
          dim {
            dim_value: 28
          }
          dim {
            dim_value: 28
          }
        }
      }
    }
  }
  value_info {
    name: "pkg.torch.2.2.0a0+git4ab5507::torch_nn_modules_container_Sequential_getattr_L__self___layer3___0___downsample_1/getattr_l__self___layer3___0___downsample_0_1"
    type {
      tensor_type {
        elem_type: 1
        shape {
          dim {
            dim_value: 1
          }
          dim {
            dim_value: 256
          }
          dim {
            dim_value: 14
          }
          dim {
            dim_value: 14
          }
        }
      }
    }
  }
  value_info {
    name: "pkg.torch.2.2.0a0+git4ab5507::torch_nn_modules_container_Sequential_getattr_L__self___layer3___0___downsample_1/getattr_l__self___layer3___0___downsample_1_1"
    type {
      tensor_type {
        elem_type: 1
        shape {
          dim {
            dim_value: 1
          }
          dim {
            dim_value: 256
          }
          dim {
            dim_value: 14
          }
          dim {
            dim_value: 14
          }
        }
      }
    }
  }
  value_info {
    name: "pkg.torch.2.2.0a0+git4ab5507::torch_nn_modules_activation_ReLU_getattr_L__self___layer3___0___relu_2/add_4"
    type {
      tensor_type {
        elem_type: 1
        shape {
          dim {
            dim_value: 1
          }
          dim {
            dim_value: 256
          }
          dim {
            dim_value: 14
          }
          dim {
            dim_value: 14
          }
        }
      }
    }
  }
  value_info {
    name: "pkg.torch.2.2.0a0+git4ab5507::torch_nn_modules_activation_ReLU_getattr_L__self___layer3___0___relu_2/relu_10"
    type {
      tensor_type {
        elem_type: 1
        shape {
          dim {
            dim_value: 1
          }
          dim {
            dim_value: 256
          }
          dim {
            dim_value: 14
          }
          dim {
            dim_value: 14
          }
        }
      }
    }
  }
  value_info {
    name: "pkg.torch.2.2.0a0+git4ab5507::torch_nn_modules_activation_ReLU_getattr_L__self___layer3___0___relu_2/copy_10"
    type {
      tensor_type {
        elem_type: 1
        shape {
          dim {
            dim_value: 1
          }
          dim {
            dim_value: 256
          }
          dim {
            dim_value: 14
          }
          dim {
            dim_value: 14
          }
        }
      }
    }
  }
  value_info {
    name: "pkg.torchvision.0.16.0a0+0370134::torchvision_models_resnet_BasicBlock_layer3_0_1/copy_8"
    type {
      tensor_type {
        elem_type: 1
        shape {
          dim {
            dim_value: 1
          }
          dim {
            dim_value: 128
          }
          dim {
            dim_value: 28
          }
          dim {
            dim_value: 28
          }
        }
      }
    }
  }
  value_info {
    name: "pkg.torchvision.0.16.0a0+0370134::torchvision_models_resnet_BasicBlock_layer3_0_1/getattr_l__self___layer3___0___conv1_1"
    type {
      tensor_type {
        elem_type: 1
        shape {
          dim {
            dim_value: 1
          }
          dim {
            dim_value: 256
          }
          dim {
            dim_value: 14
          }
          dim {
            dim_value: 14
          }
        }
      }
    }
  }
  value_info {
    name: "pkg.torchvision.0.16.0a0+0370134::torchvision_models_resnet_BasicBlock_layer3_0_1/getattr_l__self___layer3___0___bn1_1"
    type {
      tensor_type {
        elem_type: 1
        shape {
          dim {
            dim_value: 1
          }
          dim {
            dim_value: 256
          }
          dim {
            dim_value: 14
          }
          dim {
            dim_value: 14
          }
        }
      }
    }
  }
  value_info {
    name: "pkg.torchvision.0.16.0a0+0370134::torchvision_models_resnet_BasicBlock_layer3_0_1/getattr_l__self___layer3___0___relu_1"
    type {
      tensor_type {
        elem_type: 1
        shape {
          dim {
            dim_value: 1
          }
          dim {
            dim_value: 256
          }
          dim {
            dim_value: 14
          }
          dim {
            dim_value: 14
          }
        }
      }
    }
  }
  value_info {
    name: "pkg.torchvision.0.16.0a0+0370134::torchvision_models_resnet_BasicBlock_layer3_0_1/getattr_l__self___layer3___0___conv2_1"
    type {
      tensor_type {
        elem_type: 1
        shape {
          dim {
            dim_value: 1
          }
          dim {
            dim_value: 256
          }
          dim {
            dim_value: 14
          }
          dim {
            dim_value: 14
          }
        }
      }
    }
  }
  value_info {
    name: "pkg.torchvision.0.16.0a0+0370134::torchvision_models_resnet_BasicBlock_layer3_0_1/getattr_l__self___layer3___0___bn2_1"
    type {
      tensor_type {
        elem_type: 1
        shape {
          dim {
            dim_value: 1
          }
          dim {
            dim_value: 256
          }
          dim {
            dim_value: 14
          }
          dim {
            dim_value: 14
          }
        }
      }
    }
  }
  value_info {
    name: "pkg.torchvision.0.16.0a0+0370134::torchvision_models_resnet_BasicBlock_layer3_0_1/getattr_l__self___layer3___0___downsample_1"
    type {
      tensor_type {
        elem_type: 1
        shape {
          dim {
            dim_value: 1
          }
          dim {
            dim_value: 256
          }
          dim {
            dim_value: 14
          }
          dim {
            dim_value: 14
          }
        }
      }
    }
  }
  value_info {
    name: "pkg.torchvision.0.16.0a0+0370134::torchvision_models_resnet_BasicBlock_layer3_0_1/add_4"
    type {
      tensor_type {
        elem_type: 1
        shape {
          dim {
            dim_value: 1
          }
          dim {
            dim_value: 256
          }
          dim {
            dim_value: 14
          }
          dim {
            dim_value: 14
          }
        }
      }
    }
  }
  value_info {
    name: "pkg.torchvision.0.16.0a0+0370134::torchvision_models_resnet_BasicBlock_layer3_0_1/getattr_l__self___layer3___0___relu_2"
    type {
      tensor_type {
        elem_type: 1
        shape {
          dim {
            dim_value: 1
          }
          dim {
            dim_value: 256
          }
          dim {
            dim_value: 14
          }
          dim {
            dim_value: 14
          }
        }
      }
    }
  }
  value_info {
    name: "pkg.torch.2.2.0a0+git4ab5507::torch_nn_modules_conv_Conv2d_getattr_L__self___layer3___1___conv1_1/copy_10"
    type {
      tensor_type {
        elem_type: 1
        shape {
          dim {
            dim_value: 1
          }
          dim {
            dim_value: 256
          }
          dim {
            dim_value: 14
          }
          dim {
            dim_value: 14
          }
        }
      }
    }
  }
  value_info {
    name: "pkg.torch.2.2.0a0+git4ab5507::torch_nn_modules_conv_Conv2d_getattr_L__self___layer3___1___conv1_1/convolution_13"
    type {
      tensor_type {
        elem_type: 1
        shape {
          dim {
            dim_value: 1
          }
          dim {
            dim_value: 256
          }
          dim {
            dim_value: 14
          }
          dim {
            dim_value: 14
          }
        }
      }
    }
  }
  value_info {
    name: "pkg.torch.2.2.0a0+git4ab5507::torch_nn_modules_batchnorm_BatchNorm2d_getattr_L__self___layer3___1___bn1_1/convolution_13"
    type {
      tensor_type {
        elem_type: 1
        shape {
          dim {
            dim_value: 1
          }
          dim {
            dim_value: 256
          }
          dim {
            dim_value: 14
          }
          dim {
            dim_value: 14
          }
        }
      }
    }
  }
  value_info {
    name: "pkg.torch.2.2.0a0+git4ab5507::torch_nn_modules_batchnorm_BatchNorm2d_getattr_L__self___layer3___1___bn1_1/_native_batch_norm_legit_no_training_13"
    type {
      tensor_type {
        elem_type: 1
        shape {
          dim {
            dim_value: 1
          }
          dim {
            dim_value: 256
          }
          dim {
            dim_value: 14
          }
          dim {
            dim_value: 14
          }
        }
      }
    }
  }
  value_info {
    name: "pkg.torch.2.2.0a0+git4ab5507::torch_nn_modules_batchnorm_BatchNorm2d_getattr_L__self___layer3___1___bn1_1/_native_batch_norm_legit_no_training_13_1"
    type {
      tensor_type {
        elem_type: 1
        shape {
          dim {
            dim_value: 0
          }
        }
      }
    }
  }
  value_info {
    name: "pkg.torch.2.2.0a0+git4ab5507::torch_nn_modules_batchnorm_BatchNorm2d_getattr_L__self___layer3___1___bn1_1/_native_batch_norm_legit_no_training_13_2"
    type {
      tensor_type {
        elem_type: 1
        shape {
          dim {
            dim_value: 0
          }
        }
      }
    }
  }
  value_info {
    name: "pkg.torch.2.2.0a0+git4ab5507::torch_nn_modules_activation_ReLU_getattr_L__self___layer3___1___relu_1/getitem_41"
    type {
      tensor_type {
        elem_type: 1
        shape {
          dim {
            dim_value: 1
          }
          dim {
            dim_value: 256
          }
          dim {
            dim_value: 14
          }
          dim {
            dim_value: 14
          }
        }
      }
    }
  }
  value_info {
    name: "pkg.torch.2.2.0a0+git4ab5507::torch_nn_modules_activation_ReLU_getattr_L__self___layer3___1___relu_1/relu_11"
    type {
      tensor_type {
        elem_type: 1
        shape {
          dim {
            dim_value: 1
          }
          dim {
            dim_value: 256
          }
          dim {
            dim_value: 14
          }
          dim {
            dim_value: 14
          }
        }
      }
    }
  }
  value_info {
    name: "pkg.torch.2.2.0a0+git4ab5507::torch_nn_modules_activation_ReLU_getattr_L__self___layer3___1___relu_1/copy_11"
    type {
      tensor_type {
        elem_type: 1
        shape {
          dim {
            dim_value: 1
          }
          dim {
            dim_value: 256
          }
          dim {
            dim_value: 14
          }
          dim {
            dim_value: 14
          }
        }
      }
    }
  }
  value_info {
    name: "pkg.torch.2.2.0a0+git4ab5507::torch_nn_modules_conv_Conv2d_getattr_L__self___layer3___1___conv2_1/copy_11"
    type {
      tensor_type {
        elem_type: 1
        shape {
          dim {
            dim_value: 1
          }
          dim {
            dim_value: 256
          }
          dim {
            dim_value: 14
          }
          dim {
            dim_value: 14
          }
        }
      }
    }
  }
  value_info {
    name: "pkg.torch.2.2.0a0+git4ab5507::torch_nn_modules_conv_Conv2d_getattr_L__self___layer3___1___conv2_1/convolution_14"
    type {
      tensor_type {
        elem_type: 1
        shape {
          dim {
            dim_value: 1
          }
          dim {
            dim_value: 256
          }
          dim {
            dim_value: 14
          }
          dim {
            dim_value: 14
          }
        }
      }
    }
  }
  value_info {
    name: "pkg.torch.2.2.0a0+git4ab5507::torch_nn_modules_batchnorm_BatchNorm2d_getattr_L__self___layer3___1___bn2_1/convolution_14"
    type {
      tensor_type {
        elem_type: 1
        shape {
          dim {
            dim_value: 1
          }
          dim {
            dim_value: 256
          }
          dim {
            dim_value: 14
          }
          dim {
            dim_value: 14
          }
        }
      }
    }
  }
  value_info {
    name: "pkg.torch.2.2.0a0+git4ab5507::torch_nn_modules_batchnorm_BatchNorm2d_getattr_L__self___layer3___1___bn2_1/_native_batch_norm_legit_no_training_14"
    type {
      tensor_type {
        elem_type: 1
        shape {
          dim {
            dim_value: 1
          }
          dim {
            dim_value: 256
          }
          dim {
            dim_value: 14
          }
          dim {
            dim_value: 14
          }
        }
      }
    }
  }
  value_info {
    name: "pkg.torch.2.2.0a0+git4ab5507::torch_nn_modules_batchnorm_BatchNorm2d_getattr_L__self___layer3___1___bn2_1/_native_batch_norm_legit_no_training_14_1"
    type {
      tensor_type {
        elem_type: 1
        shape {
          dim {
            dim_value: 0
          }
        }
      }
    }
  }
  value_info {
    name: "pkg.torch.2.2.0a0+git4ab5507::torch_nn_modules_batchnorm_BatchNorm2d_getattr_L__self___layer3___1___bn2_1/_native_batch_norm_legit_no_training_14_2"
    type {
      tensor_type {
        elem_type: 1
        shape {
          dim {
            dim_value: 0
          }
        }
      }
    }
  }
  value_info {
    name: "pkg.torch.2.2.0a0+git4ab5507::torch_nn_modules_activation_ReLU_getattr_L__self___layer3___1___relu_2/add_5"
    type {
      tensor_type {
        elem_type: 1
        shape {
          dim {
            dim_value: 1
          }
          dim {
            dim_value: 256
          }
          dim {
            dim_value: 14
          }
          dim {
            dim_value: 14
          }
        }
      }
    }
  }
  value_info {
    name: "pkg.torch.2.2.0a0+git4ab5507::torch_nn_modules_activation_ReLU_getattr_L__self___layer3___1___relu_2/relu_12"
    type {
      tensor_type {
        elem_type: 1
        shape {
          dim {
            dim_value: 1
          }
          dim {
            dim_value: 256
          }
          dim {
            dim_value: 14
          }
          dim {
            dim_value: 14
          }
        }
      }
    }
  }
  value_info {
    name: "pkg.torch.2.2.0a0+git4ab5507::torch_nn_modules_activation_ReLU_getattr_L__self___layer3___1___relu_2/copy_12"
    type {
      tensor_type {
        elem_type: 1
        shape {
          dim {
            dim_value: 1
          }
          dim {
            dim_value: 256
          }
          dim {
            dim_value: 14
          }
          dim {
            dim_value: 14
          }
        }
      }
    }
  }
  value_info {
    name: "pkg.torchvision.0.16.0a0+0370134::torchvision_models_resnet_BasicBlock_layer3_1_1/copy_10"
    type {
      tensor_type {
        elem_type: 1
        shape {
          dim {
            dim_value: 1
          }
          dim {
            dim_value: 256
          }
          dim {
            dim_value: 14
          }
          dim {
            dim_value: 14
          }
        }
      }
    }
  }
  value_info {
    name: "pkg.torchvision.0.16.0a0+0370134::torchvision_models_resnet_BasicBlock_layer3_1_1/getattr_l__self___layer3___1___conv1_1"
    type {
      tensor_type {
        elem_type: 1
        shape {
          dim {
            dim_value: 1
          }
          dim {
            dim_value: 256
          }
          dim {
            dim_value: 14
          }
          dim {
            dim_value: 14
          }
        }
      }
    }
  }
  value_info {
    name: "pkg.torchvision.0.16.0a0+0370134::torchvision_models_resnet_BasicBlock_layer3_1_1/getattr_l__self___layer3___1___bn1_1"
    type {
      tensor_type {
        elem_type: 1
        shape {
          dim {
            dim_value: 1
          }
          dim {
            dim_value: 256
          }
          dim {
            dim_value: 14
          }
          dim {
            dim_value: 14
          }
        }
      }
    }
  }
  value_info {
    name: "pkg.torchvision.0.16.0a0+0370134::torchvision_models_resnet_BasicBlock_layer3_1_1/getattr_l__self___layer3___1___relu_1"
    type {
      tensor_type {
        elem_type: 1
        shape {
          dim {
            dim_value: 1
          }
          dim {
            dim_value: 256
          }
          dim {
            dim_value: 14
          }
          dim {
            dim_value: 14
          }
        }
      }
    }
  }
  value_info {
    name: "pkg.torchvision.0.16.0a0+0370134::torchvision_models_resnet_BasicBlock_layer3_1_1/getattr_l__self___layer3___1___conv2_1"
    type {
      tensor_type {
        elem_type: 1
        shape {
          dim {
            dim_value: 1
          }
          dim {
            dim_value: 256
          }
          dim {
            dim_value: 14
          }
          dim {
            dim_value: 14
          }
        }
      }
    }
  }
  value_info {
    name: "pkg.torchvision.0.16.0a0+0370134::torchvision_models_resnet_BasicBlock_layer3_1_1/getattr_l__self___layer3___1___bn2_1"
    type {
      tensor_type {
        elem_type: 1
        shape {
          dim {
            dim_value: 1
          }
          dim {
            dim_value: 256
          }
          dim {
            dim_value: 14
          }
          dim {
            dim_value: 14
          }
        }
      }
    }
  }
  value_info {
    name: "pkg.torchvision.0.16.0a0+0370134::torchvision_models_resnet_BasicBlock_layer3_1_1/add_5"
    type {
      tensor_type {
        elem_type: 1
        shape {
          dim {
            dim_value: 1
          }
          dim {
            dim_value: 256
          }
          dim {
            dim_value: 14
          }
          dim {
            dim_value: 14
          }
        }
      }
    }
  }
  value_info {
    name: "pkg.torchvision.0.16.0a0+0370134::torchvision_models_resnet_BasicBlock_layer3_1_1/getattr_l__self___layer3___1___relu_2"
    type {
      tensor_type {
        elem_type: 1
        shape {
          dim {
            dim_value: 1
          }
          dim {
            dim_value: 256
          }
          dim {
            dim_value: 14
          }
          dim {
            dim_value: 14
          }
        }
      }
    }
  }
  value_info {
    name: "pkg.torch.2.2.0a0+git4ab5507::torch_nn_modules_container_Sequential_layer3_1/copy_8"
    type {
      tensor_type {
        elem_type: 1
        shape {
          dim {
            dim_value: 1
          }
          dim {
            dim_value: 128
          }
          dim {
            dim_value: 28
          }
          dim {
            dim_value: 28
          }
        }
      }
    }
  }
  value_info {
    name: "pkg.torch.2.2.0a0+git4ab5507::torch_nn_modules_container_Sequential_layer3_1/layer3_0_1"
    type {
      tensor_type {
        elem_type: 1
        shape {
          dim {
            dim_value: 1
          }
          dim {
            dim_value: 256
          }
          dim {
            dim_value: 14
          }
          dim {
            dim_value: 14
          }
        }
      }
    }
  }
  value_info {
    name: "pkg.torch.2.2.0a0+git4ab5507::torch_nn_modules_container_Sequential_layer3_1/layer3_1_1"
    type {
      tensor_type {
        elem_type: 1
        shape {
          dim {
            dim_value: 1
          }
          dim {
            dim_value: 256
          }
          dim {
            dim_value: 14
          }
          dim {
            dim_value: 14
          }
        }
      }
    }
  }
  value_info {
    name: "pkg.torch.2.2.0a0+git4ab5507::torch_nn_modules_conv_Conv2d_getattr_L__self___layer4___0___conv1_1/copy_12"
    type {
      tensor_type {
        elem_type: 1
        shape {
          dim {
            dim_value: 1
          }
          dim {
            dim_value: 256
          }
          dim {
            dim_value: 14
          }
          dim {
            dim_value: 14
          }
        }
      }
    }
  }
  value_info {
    name: "pkg.torch.2.2.0a0+git4ab5507::torch_nn_modules_conv_Conv2d_getattr_L__self___layer4___0___conv1_1/convolution_15"
    type {
      tensor_type {
        elem_type: 1
        shape {
          dim {
            dim_value: 1
          }
          dim {
            dim_value: 512
          }
          dim {
            dim_value: 7
          }
          dim {
            dim_value: 7
          }
        }
      }
    }
  }
  value_info {
    name: "pkg.torch.2.2.0a0+git4ab5507::torch_nn_modules_batchnorm_BatchNorm2d_getattr_L__self___layer4___0___bn1_1/convolution_15"
    type {
      tensor_type {
        elem_type: 1
        shape {
          dim {
            dim_value: 1
          }
          dim {
            dim_value: 512
          }
          dim {
            dim_value: 7
          }
          dim {
            dim_value: 7
          }
        }
      }
    }
  }
  value_info {
    name: "pkg.torch.2.2.0a0+git4ab5507::torch_nn_modules_batchnorm_BatchNorm2d_getattr_L__self___layer4___0___bn1_1/_native_batch_norm_legit_no_training_15"
    type {
      tensor_type {
        elem_type: 1
        shape {
          dim {
            dim_value: 1
          }
          dim {
            dim_value: 512
          }
          dim {
            dim_value: 7
          }
          dim {
            dim_value: 7
          }
        }
      }
    }
  }
  value_info {
    name: "pkg.torch.2.2.0a0+git4ab5507::torch_nn_modules_batchnorm_BatchNorm2d_getattr_L__self___layer4___0___bn1_1/_native_batch_norm_legit_no_training_15_1"
    type {
      tensor_type {
        elem_type: 1
        shape {
          dim {
            dim_value: 0
          }
        }
      }
    }
  }
  value_info {
    name: "pkg.torch.2.2.0a0+git4ab5507::torch_nn_modules_batchnorm_BatchNorm2d_getattr_L__self___layer4___0___bn1_1/_native_batch_norm_legit_no_training_15_2"
    type {
      tensor_type {
        elem_type: 1
        shape {
          dim {
            dim_value: 0
          }
        }
      }
    }
  }
  value_info {
    name: "pkg.torch.2.2.0a0+git4ab5507::torch_nn_modules_activation_ReLU_getattr_L__self___layer4___0___relu_1/getitem_47"
    type {
      tensor_type {
        elem_type: 1
        shape {
          dim {
            dim_value: 1
          }
          dim {
            dim_value: 512
          }
          dim {
            dim_value: 7
          }
          dim {
            dim_value: 7
          }
        }
      }
    }
  }
  value_info {
    name: "pkg.torch.2.2.0a0+git4ab5507::torch_nn_modules_activation_ReLU_getattr_L__self___layer4___0___relu_1/relu_13"
    type {
      tensor_type {
        elem_type: 1
        shape {
          dim {
            dim_value: 1
          }
          dim {
            dim_value: 512
          }
          dim {
            dim_value: 7
          }
          dim {
            dim_value: 7
          }
        }
      }
    }
  }
  value_info {
    name: "pkg.torch.2.2.0a0+git4ab5507::torch_nn_modules_activation_ReLU_getattr_L__self___layer4___0___relu_1/copy_13"
    type {
      tensor_type {
        elem_type: 1
        shape {
          dim {
            dim_value: 1
          }
          dim {
            dim_value: 512
          }
          dim {
            dim_value: 7
          }
          dim {
            dim_value: 7
          }
        }
      }
    }
  }
  value_info {
    name: "pkg.torch.2.2.0a0+git4ab5507::torch_nn_modules_conv_Conv2d_getattr_L__self___layer4___0___conv2_1/copy_13"
    type {
      tensor_type {
        elem_type: 1
        shape {
          dim {
            dim_value: 1
          }
          dim {
            dim_value: 512
          }
          dim {
            dim_value: 7
          }
          dim {
            dim_value: 7
          }
        }
      }
    }
  }
  value_info {
    name: "pkg.torch.2.2.0a0+git4ab5507::torch_nn_modules_conv_Conv2d_getattr_L__self___layer4___0___conv2_1/convolution_16"
    type {
      tensor_type {
        elem_type: 1
        shape {
          dim {
            dim_value: 1
          }
          dim {
            dim_value: 512
          }
          dim {
            dim_value: 7
          }
          dim {
            dim_value: 7
          }
        }
      }
    }
  }
  value_info {
    name: "pkg.torch.2.2.0a0+git4ab5507::torch_nn_modules_batchnorm_BatchNorm2d_getattr_L__self___layer4___0___bn2_1/convolution_16"
    type {
      tensor_type {
        elem_type: 1
        shape {
          dim {
            dim_value: 1
          }
          dim {
            dim_value: 512
          }
          dim {
            dim_value: 7
          }
          dim {
            dim_value: 7
          }
        }
      }
    }
  }
  value_info {
    name: "pkg.torch.2.2.0a0+git4ab5507::torch_nn_modules_batchnorm_BatchNorm2d_getattr_L__self___layer4___0___bn2_1/_native_batch_norm_legit_no_training_16"
    type {
      tensor_type {
        elem_type: 1
        shape {
          dim {
            dim_value: 1
          }
          dim {
            dim_value: 512
          }
          dim {
            dim_value: 7
          }
          dim {
            dim_value: 7
          }
        }
      }
    }
  }
  value_info {
    name: "pkg.torch.2.2.0a0+git4ab5507::torch_nn_modules_batchnorm_BatchNorm2d_getattr_L__self___layer4___0___bn2_1/_native_batch_norm_legit_no_training_16_1"
    type {
      tensor_type {
        elem_type: 1
        shape {
          dim {
            dim_value: 0
          }
        }
      }
    }
  }
  value_info {
    name: "pkg.torch.2.2.0a0+git4ab5507::torch_nn_modules_batchnorm_BatchNorm2d_getattr_L__self___layer4___0___bn2_1/_native_batch_norm_legit_no_training_16_2"
    type {
      tensor_type {
        elem_type: 1
        shape {
          dim {
            dim_value: 0
          }
        }
      }
    }
  }
  value_info {
    name: "pkg.torch.2.2.0a0+git4ab5507::torch_nn_modules_conv_Conv2d_getattr_L__self___layer4___0___downsample_0_1/copy_12"
    type {
      tensor_type {
        elem_type: 1
        shape {
          dim {
            dim_value: 1
          }
          dim {
            dim_value: 256
          }
          dim {
            dim_value: 14
          }
          dim {
            dim_value: 14
          }
        }
      }
    }
  }
  value_info {
    name: "pkg.torch.2.2.0a0+git4ab5507::torch_nn_modules_conv_Conv2d_getattr_L__self___layer4___0___downsample_0_1/convolution_17"
    type {
      tensor_type {
        elem_type: 1
        shape {
          dim {
            dim_value: 1
          }
          dim {
            dim_value: 512
          }
          dim {
            dim_value: 7
          }
          dim {
            dim_value: 7
          }
        }
      }
    }
  }
  value_info {
    name: "pkg.torch.2.2.0a0+git4ab5507::torch_nn_modules_batchnorm_BatchNorm2d_getattr_L__self___layer4___0___downsample_1_1/convolution_17"
    type {
      tensor_type {
        elem_type: 1
        shape {
          dim {
            dim_value: 1
          }
          dim {
            dim_value: 512
          }
          dim {
            dim_value: 7
          }
          dim {
            dim_value: 7
          }
        }
      }
    }
  }
  value_info {
    name: "pkg.torch.2.2.0a0+git4ab5507::torch_nn_modules_batchnorm_BatchNorm2d_getattr_L__self___layer4___0___downsample_1_1/_native_batch_norm_legit_no_training_17"
    type {
      tensor_type {
        elem_type: 1
        shape {
          dim {
            dim_value: 1
          }
          dim {
            dim_value: 512
          }
          dim {
            dim_value: 7
          }
          dim {
            dim_value: 7
          }
        }
      }
    }
  }
  value_info {
    name: "pkg.torch.2.2.0a0+git4ab5507::torch_nn_modules_batchnorm_BatchNorm2d_getattr_L__self___layer4___0___downsample_1_1/_native_batch_norm_legit_no_training_17_1"
    type {
      tensor_type {
        elem_type: 1
        shape {
          dim {
            dim_value: 0
          }
        }
      }
    }
  }
  value_info {
    name: "pkg.torch.2.2.0a0+git4ab5507::torch_nn_modules_batchnorm_BatchNorm2d_getattr_L__self___layer4___0___downsample_1_1/_native_batch_norm_legit_no_training_17_2"
    type {
      tensor_type {
        elem_type: 1
        shape {
          dim {
            dim_value: 0
          }
        }
      }
    }
  }
  value_info {
    name: "pkg.torch.2.2.0a0+git4ab5507::torch_nn_modules_container_Sequential_getattr_L__self___layer4___0___downsample_1/copy_12"
    type {
      tensor_type {
        elem_type: 1
        shape {
          dim {
            dim_value: 1
          }
          dim {
            dim_value: 256
          }
          dim {
            dim_value: 14
          }
          dim {
            dim_value: 14
          }
        }
      }
    }
  }
  value_info {
    name: "pkg.torch.2.2.0a0+git4ab5507::torch_nn_modules_container_Sequential_getattr_L__self___layer4___0___downsample_1/getattr_l__self___layer4___0___downsample_0_1"
    type {
      tensor_type {
        elem_type: 1
        shape {
          dim {
            dim_value: 1
          }
          dim {
            dim_value: 512
          }
          dim {
            dim_value: 7
          }
          dim {
            dim_value: 7
          }
        }
      }
    }
  }
  value_info {
    name: "pkg.torch.2.2.0a0+git4ab5507::torch_nn_modules_container_Sequential_getattr_L__self___layer4___0___downsample_1/getattr_l__self___layer4___0___downsample_1_1"
    type {
      tensor_type {
        elem_type: 1
        shape {
          dim {
            dim_value: 1
          }
          dim {
            dim_value: 512
          }
          dim {
            dim_value: 7
          }
          dim {
            dim_value: 7
          }
        }
      }
    }
  }
  value_info {
    name: "pkg.torch.2.2.0a0+git4ab5507::torch_nn_modules_activation_ReLU_getattr_L__self___layer4___0___relu_2/add_6"
    type {
      tensor_type {
        elem_type: 1
        shape {
          dim {
            dim_value: 1
          }
          dim {
            dim_value: 512
          }
          dim {
            dim_value: 7
          }
          dim {
            dim_value: 7
          }
        }
      }
    }
  }
  value_info {
    name: "pkg.torch.2.2.0a0+git4ab5507::torch_nn_modules_activation_ReLU_getattr_L__self___layer4___0___relu_2/relu_14"
    type {
      tensor_type {
        elem_type: 1
        shape {
          dim {
            dim_value: 1
          }
          dim {
            dim_value: 512
          }
          dim {
            dim_value: 7
          }
          dim {
            dim_value: 7
          }
        }
      }
    }
  }
  value_info {
    name: "pkg.torch.2.2.0a0+git4ab5507::torch_nn_modules_activation_ReLU_getattr_L__self___layer4___0___relu_2/copy_14"
    type {
      tensor_type {
        elem_type: 1
        shape {
          dim {
            dim_value: 1
          }
          dim {
            dim_value: 512
          }
          dim {
            dim_value: 7
          }
          dim {
            dim_value: 7
          }
        }
      }
    }
  }
  value_info {
    name: "pkg.torchvision.0.16.0a0+0370134::torchvision_models_resnet_BasicBlock_layer4_0_1/copy_12"
    type {
      tensor_type {
        elem_type: 1
        shape {
          dim {
            dim_value: 1
          }
          dim {
            dim_value: 256
          }
          dim {
            dim_value: 14
          }
          dim {
            dim_value: 14
          }
        }
      }
    }
  }
  value_info {
    name: "pkg.torchvision.0.16.0a0+0370134::torchvision_models_resnet_BasicBlock_layer4_0_1/getattr_l__self___layer4___0___conv1_1"
    type {
      tensor_type {
        elem_type: 1
        shape {
          dim {
            dim_value: 1
          }
          dim {
            dim_value: 512
          }
          dim {
            dim_value: 7
          }
          dim {
            dim_value: 7
          }
        }
      }
    }
  }
  value_info {
    name: "pkg.torchvision.0.16.0a0+0370134::torchvision_models_resnet_BasicBlock_layer4_0_1/getattr_l__self___layer4___0___bn1_1"
    type {
      tensor_type {
        elem_type: 1
        shape {
          dim {
            dim_value: 1
          }
          dim {
            dim_value: 512
          }
          dim {
            dim_value: 7
          }
          dim {
            dim_value: 7
          }
        }
      }
    }
  }
  value_info {
    name: "pkg.torchvision.0.16.0a0+0370134::torchvision_models_resnet_BasicBlock_layer4_0_1/getattr_l__self___layer4___0___relu_1"
    type {
      tensor_type {
        elem_type: 1
        shape {
          dim {
            dim_value: 1
          }
          dim {
            dim_value: 512
          }
          dim {
            dim_value: 7
          }
          dim {
            dim_value: 7
          }
        }
      }
    }
  }
  value_info {
    name: "pkg.torchvision.0.16.0a0+0370134::torchvision_models_resnet_BasicBlock_layer4_0_1/getattr_l__self___layer4___0___conv2_1"
    type {
      tensor_type {
        elem_type: 1
        shape {
          dim {
            dim_value: 1
          }
          dim {
            dim_value: 512
          }
          dim {
            dim_value: 7
          }
          dim {
            dim_value: 7
          }
        }
      }
    }
  }
  value_info {
    name: "pkg.torchvision.0.16.0a0+0370134::torchvision_models_resnet_BasicBlock_layer4_0_1/getattr_l__self___layer4___0___bn2_1"
    type {
      tensor_type {
        elem_type: 1
        shape {
          dim {
            dim_value: 1
          }
          dim {
            dim_value: 512
          }
          dim {
            dim_value: 7
          }
          dim {
            dim_value: 7
          }
        }
      }
    }
  }
  value_info {
    name: "pkg.torchvision.0.16.0a0+0370134::torchvision_models_resnet_BasicBlock_layer4_0_1/getattr_l__self___layer4___0___downsample_1"
    type {
      tensor_type {
        elem_type: 1
        shape {
          dim {
            dim_value: 1
          }
          dim {
            dim_value: 512
          }
          dim {
            dim_value: 7
          }
          dim {
            dim_value: 7
          }
        }
      }
    }
  }
  value_info {
    name: "pkg.torchvision.0.16.0a0+0370134::torchvision_models_resnet_BasicBlock_layer4_0_1/add_6"
    type {
      tensor_type {
        elem_type: 1
        shape {
          dim {
            dim_value: 1
          }
          dim {
            dim_value: 512
          }
          dim {
            dim_value: 7
          }
          dim {
            dim_value: 7
          }
        }
      }
    }
  }
  value_info {
    name: "pkg.torchvision.0.16.0a0+0370134::torchvision_models_resnet_BasicBlock_layer4_0_1/getattr_l__self___layer4___0___relu_2"
    type {
      tensor_type {
        elem_type: 1
        shape {
          dim {
            dim_value: 1
          }
          dim {
            dim_value: 512
          }
          dim {
            dim_value: 7
          }
          dim {
            dim_value: 7
          }
        }
      }
    }
  }
  value_info {
    name: "pkg.torch.2.2.0a0+git4ab5507::torch_nn_modules_conv_Conv2d_getattr_L__self___layer4___1___conv1_1/copy_14"
    type {
      tensor_type {
        elem_type: 1
        shape {
          dim {
            dim_value: 1
          }
          dim {
            dim_value: 512
          }
          dim {
            dim_value: 7
          }
          dim {
            dim_value: 7
          }
        }
      }
    }
  }
  value_info {
    name: "pkg.torch.2.2.0a0+git4ab5507::torch_nn_modules_conv_Conv2d_getattr_L__self___layer4___1___conv1_1/convolution_18"
    type {
      tensor_type {
        elem_type: 1
        shape {
          dim {
            dim_value: 1
          }
          dim {
            dim_value: 512
          }
          dim {
            dim_value: 7
          }
          dim {
            dim_value: 7
          }
        }
      }
    }
  }
  value_info {
    name: "pkg.torch.2.2.0a0+git4ab5507::torch_nn_modules_batchnorm_BatchNorm2d_getattr_L__self___layer4___1___bn1_1/convolution_18"
    type {
      tensor_type {
        elem_type: 1
        shape {
          dim {
            dim_value: 1
          }
          dim {
            dim_value: 512
          }
          dim {
            dim_value: 7
          }
          dim {
            dim_value: 7
          }
        }
      }
    }
  }
  value_info {
    name: "pkg.torch.2.2.0a0+git4ab5507::torch_nn_modules_batchnorm_BatchNorm2d_getattr_L__self___layer4___1___bn1_1/_native_batch_norm_legit_no_training_18"
    type {
      tensor_type {
        elem_type: 1
        shape {
          dim {
            dim_value: 1
          }
          dim {
            dim_value: 512
          }
          dim {
            dim_value: 7
          }
          dim {
            dim_value: 7
          }
        }
      }
    }
  }
  value_info {
    name: "pkg.torch.2.2.0a0+git4ab5507::torch_nn_modules_batchnorm_BatchNorm2d_getattr_L__self___layer4___1___bn1_1/_native_batch_norm_legit_no_training_18_1"
    type {
      tensor_type {
        elem_type: 1
        shape {
          dim {
            dim_value: 0
          }
        }
      }
    }
  }
  value_info {
    name: "pkg.torch.2.2.0a0+git4ab5507::torch_nn_modules_batchnorm_BatchNorm2d_getattr_L__self___layer4___1___bn1_1/_native_batch_norm_legit_no_training_18_2"
    type {
      tensor_type {
        elem_type: 1
        shape {
          dim {
            dim_value: 0
          }
        }
      }
    }
  }
  value_info {
    name: "pkg.torch.2.2.0a0+git4ab5507::torch_nn_modules_activation_ReLU_getattr_L__self___layer4___1___relu_1/getitem_56"
    type {
      tensor_type {
        elem_type: 1
        shape {
          dim {
            dim_value: 1
          }
          dim {
            dim_value: 512
          }
          dim {
            dim_value: 7
          }
          dim {
            dim_value: 7
          }
        }
      }
    }
  }
  value_info {
    name: "pkg.torch.2.2.0a0+git4ab5507::torch_nn_modules_activation_ReLU_getattr_L__self___layer4___1___relu_1/relu_15"
    type {
      tensor_type {
        elem_type: 1
        shape {
          dim {
            dim_value: 1
          }
          dim {
            dim_value: 512
          }
          dim {
            dim_value: 7
          }
          dim {
            dim_value: 7
          }
        }
      }
    }
  }
  value_info {
    name: "pkg.torch.2.2.0a0+git4ab5507::torch_nn_modules_activation_ReLU_getattr_L__self___layer4___1___relu_1/copy_15"
    type {
      tensor_type {
        elem_type: 1
        shape {
          dim {
            dim_value: 1
          }
          dim {
            dim_value: 512
          }
          dim {
            dim_value: 7
          }
          dim {
…
      ints: 1
      ints: 1
      type: INTS
    }
    attribute {
      name: "strides"
      ints: 1
      ints: 1
      type: INTS
    }
    domain: "pkg.onnxscript.torch_lib"
  }
  opset_import {
    domain: ""
    version: 18
  }
  opset_import {
    domain: "pkg.onnxscript.torch_lib"
    version: 1
  }
  domain: "pkg.torch.2.2.0a0+git4ab5507"
}
functions {
  name: "torch_nn_modules_batchnorm_BatchNorm2d_getattr_L__self___layer3___1___bn2_1"
  input: "convolution_14"
  input: "layer3.1.bn2.weight"
  input: "layer3.1.bn2.bias"
  input: "layer3.1.bn2.running_mean"
  input: "layer3.1.bn2.running_var"
  output: "_native_batch_norm_legit_no_training_14"
  node {
    output: "_val_5"
    name: "Constant_0"
    op_type: "Constant"
    attribute {
      name: "value_ints"
      ints: 0
      ints: 2
      ints: 3
      type: INTS
    }
  }
  node {
    input: "convolution_14"
    input: "layer3.1.bn2.weight"
    input: "layer3.1.bn2.bias"
    input: "layer3.1.bn2.running_mean"
    input: "layer3.1.bn2.running_var"
    output: "_native_batch_norm_legit_no_training_14"
    output: "_native_batch_norm_legit_no_training_14_1"
    output: "_native_batch_norm_legit_no_training_14_2"
    name: "_aten_native_batch_norm_inference_onnx_1"
    op_type: "_aten_native_batch_norm_inference_onnx"
    attribute {
      name: "eps"
      f: 1e-05
      type: FLOAT
    }
    attribute {
      name: "momentum"
      f: 0.1
      type: FLOAT
    }
    attribute {
      name: "training"
      i: 0
      type: INT
    }
    domain: "pkg.onnxscript.torch_lib"
  }
  opset_import {
    domain: ""
    version: 18
  }
  opset_import {
    domain: "pkg.onnxscript.torch_lib"
    version: 1
  }
  domain: "pkg.torch.2.2.0a0+git4ab5507"
}
functions {
  name: "torch_nn_modules_activation_ReLU_getattr_L__self___layer3___1___relu_2"
  input: "add_5"
  output: "copy_12"
  node {
    input: "add_5"
    output: "relu_12"
    name: "aten_relu_0"
    op_type: "aten_relu"
    domain: "pkg.onnxscript.torch_lib"
  }
  node {
    input: "add_5"
    input: "relu_12"
    output: "copy_12"
    name: "aten_copy_1"
    op_type: "aten_copy"
    attribute {
      name: "non_blocking"
      i: 0
      type: INT
    }
    domain: "pkg.onnxscript.torch_lib"
  }
  opset_import {
    domain: ""
    version: 18
  }
  opset_import {
    domain: "pkg.onnxscript.torch_lib"
    version: 1
  }
  domain: "pkg.torch.2.2.0a0+git4ab5507"
}
functions {
  name: "torchvision_models_resnet_BasicBlock_layer3_1_1"
  input: "copy_10"
  input: "layer3.1.conv1.weight"
  input: "layer3.1.bn1.weight"
  input: "layer3.1.bn1.bias"
  input: "layer3.1.bn1.running_mean"
  input: "layer3.1.bn1.running_var"
  input: "layer3.1.conv2.weight"
  input: "layer3.1.bn2.weight"
  input: "layer3.1.bn2.bias"
  input: "layer3.1.bn2.running_mean"
  input: "layer3.1.bn2.running_var"
  output: "getattr_l__self___layer3___1___relu_2"
  node {
    input: "copy_10"
    input: "layer3.1.conv1.weight"
    output: "getattr_l__self___layer3___1___conv1_1"
    name: "torch_nn_modules_conv_Conv2d_getattr_L__self___layer3___1___conv1_1_0"
    op_type: "torch_nn_modules_conv_Conv2d_getattr_L__self___layer3___1___conv1_1"
    domain: "pkg.torch.2.2.0a0+git4ab5507"
  }
  node {
    input: "getattr_l__self___layer3___1___conv1_1"
    input: "layer3.1.bn1.weight"
    input: "layer3.1.bn1.bias"
    input: "layer3.1.bn1.running_mean"
    input: "layer3.1.bn1.running_var"
    output: "getattr_l__self___layer3___1___bn1_1"
    name: "torch_nn_modules_batchnorm_BatchNorm2d_getattr_L__self___layer3___1___bn1_1_1"
    op_type: "torch_nn_modules_batchnorm_BatchNorm2d_getattr_L__self___layer3___1___bn1_1"
    domain: "pkg.torch.2.2.0a0+git4ab5507"
  }
  node {
    input: "getattr_l__self___layer3___1___bn1_1"
    output: "getattr_l__self___layer3___1___relu_1"
    name: "torch_nn_modules_activation_ReLU_getattr_L__self___layer3___1___relu_1_2"
    op_type: "torch_nn_modules_activation_ReLU_getattr_L__self___layer3___1___relu_1"
    domain: "pkg.torch.2.2.0a0+git4ab5507"
  }
  node {
    input: "getattr_l__self___layer3___1___relu_1"
    input: "layer3.1.conv2.weight"
    output: "getattr_l__self___layer3___1___conv2_1"
    name: "torch_nn_modules_conv_Conv2d_getattr_L__self___layer3___1___conv2_1_3"
    op_type: "torch_nn_modules_conv_Conv2d_getattr_L__self___layer3___1___conv2_1"
    domain: "pkg.torch.2.2.0a0+git4ab5507"
  }
  node {
    input: "getattr_l__self___layer3___1___conv2_1"
    input: "layer3.1.bn2.weight"
    input: "layer3.1.bn2.bias"
    input: "layer3.1.bn2.running_mean"
    input: "layer3.1.bn2.running_var"
    output: "getattr_l__self___layer3___1___bn2_1"
    name: "torch_nn_modules_batchnorm_BatchNorm2d_getattr_L__self___layer3___1___bn2_1_4"
    op_type: "torch_nn_modules_batchnorm_BatchNorm2d_getattr_L__self___layer3___1___bn2_1"
    domain: "pkg.torch.2.2.0a0+git4ab5507"
  }
  node {
    input: "getattr_l__self___layer3___1___bn2_1"
    input: "copy_10"
    output: "add_5"
    name: "aten_add_5"
    op_type: "aten_add"
    attribute {
      name: "alpha"
      f: 1.0
      type: FLOAT
    }
    domain: "pkg.onnxscript.torch_lib"
  }
  node {
    input: "add_5"
    output: "getattr_l__self___layer3___1___relu_2"
    name: "torch_nn_modules_activation_ReLU_getattr_L__self___layer3___1___relu_2_6"
    op_type: "torch_nn_modules_activation_ReLU_getattr_L__self___layer3___1___relu_2"
    domain: "pkg.torch.2.2.0a0+git4ab5507"
  }
  opset_import {
    domain: ""
    version: 18
  }
  opset_import {
    domain: "pkg.onnxscript.torch_lib"
    version: 1
  }
  opset_import {
    domain: "pkg.torch.2.2.0a0+git4ab5507"
    version: 1
  }
  domain: "pkg.torchvision.0.16.0a0+0370134"
}
functions {
  name: "torch_nn_modules_container_Sequential_layer3_1"
  input: "copy_8"
  input: "layer3.0.conv1.weight"
  input: "layer3.0.bn1.weight"
  input: "layer3.0.bn1.bias"
  input: "layer3.0.bn1.running_mean"
  input: "layer3.0.bn1.running_var"
  input: "layer3.0.conv2.weight"
  input: "layer3.0.bn2.weight"
  input: "layer3.0.bn2.bias"
  input: "layer3.0.bn2.running_mean"
  input: "layer3.0.bn2.running_var"
  input: "layer3.0.downsample.0.weight"
  input: "layer3.0.downsample.1.weight"
  input: "layer3.0.downsample.1.bias"
  input: "layer3.0.downsample.1.running_mean"
  input: "layer3.0.downsample.1.running_var"
  input: "layer3.1.conv1.weight"
  input: "layer3.1.bn1.weight"
  input: "layer3.1.bn1.bias"
  input: "layer3.1.bn1.running_mean"
  input: "layer3.1.bn1.running_var"
  input: "layer3.1.conv2.weight"
  input: "layer3.1.bn2.weight"
  input: "layer3.1.bn2.bias"
  input: "layer3.1.bn2.running_mean"
  input: "layer3.1.bn2.running_var"
  output: "layer3_1_1"
  node {
    input: "copy_8"
    input: "layer3.0.conv1.weight"
    input: "layer3.0.bn1.weight"
    input: "layer3.0.bn1.bias"
    input: "layer3.0.bn1.running_mean"
    input: "layer3.0.bn1.running_var"
    input: "layer3.0.conv2.weight"
    input: "layer3.0.bn2.weight"
    input: "layer3.0.bn2.bias"
    input: "layer3.0.bn2.running_mean"
    input: "layer3.0.bn2.running_var"
    input: "layer3.0.downsample.0.weight"
    input: "layer3.0.downsample.1.weight"
    input: "layer3.0.downsample.1.bias"
    input: "layer3.0.downsample.1.running_mean"
    input: "layer3.0.downsample.1.running_var"
    output: "layer3_0_1"
    name: "torchvision_models_resnet_BasicBlock_layer3_0_1_0"
    op_type: "torchvision_models_resnet_BasicBlock_layer3_0_1"
    domain: "pkg.torchvision.0.16.0a0+0370134"
  }
  node {
    input: "layer3_0_1"
    input: "layer3.1.conv1.weight"
    input: "layer3.1.bn1.weight"
    input: "layer3.1.bn1.bias"
    input: "layer3.1.bn1.running_mean"
    input: "layer3.1.bn1.running_var"
    input: "layer3.1.conv2.weight"
    input: "layer3.1.bn2.weight"
    input: "layer3.1.bn2.bias"
    input: "layer3.1.bn2.running_mean"
    input: "layer3.1.bn2.running_var"
    output: "layer3_1_1"
    name: "torchvision_models_resnet_BasicBlock_layer3_1_1_1"
    op_type: "torchvision_models_resnet_BasicBlock_layer3_1_1"
    domain: "pkg.torchvision.0.16.0a0+0370134"
  }
  opset_import {
    domain: ""
    version: 18
  }
  opset_import {
    domain: "pkg.torchvision.0.16.0a0+0370134"
    version: 1
  }
  domain: "pkg.torch.2.2.0a0+git4ab5507"
}
functions {
  name: "torch_nn_modules_conv_Conv2d_getattr_L__self___layer4___0___conv1_1"
  input: "copy_12"
  input: "layer4.0.conv1.weight"
  output: "convolution_15"
  node {
    input: "layer4.0.conv1.weight"
    output: "_val_2"
    name: "Shape_2"
    op_type: "Shape"
    attribute {
      name: "end"
      i: 1
      type: INT
    }
    attribute {
      name: "start"
      i: 0
      type: INT
    }
  }
  node {
    output: "_val_3"
    name: "Constant_3"
    op_type: "Constant"
    attribute {
      name: "value_ints"
      ints: 1
      type: INTS
    }
  }
  node {
    input: "_val_2"
    input: "_val_3"
    output: "_val_4"
    name: "Expand_4"
    op_type: "Expand"
  }
  node {
    output: "_val_5"
    name: "Constant_5"
    op_type: "Constant"
    attribute {
      name: "value"
      t {
        data_type: 1
        raw_data: "\000\000\000\000"
      }
      type: TENSOR
    }
  }
  node {
    input: "_val_5"
    input: "copy_12"
    output: "_val_6"
    name: "CastLike_6"
    op_type: "CastLike"
  }
  node {
    input: "_val_6"
    input: "_val_4"
    output: "_val_7"
    name: "Expand_7"
    op_type: "Expand"
  }
  node {
    output: "_val_8"
    name: "Constant_8"
    op_type: "Constant"
    attribute {
      name: "value"
      t {
        data_type: 9
        raw_data: "\000"
      }
      type: TENSOR
    }
  }
  node {
    input: "copy_12"
    input: "layer4.0.conv1.weight"
    input: "_val_7"
    input: "_val_8"
    output: "convolution_15"
    name: "_aten_convolution_onnx_9"
    op_type: "_aten_convolution_onnx"
    attribute {
      name: "dilations"
      ints: 1
      ints: 1
      type: INTS
    }
    attribute {
      name: "groups"
      i: 1
      type: INT
    }
    attribute {
      name: "output_padding"
      ints: 0
      ints: 0
      type: INTS
    }
    attribute {
      name: "pads"
      ints: 1
      ints: 1
      ints: 1
      ints: 1
      type: INTS
    }
    attribute {
      name: "strides"
      ints: 2
      ints: 2
      type: INTS
    }
    domain: "pkg.onnxscript.torch_lib"
  }
  opset_import {
    domain: ""
    version: 18
  }
  opset_import {
    domain: "pkg.onnxscript.torch_lib"
    version: 1
  }
  domain: "pkg.torch.2.2.0a0+git4ab5507"
}
functions {
  name: "torch_nn_modules_batchnorm_BatchNorm2d_getattr_L__self___layer4___0___bn1_1"
  input: "convolution_15"
  input: "layer4.0.bn1.weight"
  input: "layer4.0.bn1.bias"
  input: "layer4.0.bn1.running_mean"
  input: "layer4.0.bn1.running_var"
  output: "_native_batch_norm_legit_no_training_15"
  node {
    output: "_val_5"
    name: "Constant_0"
    op_type: "Constant"
    attribute {
      name: "value_ints"
      ints: 0
      ints: 2
      ints: 3
      type: INTS
    }
  }
  node {
    input: "convolution_15"
    input: "layer4.0.bn1.weight"
    input: "layer4.0.bn1.bias"
    input: "layer4.0.bn1.running_mean"
    input: "layer4.0.bn1.running_var"
    output: "_native_batch_norm_legit_no_training_15"
    output: "_native_batch_norm_legit_no_training_15_1"
    output: "_native_batch_norm_legit_no_training_15_2"
    name: "_aten_native_batch_norm_inference_onnx_1"
    op_type: "_aten_native_batch_norm_inference_onnx"
    attribute {
      name: "eps"
      f: 1e-05
      type: FLOAT
    }
    attribute {
      name: "momentum"
      f: 0.1
      type: FLOAT
    }
    attribute {
      name: "training"
      i: 0
      type: INT
    }
    domain: "pkg.onnxscript.torch_lib"
  }
  opset_import {
    domain: ""
    version: 18
  }
  opset_import {
    domain: "pkg.onnxscript.torch_lib"
    version: 1
  }
  domain: "pkg.torch.2.2.0a0+git4ab5507"
}
functions {
  name: "torch_nn_modules_activation_ReLU_getattr_L__self___layer4___0___relu_1"
  input: "getitem_47"
  output: "copy_13"
  node {
    input: "getitem_47"
    output: "relu_13"
    name: "aten_relu_0"
    op_type: "aten_relu"
    domain: "pkg.onnxscript.torch_lib"
  }
  node {
    input: "getitem_47"
    input: "relu_13"
    output: "copy_13"
    name: "aten_copy_1"
    op_type: "aten_copy"
    attribute {
      name: "non_blocking"
      i: 0
      type: INT
    }
    domain: "pkg.onnxscript.torch_lib"
  }
  opset_import {
    domain: ""
    version: 18
  }
  opset_import {
    domain: "pkg.onnxscript.torch_lib"
    version: 1
  }
  domain: "pkg.torch.2.2.0a0+git4ab5507"
}
functions {
  name: "torch_nn_modules_conv_Conv2d_getattr_L__self___layer4___0___conv2_1"
  input: "copy_13"
  input: "layer4.0.conv2.weight"
  output: "convolution_16"
  node {
    input: "layer4.0.conv2.weight"
    output: "_val_2"
    name: "Shape_2"
    op_type: "Shape"
    attribute {
      name: "end"
      i: 1
      type: INT
    }
    attribute {
      name: "start"
      i: 0
      type: INT
    }
  }
  node {
    output: "_val_3"
    name: "Constant_3"
    op_type: "Constant"
    attribute {
      name: "value_ints"
      ints: 1
      type: INTS
    }
  }
  node {
    input: "_val_2"
    input: "_val_3"
    output: "_val_4"
    name: "Expand_4"
    op_type: "Expand"
  }
  node {
    output: "_val_5"
    name: "Constant_5"
    op_type: "Constant"
    attribute {
      name: "value"
      t {
        data_type: 1
        raw_data: "\000\000\000\000"
      }
      type: TENSOR
    }
  }
  node {
    input: "_val_5"
    input: "copy_13"
    output: "_val_6"
    name: "CastLike_6"
    op_type: "CastLike"
  }
  node {
    input: "_val_6"
    input: "_val_4"
    output: "_val_7"
    name: "Expand_7"
    op_type: "Expand"
  }
  node {
    output: "_val_8"
    name: "Constant_8"
    op_type: "Constant"
    attribute {
      name: "value"
      t {
        data_type: 9
        raw_data: "\000"
      }
      type: TENSOR
    }
  }
  node {
    input: "copy_13"
    input: "layer4.0.conv2.weight"
    input: "_val_7"
    input: "_val_8"
    output: "convolution_16"
    name: "_aten_convolution_onnx_9"
    op_type: "_aten_convolution_onnx"
    attribute {
      name: "dilations"
      ints: 1
      ints: 1
      type: INTS
    }
    attribute {
      name: "groups"
      i: 1
      type: INT
    }
    attribute {
      name: "output_padding"
      ints: 0
      ints: 0
      type: INTS
    }
    attribute {
      name: "pads"
      ints: 1
      ints: 1
      ints: 1
      ints: 1
      type: INTS
    }
    attribute {
      name: "strides"
      ints: 1
      ints: 1
      type: INTS
    }
    domain: "pkg.onnxscript.torch_lib"
  }
  opset_import {
    domain: ""
    version: 18
  }
  opset_import {
    domain: "pkg.onnxscript.torch_lib"
    version: 1
  }
  domain: "pkg.torch.2.2.0a0+git4ab5507"
}
functions {
  name: "torch_nn_modules_batchnorm_BatchNorm2d_getattr_L__self___layer4___0___bn2_1"
  input: "convolution_16"
  input: "layer4.0.bn2.weight"
  input: "layer4.0.bn2.bias"
  input: "layer4.0.bn2.running_mean"
  input: "layer4.0.bn2.running_var"
  output: "_native_batch_norm_legit_no_training_16"
  node {
    output: "_val_5"
    name: "Constant_0"
    op_type: "Constant"
    attribute {
      name: "value_ints"
      ints: 0
      ints: 2
      ints: 3
      type: INTS
    }
  }
  node {
    input: "convolution_16"
    input: "layer4.0.bn2.weight"
    input: "layer4.0.bn2.bias"
    input: "layer4.0.bn2.running_mean"
    input: "layer4.0.bn2.running_var"
    output: "_native_batch_norm_legit_no_training_16"
    output: "_native_batch_norm_legit_no_training_16_1"
    output: "_native_batch_norm_legit_no_training_16_2"
    name: "_aten_native_batch_norm_inference_onnx_1"
    op_type: "_aten_native_batch_norm_inference_onnx"
    attribute {
      name: "eps"
      f: 1e-05
      type: FLOAT
    }
    attribute {
      name: "momentum"
      f: 0.1
      type: FLOAT
    }
    attribute {
      name: "training"
      i: 0
      type: INT
    }
    domain: "pkg.onnxscript.torch_lib"
  }
  opset_import {
    domain: ""
    version: 18
  }
  opset_import {
    domain: "pkg.onnxscript.torch_lib"
    version: 1
  }
  domain: "pkg.torch.2.2.0a0+git4ab5507"
}
functions {
  name: "torch_nn_modules_conv_Conv2d_getattr_L__self___layer4___0___downsample_0_1"
  input: "copy_12"
  input: "layer4.0.downsample.0.weight"
  output: "convolution_17"
  node {
    input: "layer4.0.downsample.0.weight"
    output: "_val_2"
    name: "Shape_2"
    op_type: "Shape"
    attribute {
      name: "end"
      i: 1
      type: INT
    }
    attribute {
      name: "start"
      i: 0
      type: INT
    }
  }
  node {
    output: "_val_3"
    name: "Constant_3"
    op_type: "Constant"
    attribute {
      name: "value_ints"
      ints: 1
      type: INTS
    }
  }
  node {
    input: "_val_2"
    input: "_val_3"
    output: "_val_4"
    name: "Expand_4"
    op_type: "Expand"
  }
  node {
    output: "_val_5"
    name: "Constant_5"
    op_type: "Constant"
    attribute {
      name: "value"
      t {
        data_type: 1
        raw_data: "\000\000\000\000"
      }
      type: TENSOR
    }
  }
  node {
    input: "_val_5"
    input: "copy_12"
    output: "_val_6"
    name: "CastLike_6"
    op_type: "CastLike"
  }
  node {
    input: "_val_6"
    input: "_val_4"
    output: "_val_7"
    name: "Expand_7"
    op_type: "Expand"
  }
  node {
    output: "_val_8"
    name: "Constant_8"
    op_type: "Constant"
    attribute {
      name: "value"
      t {
        data_type: 9
        raw_data: "\000"
      }
      type: TENSOR
    }
  }
  node {
    input: "copy_12"
    input: "layer4.0.downsample.0.weight"
    input: "_val_7"
    input: "_val_8"
    output: "convolution_17"
    name: "_aten_convolution_onnx_9"
    op_type: "_aten_convolution_onnx"
    attribute {
      name: "dilations"
      ints: 1
      ints: 1
      type: INTS
    }
    attribute {
      name: "groups"
      i: 1
      type: INT
    }
    attribute {
      name: "output_padding"
      ints: 0
      ints: 0
      type: INTS
    }
    attribute {
      name: "pads"
      ints: 0
      ints: 0
      ints: 0
      ints: 0
      type: INTS
    }
    attribute {
      name: "strides"
      ints: 2
      ints: 2
      type: INTS
    }
    domain: "pkg.onnxscript.torch_lib"
  }
  opset_import {
    domain: ""
    version: 18
  }
  opset_import {
    domain: "pkg.onnxscript.torch_lib"
    version: 1
  }
  domain: "pkg.torch.2.2.0a0+git4ab5507"
}
functions {
  name: "torch_nn_modules_batchnorm_BatchNorm2d_getattr_L__self___layer4___0___downsample_1_1"
  input: "convolution_17"
  input: "layer4.0.downsample.1.weight"
  input: "layer4.0.downsample.1.bias"
  input: "layer4.0.downsample.1.running_mean"
  input: "layer4.0.downsample.1.running_var"
  output: "_native_batch_norm_legit_no_training_17"
  node {
    output: "_val_5"
    name: "Constant_0"
    op_type: "Constant"
    attribute {
      name: "value_ints"
      ints: 0
      ints: 2
      ints: 3
      type: INTS
    }
  }
  node {
    input: "convolution_17"
    input: "layer4.0.downsample.1.weight"
    input: "layer4.0.downsample.1.bias"
    input: "layer4.0.downsample.1.running_mean"
    input: "layer4.0.downsample.1.running_var"
    output: "_native_batch_norm_legit_no_training_17"
    output: "_native_batch_norm_legit_no_training_17_1"
    output: "_native_batch_norm_legit_no_training_17_2"
    name: "_aten_native_batch_norm_inference_onnx_1"
    op_type: "_aten_native_batch_norm_inference_onnx"
    attribute {
      name: "eps"
      f: 1e-05
      type: FLOAT
    }
    attribute {
      name: "momentum"
      f: 0.1
      type: FLOAT
    }
    attribute {
      name: "training"
      i: 0
      type: INT
    }
    domain: "pkg.onnxscript.torch_lib"
  }
  opset_import {
    domain: ""
    version: 18
  }
  opset_import {
    domain: "pkg.onnxscript.torch_lib"
    version: 1
  }
  domain: "pkg.torch.2.2.0a0+git4ab5507"
}
functions {
  name: "torch_nn_modules_container_Sequential_getattr_L__self___layer4___0___downsample_1"
  input: "copy_12"
  input: "layer4.0.downsample.0.weight"
  input: "layer4.0.downsample.1.weight"
  input: "layer4.0.downsample.1.bias"
  input: "layer4.0.downsample.1.running_mean"
  input: "layer4.0.downsample.1.running_var"
  output: "getattr_l__self___layer4___0___downsample_1_1"
  node {
    input: "copy_12"
    input: "layer4.0.downsample.0.weight"
    output: "getattr_l__self___layer4___0___downsample_0_1"
    name: "torch_nn_modules_conv_Conv2d_getattr_L__self___layer4___0___downsample_0_1_0"
    op_type: "torch_nn_modules_conv_Conv2d_getattr_L__self___layer4___0___downsample_0_1"
    domain: "pkg.torch.2.2.0a0+git4ab5507"
  }
  node {
    input: "getattr_l__self___layer4___0___downsample_0_1"
    input: "layer4.0.downsample.1.weight"
    input: "layer4.0.downsample.1.bias"
    input: "layer4.0.downsample.1.running_mean"
    input: "layer4.0.downsample.1.running_var"
    output: "getattr_l__self___layer4___0___downsample_1_1"
    name: "torch_nn_modules_batchnorm_BatchNorm2d_getattr_L__self___layer4___0___downsample_1_1_1"
    op_type: "torch_nn_modules_batchnorm_BatchNorm2d_getattr_L__self___layer4___0___downsample_1_1"
    domain: "pkg.torch.2.2.0a0+git4ab5507"
  }
  opset_import {
    domain: ""
    version: 18
  }
  opset_import {
    domain: "pkg.torch.2.2.0a0+git4ab5507"
    version: 1
  }
  domain: "pkg.torch.2.2.0a0+git4ab5507"
}
functions {
  name: "torch_nn_modules_activation_ReLU_getattr_L__self___layer4___0___relu_2"
  input: "add_6"
  output: "copy_14"
  node {
    input: "add_6"
    output: "relu_14"
    name: "aten_relu_0"
    op_type: "aten_relu"
    domain: "pkg.onnxscript.torch_lib"
  }
  node {
    input: "add_6"
    input: "relu_14"
    output: "copy_14"
    name: "aten_copy_1"
    op_type: "aten_copy"
    attribute {
      name: "non_blocking"
      i: 0
      type: INT
    }
    domain: "pkg.onnxscript.torch_lib"
  }
  opset_import {
    domain: ""
    version: 18
  }
  opset_import {
    domain: "pkg.onnxscript.torch_lib"
    version: 1
  }
  domain: "pkg.torch.2.2.0a0+git4ab5507"
}
functions {
  name: "torchvision_models_resnet_BasicBlock_layer4_0_1"
  input: "copy_12"
  input: "layer4.0.conv1.weight"
  input: "layer4.0.bn1.weight"
  input: "layer4.0.bn1.bias"
  input: "layer4.0.bn1.running_mean"
  input: "layer4.0.bn1.running_var"
  input: "layer4.0.conv2.weight"
  input: "layer4.0.bn2.weight"
  input: "layer4.0.bn2.bias"
  input: "layer4.0.bn2.running_mean"
  input: "layer4.0.bn2.running_var"
  input: "layer4.0.downsample.0.weight"
  input: "layer4.0.downsample.1.weight"
  input: "layer4.0.downsample.1.bias"
  input: "layer4.0.downsample.1.running_mean"
  input: "layer4.0.downsample.1.running_var"
  output: "getattr_l__self___layer4___0___relu_2"
  node {
    input: "copy_12"
    input: "layer4.0.conv1.weight"
    output: "getattr_l__self___layer4___0___conv1_1"
    name: "torch_nn_modules_conv_Conv2d_getattr_L__self___layer4___0___conv1_1_0"
    op_type: "torch_nn_modules_conv_Conv2d_getattr_L__self___layer4___0___conv1_1"
    domain: "pkg.torch.2.2.0a0+git4ab5507"
  }
  node {
    input: "getattr_l__self___layer4___0___conv1_1"
    input: "layer4.0.bn1.weight"
    input: "layer4.0.bn1.bias"
    input: "layer4.0.bn1.running_mean"
    input: "layer4.0.bn1.running_var"
    output: "getattr_l__self___layer4___0___bn1_1"
    name: "torch_nn_modules_batchnorm_BatchNorm2d_getattr_L__self___layer4___0___bn1_1_1"
    op_type: "torch_nn_modules_batchnorm_BatchNorm2d_getattr_L__self___layer4___0___bn1_1"
    domain: "pkg.torch.2.2.0a0+git4ab5507"
  }
  node {
    input: "getattr_l__self___layer4___0___bn1_1"
    output: "getattr_l__self___layer4___0___relu_1"
    name: "torch_nn_modules_activation_ReLU_getattr_L__self___layer4___0___relu_1_2"
    op_type: "torch_nn_modules_activation_ReLU_getattr_L__self___layer4___0___relu_1"
    domain: "pkg.torch.2.2.0a0+git4ab5507"
  }
  node {
    input: "getattr_l__self___layer4___0___relu_1"
    input: "layer4.0.conv2.weight"
    output: "getattr_l__self___layer4___0___conv2_1"
    name: "torch_nn_modules_conv_Conv2d_getattr_L__self___layer4___0___conv2_1_3"
    op_type: "torch_nn_modules_conv_Conv2d_getattr_L__self___layer4___0___conv2_1"
    domain: "pkg.torch.2.2.0a0+git4ab5507"
  }
  node {
    input: "getattr_l__self___layer4___0___conv2_1"
    input: "layer4.0.bn2.weight"
    input: "layer4.0.bn2.bias"
    input: "layer4.0.bn2.running_mean"
    input: "layer4.0.bn2.running_var"
    output: "getattr_l__self___layer4___0___bn2_1"
    name: "torch_nn_modules_batchnorm_BatchNorm2d_getattr_L__self___layer4___0___bn2_1_4"
    op_type: "torch_nn_modules_batchnorm_BatchNorm2d_getattr_L__self___layer4___0___bn2_1"
    domain: "pkg.torch.2.2.0a0+git4ab5507"
  }
  node {
    input: "copy_12"
    input: "layer4.0.downsample.0.weight"
    input: "layer4.0.downsample.1.weight"
    input: "layer4.0.downsample.1.bias"
    input: "layer4.0.downsample.1.running_mean"
    input: "layer4.0.downsample.1.running_var"
    output: "getattr_l__self___layer4___0___downsample_1"
    name: "torch_nn_modules_container_Sequential_getattr_L__self___layer4___0___downsample_1_5"
    op_type: "torch_nn_modules_container_Sequential_getattr_L__self___layer4___0___downsample_1"
    domain: "pkg.torch.2.2.0a0+git4ab5507"
  }
  node {
    input: "getattr_l__self___layer4___0___bn2_1"
    input: "getattr_l__self___layer4___0___downsample_1"
    output: "add_6"
    name: "aten_add_6"
    op_type: "aten_add"
    attribute {
      name: "alpha"
      f: 1.0
      type: FLOAT
    }
    domain: "pkg.onnxscript.torch_lib"
  }
  node {
    input: "add_6"
    output: "getattr_l__self___layer4___0___relu_2"
    name: "torch_nn_modules_activation_ReLU_getattr_L__self___layer4___0___relu_2_7"
    op_type: "torch_nn_modules_activation_ReLU_getattr_L__self___layer4___0___relu_2"
    domain: "pkg.torch.2.2.0a0+git4ab5507"
  }
  opset_import {
    domain: ""
    version: 18
  }
  opset_import {
    domain: "pkg.onnxscript.torch_lib"
    version: 1
  }
  opset_import {
    domain: "pkg.torch.2.2.0a0+git4ab5507"
    version: 1
  }
  domain: "pkg.torchvision.0.16.0a0+0370134"
}
functions {
  name: "torch_nn_modules_conv_Conv2d_getattr_L__self___layer4___1___conv1_1"
  input: "copy_14"
  input: "layer4.1.conv1.weight"
  output: "convolution_18"
  node {
    input: "layer4.1.conv1.weight"
    output: "_val_2"
    name: "Shape_2"
    op_type: "Shape"
    attribute {
      name: "end"
      i: 1
      type: INT
    }
    attribute {
      name: "start"
      i: 0
      type: INT
    }
  }
  node {
    output: "_val_3"
    name: "Constant_3"
    op_type: "Constant"
    attribute {
      name: "value_ints"
      ints: 1
      type: INTS
    }
  }
  node {
    input: "_val_2"
    input: "_val_3"
    output: "_val_4"
    name: "Expand_4"
    op_type: "Expand"
  }
  node {
    output: "_val_5"
    name: "Constant_5"
    op_type: "Constant"
    attribute {
      name: "value"
      t {
        data_type: 1
        raw_data: "\000\000\000\000"
      }
      type: TENSOR
    }
  }
  node {
    input: "_val_5"
    input: "copy_14"
    output: "_val_6"
    name: "CastLike_6"
    op_type: "CastLike"
  }
  node {
    input: "_val_6"
    input: "_val_4"
    output: "_val_7"
    name: "Expand_7"
    op_type: "Expand"
  }
  node {
    output: "_val_8"
    name: "Constant_8"
    op_type: "Constant"
    attribute {
      name: "value"
      t {
        data_type: 9
        raw_data: "\000"
      }
      type: TENSOR
    }
  }
  node {
    input: "copy_14"
    input: "layer4.1.conv1.weight"
    input: "_val_7"
    input: "_val_8"
    output: "convolution_18"
    name: "_aten_convolution_onnx_9"
    op_type: "_aten_convolution_onnx"
    attribute {
      name: "dilations"
      ints: 1
      ints: 1
      type: INTS
    }
    attribute {
      name: "groups"
      i: 1
      type: INT
    }
    attribute {
      name: "output_padding"
      ints: 0
      ints: 0
      type: INTS
    }
    attribute {
      name: "pads"
      ints: 1
      ints: 1
      ints: 1
      ints: 1
      type: INTS
    }
    attribute {
      name: "strides"
      ints: 1
      ints: 1
      type: INTS
    }
    domain: "pkg.onnxscript.torch_lib"
  }
  opset_import {
    domain: ""
    version: 18
  }
  opset_import {
    domain: "pkg.onnxscript.torch_lib"
    version: 1
  }
  domain: "pkg.torch.2.2.0a0+git4ab5507"
}
functions {
  name: "torch_nn_modules_batchnorm_BatchNorm2d_getattr_L__self___layer4___1___bn1_1"
  input: "convolution_18"
  input: "layer4.1.bn1.weight"
  input: "layer4.1.bn1.bias"
  input: "layer4.1.bn1.running_mean"
  input: "layer4.1.bn1.running_var"
  output: "_native_batch_norm_legit_no_training_18"
  node {
    output: "_val_5"
    name: "Constant_0"
    op_type: "Constant"
    attribute {
      name: "value_ints"
      ints: 0
      ints: 2
      ints: 3
      type: INTS
    }
  }
  node {
    input: "convolution_18"
    input: "layer4.1.bn1.weight"
    input: "layer4.1.bn1.bias"
    input: "layer4.1.bn1.running_mean"
    input: "layer4.1.bn1.running_var"
    output: "_native_batch_norm_legit_no_training_18"
    output: "_native_batch_norm_legit_no_training_18_1"
    output: "_native_batch_norm_legit_no_training_18_2"
    name: "_aten_native_batch_norm_inference_onnx_1"
    op_type: "_aten_native_batch_norm_inference_onnx"
    attribute {
      name: "eps"
      f: 1e-05
      type: FLOAT
    }
    attribute {
      name: "momentum"
      f: 0.1
      type: FLOAT
    }
    attribute {
      name: "training"
      i: 0
      type: INT
    }
    domain: "pkg.onnxscript.torch_lib"
  }
  opset_import {
    domain: ""
    version: 18
  }
  opset_import {
    domain: "pkg.onnxscript.torch_lib"
    version: 1
  }
  domain: "pkg.torch.2.2.0a0+git4ab5507"
}
functions {
  name: "torch_nn_modules_activation_ReLU_getattr_L__self___layer4___1___relu_1"
  input: "getitem_56"
  output: "copy_15"
  node {
    input: "getitem_56"
    output: "relu_15"
    name: "aten_relu_0"
    op_type: "aten_relu"
    domain: "pkg.onnxscript.torch_lib"
  }
  node {
    input: "getitem_56"
    input: "relu_15"
    output: "copy_15"
    name: "aten_copy_1"
    op_type: "aten_copy"
    attribute {
      name: "non_blocking"
      i: 0
      type: INT
    }
    domain: "pkg.onnxscript.torch_lib"
  }
  opset_import {
    domain: ""
    version: 18
  }
  opset_import {
    domain: "pkg.onnxscript.torch_lib"
    version: 1
  }
  domain: "pkg.torch.2.2.0a0+git4ab5507"
}
functions {
  name: "torch_nn_modules_conv_Conv2d_getattr_L__self___layer4___1___conv2_1"
  input: "copy_15"
  input: "layer4.1.conv2.weight"
  output: "convolution_19"
  node {
    input: "layer4.1.conv2.weight"
    output: "_val_2"
    name: "Shape_2"
    op_type: "Shape"
    attribute {
      name: "end"
      i: 1
      type: INT
    }
    attribute {
      name: "start"
      i: 0
      type: INT
    }
  }
  node {
    output: "_val_3"
    name: "Constant_3"
    op_type: "Constant"
    attribute {
      name: "value_ints"
      ints: 1
      type: INTS
    }
  }
  node {
    input: "_val_2"
    input: "_val_3"
    output: "_val_4"
    name: "Expand_4"
    op_type: "Expand"
  }
  node {
    output: "_val_5"
    name: "Constant_5"
    op_type: "Constant"
    attribute {
      name: "value"
      t {
        data_type: 1
        raw_data: "\000\000\000\000"
      }
      type: TENSOR
    }
  }
  node {
    input: "_val_5"
    input: "copy_15"
    output: "_val_6"
    name: "CastLike_6"
    op_type: "CastLike"
  }
  node {
    input: "_val_6"
    input: "_val_4"
    output: "_val_7"
    name: "Expand_7"
    op_type: "Expand"
  }
  node {
    output: "_val_8"
    name: "Constant_8"
    op_type: "Constant"
    attribute {
      name: "value"
      t {
        data_type: 9
        raw_data: "\000"
      }
      type: TENSOR
    }
  }
  node {
    input: "copy_15"
    input: "layer4.1.conv2.weight"
    input: "_val_7"
    input: "_val_8"
    output: "convolution_19"
    name: "_aten_convolution_onnx_9"
    op_type: "_aten_convolution_onnx"
    attribute {
      name: "dilations"
      ints: 1
      ints: 1
      type: INTS
    }
    attribute {
      name: "groups"
      i: 1
      type: INT
    }
    attribute {
      name: "output_padding"
      ints: 0
      ints: 0
      type: INTS
    }
    attribute {
      name: "pads"
      ints: 1
      ints: 1
      ints: 1
      ints: 1
      type: INTS
    }
    attribute {
      name: "strides"
      ints: 1
      ints: 1
      type: INTS
    }
    domain: "pkg.onnxscript.torch_lib"
  }
  opset_import {
    domain: ""
    version: 18
  }
  opset_import {
    domain: "pkg.onnxscript.torch_lib"
    version: 1
  }
  domain: "pkg.torch.2.2.0a0+git4ab5507"
}
functions {
  name: "torch_nn_modules_batchnorm_BatchNorm2d_getattr_L__self___layer4___1___bn2_1"
  input: "convolution_19"
  input: "layer4.1.bn2.weight"
  input: "layer4.1.bn2.bias"
  input: "layer4.1.bn2.running_mean"
  input: "layer4.1.bn2.running_var"
  output: "_native_batch_norm_legit_no_training_19"
  node {
    output: "_val_5"
    name: "Constant_0"
    op_type: "Constant"
    attribute {
      name: "value_ints"
      ints: 0
      ints: 2
      ints: 3
      type: INTS
    }
  }
  node {
    input: "convolution_19"
    input: "layer4.1.bn2.weight"
    input: "layer4.1.bn2.bias"
    input: "layer4.1.bn2.running_mean"
    input: "layer4.1.bn2.running_var"
    output: "_native_batch_norm_legit_no_training_19"
    output: "_native_batch_norm_legit_no_training_19_1"
    output: "_native_batch_norm_legit_no_training_19_2"
    name: "_aten_native_batch_norm_inference_onnx_1"
    op_type: "_aten_native_batch_norm_inference_onnx"
    attribute {
      name: "eps"
      f: 1e-05
      type: FLOAT
    }
    attribute {
      name: "momentum"
      f: 0.1
      type: FLOAT
    }
    attribute {
      name: "training"
      i: 0
      type: INT
    }
    domain: "pkg.onnxscript.torch_lib"
  }
  opset_import {
    domain: ""
    version: 18
  }
  opset_import {
    domain: "pkg.onnxscript.torch_lib"
    version: 1
  }
  domain: "pkg.torch.2.2.0a0+git4ab5507"
}
functions {
  name: "torch_nn_modules_activation_ReLU_getattr_L__self___layer4___1___relu_2"
  input: "add_7"
  output: "copy_16"
  node {
    input: "add_7"
    output: "relu_16"
    name: "aten_relu_0"
    op_type: "aten_relu"
    domain: "pkg.onnxscript.torch_lib"
  }
  node {
    input: "add_7"
    input: "relu_16"
    output: "copy_16"
    name: "aten_copy_1"
    op_type: "aten_copy"
    attribute {
      name: "non_blocking"
      i: 0
      type: INT
    }
    domain: "pkg.onnxscript.torch_lib"
  }
  opset_import {
    domain: ""
    version: 18
  }
  opset_import {
    domain: "pkg.onnxscript.torch_lib"
    version: 1
  }
  domain: "pkg.torch.2.2.0a0+git4ab5507"
}
functions {
  name: "torchvision_models_resnet_BasicBlock_layer4_1_1"
  input: "copy_14"
  input: "layer4.1.conv1.weight"
  input: "layer4.1.bn1.weight"
  input: "layer4.1.bn1.bias"
  input: "layer4.1.bn1.running_mean"
  input: "layer4.1.bn1.running_var"
  input: "layer4.1.conv2.weight"
  input: "layer4.1.bn2.weight"
  input: "layer4.1.bn2.bias"
  input: "layer4.1.bn2.running_mean"
  input: "layer4.1.bn2.running_var"
  output: "getattr_l__self___layer4___1___relu_2"
  node {
    input: "copy_14"
    input: "layer4.1.conv1.weight"
    output: "getattr_l__self___layer4___1___conv1_1"
    name: "torch_nn_modules_conv_Conv2d_getattr_L__self___layer4___1___conv1_1_0"
    op_type: "torch_nn_modules_conv_Conv2d_getattr_L__self___layer4___1___conv1_1"
    domain: "pkg.torch.2.2.0a0+git4ab5507"
  }
  node {
    input: "getattr_l__self___layer4___1___conv1_1"
    input: "layer4.1.bn1.weight"
    input: "layer4.1.bn1.bias"
    input: "layer4.1.bn1.running_mean"
    input: "layer4.1.bn1.running_var"
    output: "getattr_l__self___layer4___1___bn1_1"
    name: "torch_nn_modules_batchnorm_BatchNorm2d_getattr_L__self___layer4___1___bn1_1_1"
    op_type: "torch_nn_modules_batchnorm_BatchNorm2d_getattr_L__self___layer4___1___bn1_1"
    domain: "pkg.torch.2.2.0a0+git4ab5507"
  }
  node {
    input: "getattr_l__self___layer4___1___bn1_1"
    output: "getattr_l__self___layer4___1___relu_1"
    name: "torch_nn_modules_activation_ReLU_getattr_L__self___layer4___1___relu_1_2"
    op_type: "torch_nn_modules_activation_ReLU_getattr_L__self___layer4___1___relu_1"
    domain: "pkg.torch.2.2.0a0+git4ab5507"
  }
  node {
    input: "getattr_l__self___layer4___1___relu_1"
    input: "layer4.1.conv2.weight"
    output: "getattr_l__self___layer4___1___conv2_1"
    name: "torch_nn_modules_conv_Conv2d_getattr_L__self___layer4___1___conv2_1_3"
    op_type: "torch_nn_modules_conv_Conv2d_getattr_L__self___layer4___1___conv2_1"
    domain: "pkg.torch.2.2.0a0+git4ab5507"
  }
  node {
    input: "getattr_l__self___layer4___1___conv2_1"
    input: "layer4.1.bn2.weight"
    input: "layer4.1.bn2.bias"
    input: "layer4.1.bn2.running_mean"
    input: "layer4.1.bn2.running_var"
    output: "getattr_l__self___layer4___1___bn2_1"
    name: "torch_nn_modules_batchnorm_BatchNorm2d_getattr_L__self___layer4___1___bn2_1_4"
    op_type: "torch_nn_modules_batchnorm_BatchNorm2d_getattr_L__self___layer4___1___bn2_1"
    domain: "pkg.torch.2.2.0a0+git4ab5507"
  }
  node {
    input: "getattr_l__self___layer4___1___bn2_1"
    input: "copy_14"
    output: "add_7"
    name: "aten_add_5"
    op_type: "aten_add"
    attribute {
      name: "alpha"
      f: 1.0
      type: FLOAT
    }
    domain: "pkg.onnxscript.torch_lib"
  }
  node {
    input: "add_7"
    output: "getattr_l__self___layer4___1___relu_2"
    name: "torch_nn_modules_activation_ReLU_getattr_L__self___layer4___1___relu_2_6"
    op_type: "torch_nn_modules_activation_ReLU_getattr_L__self___layer4___1___relu_2"
    domain: "pkg.torch.2.2.0a0+git4ab5507"
  }
  opset_import {
    domain: ""
    version: 18
  }
  opset_import {
    domain: "pkg.onnxscript.torch_lib"
    version: 1
  }
  opset_import {
    domain: "pkg.torch.2.2.0a0+git4ab5507"
    version: 1
  }
  domain: "pkg.torchvision.0.16.0a0+0370134"
}
functions {
  name: "torch_nn_modules_container_Sequential_layer4_1"
  input: "copy_12"
  input: "layer4.0.conv1.weight"
  input: "layer4.0.bn1.weight"
  input: "layer4.0.bn1.bias"
  input: "layer4.0.bn1.running_mean"
  input: "layer4.0.bn1.running_var"
  input: "layer4.0.conv2.weight"
  input: "layer4.0.bn2.weight"
  input: "layer4.0.bn2.bias"
  input: "layer4.0.bn2.running_mean"
  input: "layer4.0.bn2.running_var"
  input: "layer4.0.downsample.0.weight"
  input: "layer4.0.downsample.1.weight"
  input: "layer4.0.downsample.1.bias"
  input: "layer4.0.downsample.1.running_mean"
  input: "layer4.0.downsample.1.running_var"
  input: "layer4.1.conv1.weight"
  input: "layer4.1.bn1.weight"
  input: "layer4.1.bn1.bias"
  input: "layer4.1.bn1.running_mean"
  input: "layer4.1.bn1.running_var"
  input: "layer4.1.conv2.weight"
  input: "layer4.1.bn2.weight"
  input: "layer4.1.bn2.bias"
  input: "layer4.1.bn2.running_mean"
  input: "layer4.1.bn2.running_var"
  output: "layer4_1_1"
  node {
    input: "copy_12"
    input: "layer4.0.conv1.weight"
    input: "layer4.0.bn1.weight"
    input: "layer4.0.bn1.bias"
    input: "layer4.0.bn1.running_mean"
    input: "layer4.0.bn1.running_var"
    input: "layer4.0.conv2.weight"
    input: "layer4.0.bn2.weight"
    input: "layer4.0.bn2.bias"
    input: "layer4.0.bn2.running_mean"
    input: "layer4.0.bn2.running_var"
    input: "layer4.0.downsample.0.weight"
    input: "layer4.0.downsample.1.weight"
    input: "layer4.0.downsample.1.bias"
    input: "layer4.0.downsample.1.running_mean"
    input: "layer4.0.downsample.1.running_var"
    output: "layer4_0_1"
    name: "torchvision_models_resnet_BasicBlock_layer4_0_1_0"
    op_type: "torchvision_models_resnet_BasicBlock_layer4_0_1"
    domain: "pkg.torchvision.0.16.0a0+0370134"
  }
  node {
    input: "layer4_0_1"
    input: "layer4.1.conv1.weight"
    input: "layer4.1.bn1.weight"
    input: "layer4.1.bn1.bias"
    input: "layer4.1.bn1.running_mean"
    input: "layer4.1.bn1.running_var"
    input: "layer4.1.conv2.weight"
    input: "layer4.1.bn2.weight"
    input: "layer4.1.bn2.bias"
    input: "layer4.1.bn2.running_mean"
    input: "layer4.1.bn2.running_var"
    output: "layer4_1_1"
    name: "torchvision_models_resnet_BasicBlock_layer4_1_1_1"
    op_type: "torchvision_models_resnet_BasicBlock_layer4_1_1"
    domain: "pkg.torchvision.0.16.0a0+0370134"
  }
  opset_import {
    domain: ""
    version: 18
  }
  opset_import {
    domain: "pkg.torchvision.0.16.0a0+0370134"
    version: 1
  }
  domain: "pkg.torch.2.2.0a0+git4ab5507"
}
functions {
  name: "aten_mean_dim"
  input: "self"
  input: "dim"
  output: "result_10"
  node {
    input: "self"
    output: "tmp"
    name: "n0"
    op_type: "Shape"
  }
  node {
    input: "tmp"
    output: "tmp_0"
    name: "n1"
    op_type: "Size"
  }
  node {
    output: "int64_0"
    name: "n2"
    op_type: "Constant"
    attribute {
      name: "value"
      t {
        data_type: 7
        int64_data: 0
        name: "int64_0"
      }
      type: TENSOR
    }
  }
  node {
    input: "int64_0"
    input: "tmp_0"
    output: "int64_0_cast"
    name: "n3"
    op_type: "CastLike"
  }
  node {
    input: "tmp_0"
    input: "int64_0_cast"
    output: "cond"
    name: "n4"
    op_type: "Equal"
  }
  node {
    input: "cond"
    output: "result_10"
    name: "n5"
    op_type: "If"
    attribute {
      name: "then_branch"
      g {
        node {
          input: "self"
          output: "result"
          name: "n0"
          op_type: "Identity"
        }
        name: "thenGraph_5"
        output {
          name: "result"
        }
      }
      type: GRAPH
    }
    attribute {
      name: "else_branch"
      g {
        node {
          input: "dim"
          output: "tmp_1"
          name: "n0"
          op_type: "Shape"
        }
        node {
          input: "tmp_1"
          output: "tmp_2"
          name: "n1"
          op_type: "Size"
        }
        node {
          output: "int64_0_3"
          name: "n2"
          op_type: "Constant"
          attribute {
            name: "value"
            t {
              data_type: 7
              int64_data: 0
              name: "int64_0_3"
            }
            type: TENSOR
          }
        }
        node {
          input: "int64_0_3"
          input: "tmp_2"
          output: "int64_0_3_cast"
          name: "n3"
          op_type: "CastLike"
        }
        node {
          input: "tmp_2"
          input: "int64_0_3_cast"
          output: "cond_4"
          name: "n4"
          op_type: "Equal"
        }
        node {
          input: "cond_4"
          output: "dim_8"
          name: "n5"
          op_type: "If"
          attribute {
            name: "then_branch"
            g {
              node {
                output: "int64_0_5"
                name: "n0"
                op_type: "Constant"
                attribute {
                  name: "value"
                  t {
                    data_type: 7
                    int64_data: 0
                    name: "int64_0_5"
                  }
                  type: TENSOR
                }
              }
              node {
                input: "dim"
                input: "int64_0_5"
                output: "dim_6"
                name: "n1"
                op_type: "Unsqueeze"
              }
              name: "thenGraph_8"
              output {
                name: "dim_6"
              }
            }
            type: GRAPH
          }
          attribute {
            name: "else_branch"
            g {
              node {
                input: "dim"
                output: "dim_7"
                name: "n0"
                op_type: "Identity"
              }
              name: "elseGraph_8"
              output {
                name: "dim_7"
              }
            }
            type: GRAPH
          }
        }
        node {
          input: "self"
          input: "dim_8"
          output: "result_9"
          name: "n6"
          op_type: "ReduceMean"
          attribute {
            name: "keepdims"
            type: INT
            ref_attr_name: "keepdim"
          }
        }
        name: "elseGraph_5"
        output {
          name: "result_9"
        }
      }
      type: GRAPH
    }
  }
  doc_string: "mean.dim(Tensor self, int[1]? dim, bool keepdim=False, *, ScalarType? dtype=None) -> Tensor"
  opset_import {
    domain: ""
    version: 18
  }
  domain: "pkg.onnxscript.torch_lib"
  attribute_proto {
    name: "keepdim"
    i: 0
    type: INT
  }
}
functions {
  name: "torch_nn_modules_pooling_AdaptiveAvgPool2d_avgpool_1"
  input: "copy_16"
  output: "mean"
  node {
    output: "_val_1"
    name: "Constant_1"
    op_type: "Constant"
    attribute {
      name: "value"
      t {
        dims: 2
        data_type: 7
        raw_data: "\377\377\377\377\377\377\377\377\376\377\377\377\377\377\377\377"
      }
      type: TENSOR
    }
  }
  node {
    input: "copy_16"
    input: "_val_1"
    output: "mean"
    name: "aten_mean_dim_2"
    op_type: "aten_mean_dim"
    attribute {
      name: "keepdim"
      i: 1
      type: INT
    }
    domain: "pkg.onnxscript.torch_lib"
  }
  opset_import {
    domain: ""
    version: 18
  }
  opset_import {
    domain: "pkg.onnxscript.torch_lib"
    version: 1
  }
  domain: "pkg.torch.2.2.0a0+git4ab5507"
}
functions {
  name: "aten_t"
  input: "self"
  output: "result_1"
  node {
    input: "self"
    output: "tmp"
    name: "n0"
    op_type: "Shape"
  }
  node {
    input: "tmp"
    output: "rank"
    name: "n1"
    op_type: "Size"
  }
  node {
    output: "int64_2"
    name: "n2"
    op_type: "Constant"
    attribute {
      name: "value"
      t {
        data_type: 7
        int64_data: 2
        name: "int64_2"
      }
      type: TENSOR
    }
  }
  node {
    input: "int64_2"
    input: "rank"
    output: "int64_2_cast"
    name: "n3"
    op_type: "CastLike"
  }
  node {
    input: "rank"
    input: "int64_2_cast"
    output: "cond"
    name: "n4"
    op_type: "Equal"
  }
  node {
    input: "cond"
    output: "result_1"
    name: "n5"
    op_type: "If"
    attribute {
      name: "then_branch"
      g {
        node {
          input: "self"
          output: "result"
          name: "n0"
          op_type: "Transpose"
          attribute {
            name: "perm"
            ints: 1
            ints: 0
            type: INTS
          }
        }
        name: "thenGraph_6"
        output {
          name: "result"
        }
      }
      type: GRAPH
    }
    attribute {
      name: "else_branch"
      g {
        node {
          input: "self"
          output: "result_0"
          name: "n0"
          op_type: "Identity"
        }
        name: "elseGraph_6"
        output {
          name: "result_0"
        }
      }
      type: GRAPH
    }
  }
  doc_string: "t(Tensor(a) self) -> Tensor(a)"
  opset_import {
    domain: ""
    version: 18
  }
  domain: "pkg.onnxscript.torch_lib"
}
functions {
  name: "aten_addmm"
  input: "self"
  input: "mat1"
  input: "mat2"
  output: "return_val"
  node {
    input: "mat1"
    input: "mat2"
    input: "self"
    output: "return_val"
    name: "n0"
    op_type: "Gemm"
    attribute {
      name: "alpha"
      type: FLOAT
      ref_attr_name: "alpha"
    }
    attribute {
      name: "beta"
      type: FLOAT
      ref_attr_name: "beta"
    }
  }
  doc_string: "addmm(Tensor self, Tensor mat1, Tensor mat2, *, Scalar beta=1, Scalar alpha=1) -> Tensor"
  opset_import {
    domain: ""
    version: 18
  }
  domain: "pkg.onnxscript.torch_lib"
  attribute_proto {
    name: "beta"
    f: 1.0
    type: FLOAT
  }
  attribute_proto {
    name: "alpha"
    f: 1.0
    type: FLOAT
  }
}
functions {
  name: "torch_nn_modules_linear_Linear_fc_1"
  input: "view"
  input: "fc.weight"
  input: "fc.bias"
  output: "addmm"
  node {
    input: "fc.weight"
    output: "t"
    name: "aten_t_0"
    op_type: "aten_t"
    domain: "pkg.onnxscript.torch_lib"
  }
  node {
    input: "fc.bias"
    input: "view"
    input: "t"
    output: "addmm"
    name: "aten_addmm_1"
    op_type: "aten_addmm"
    attribute {
      name: "alpha"
      f: 1.0
      type: FLOAT
    }
    attribute {
      name: "beta"
      f: 1.0
      type: FLOAT
    }
    domain: "pkg.onnxscript.torch_lib"
  }
  opset_import {
    domain: ""
    version: 18
  }
  opset_import {
    domain: "pkg.onnxscript.torch_lib"
    version: 1
  }
  domain: "pkg.torch.2.2.0a0+git4ab5507"
}
functions {
  name: "aten_view"
  input: "self"
  input: "size"
  output: "return_val"
  node {
    input: "size"
    output: "size_0"
    name: "n0"
    op_type: "Cast"
    attribute {
      name: "to"
      i: 7
      type: INT
    }
  }
  node {
    input: "self"
    input: "size_0"
    output: "return_val"
    name: "n1"
    op_type: "Reshape"
  }
  doc_string: "view(Tensor(a) self, SymInt[] size) -> Tensor(a)"
  opset_import {
    domain: ""
    version: 18
  }
  domain: "pkg.onnxscript.torch_lib"
}
functions {
  name: "Rank"
  input: "input"
  output: "return_val"
  node {
    input: "input"
    output: "tmp"
    name: "n0"
    op_type: "Shape"
  }
  node {
    input: "tmp"
    output: "return_val"
    name: "n1"
    op_type: "Size"
  }
  doc_string: "Take the rank of the input tensor."
  opset_import {
    domain: ""
    version: 18
  }
  domain: "pkg.onnxscript.torch_lib.common"
}
functions {
  name: "IsScalar"
  input: "input"
  output: "return_val"
  node {
    input: "input"
    output: "tmp"
    name: "n0"
    op_type: "Shape"
  }
  node {
    input: "tmp"
    output: "tmp_0"
    name: "n1"
    op_type: "Size"
  }
  node {
    output: "tmp_1"
    name: "n2"
    op_type: "Constant"
    attribute {
      name: "value_int"
      i: 0
      type: INT
    }
  }
  node {
    input: "tmp_0"
    input: "tmp_1"
    output: "return_val"
    name: "n3"
    op_type: "Equal"
  }
  doc_string: "Return whether the input has rank 0, or is a scalar."
  opset_import {
    domain: ""
    version: 18
  }
  domain: "pkg.onnxscript.torch_lib.common"
}
